dev_code/playground/lightning_test/lightning_logs/version_0/checkpoints/epoch=9-step=9380.ckpt (torch, 647426 bytes, 24 tensors)

conv1.weight f4 [10, 1, 3, 3]
-0.04687708 -0.14565782 -0.06277083 -0.058589324 0.2458673 -0.028732674 -0.1364995 -0.3811607
-0.116818674 -0.6161503 -0.1999274 -0.922669 0.11680961 0.20035724 0.37519044 -0.7315465
-0.5192744 -0.6107134 -0.08413076 0.65960515 -0.019807996 -1.3856685 -0.27623776 0.65378946
-1.0144969 -0.757593 0.19281472 0.0510814 0.1382866 0.16351347 0.55957955 0.13380636
-0.6844714 0.20583498 -0.36388406 -0.112692 0.22049315 0.54535276 0.48749292 -0.4144983
-0.0965486 0.18864016 -1.3598987 -0.6613908 -0.9683444 0.08511282 -0.028727368 0.08629791
-0.13806066 0.26507968 0.1604125 0.1419909 -0.032960348 -0.33640784 -0.55563086 -0.25017828
0.33032393 -0.68628275 -0.1281472 0.055043187 -0.3041068 -1.1488197 0.27240783 -0.34113556
-0.057698883 0.49836 -0.5234686 -0.08687718 0.36218575 -0.55474263 0.0261529 0.60902435
0.061985537 -0.41007653 -0.3523865 -0.07260182 -0.3949079 0.026552131 0.16395602 0.42600584
0.55770636 -0.5227201 -1.2242763 0.73600334 0.16052692 -1.8893234 -0.20843841 0.70339614
-0.3926802 -0.32677504
00000000: 2e02 40bd 5327 15be fe8d 80bd 5cfb 6fbd
00000010: a3c4 7b3e c960 ebbc 86c6 0bbe 7f27 c3be
00000020: a13e efbd 07bc 1dbf c5b9 4cbe 0934 6cbf
00000030: e039 ef3d 732a 4d3e f618 c03e a246 3bbf
00000040: 2bef 04bf b757 1cbf bf4c acbd e2db 283f
00000050: 6144 a2bc 965d b1bf 096f 8dbe bf5e 273f
00000060: 09db 81bf 9df1 41bf 3971 453e bb3a 513d
00000070: 019b 0d3e 1370 273e 9b40 0f3f 8904 093e
00000080: 8539 2fbf 68c6 523e 034f babe 10cb e6bd
00000090: f5c8 613e 3d9c 0b3f ac98 f93e 1f39 d4be
000000a0: 46bb c5bd e32a 413e 2911 aebf e850 29bf
000000b0: 6be5 77bf a14f ae3d a855 ebbc f5bc b03d
000000c0: c65f 0dbe 86b8 873e 2d43 243e 1066 113e
000000d0: 6e01 07bd a63d acbe d33d 0ebf 5e17 80be
000000e0: 3820 a93e 3ab0 2fbf 0539 03be f774 613d
000000f0: e3b3 9bbe 860c 93bf 0a79 8b3e 52a9 aebe
00000100: aa55 6cbd 0b29 ff3e 0a02 06bf aaec b1bd
00000110: 6970 b93e 9d03 0ebf 9b3e d63c 05e9 1b3f
00000120: 8ce4 7d3d 8df5 d1be 016c b4be 43b0 94bd
00000130: 5e31 cabe db83 d93c 16e4 273e 701d da3e
00000140: d8c5 0e3f fcd0 05bf 16b5 9cbf b76a 3c3f
00000150: 2b61 243e 59d5 f1bf e170 55be c511 343f
00000160: 610d c9be 0f4f a7be

conv1.bias f4 [10]
-0.23301905 -0.5328679 -0.8174931 -0.13744314 -0.11628271 -0.6655496 -0.6749709 -0.42555043
-0.2791469 -0.093990766
00000000: 8c9c 6ebe 086a 08bf 3a47 51bf e5bd 0cbe
00000010: a125 eebd 7561 2abf e5ca 2cbf bfe1 d9be
00000020: 58ec 8ebe 3b7e c0bd

conv2.weight f4 [20, 10, 3, 3]
-0.12587711 -0.16378269 -0.1426052 0.08393269 0.0437402 0.018762833 -0.070381835 -0.08309986
0.006722506 0.34727174 -0.09095755 -0.65410334 0.2426475 0.00593784 -0.11320278 -0.0957687
-0.66287524 0.07484149 -0.048699383 -0.04340824 -0.9279177 0.969254 -1.1544847 -1.1371745
-1.1470536 -0.7834391 -0.03628315 -0.005513499 0.5842139 -0.030402558 0.27823108 0.44687667
0.06663922 0.41767216 0.05794 -0.45878837 -0.2495114 0.22590342 -0.56347674 0.43184155
-0.41726843 -1.2466962 0.29886073 -0.903485 -0.9189812 0.1824661 0.018994251 -0.6627487
0.47751394 0.054185912 -0.49657688 -0.16741213 -0.5502898 -0.118760124 0.27267024 0.30881822
-0.19133033 0.6721904 -0.42354465 -0.5217298 -0.54553825 -0.9849359 -0.039279494 0.50761837
-1.5474061 -0.3786208 -0.11406177 -2.0338337 0.2692098 -1.8489153 -0.71479946 0.15689993
-0.3939676 -1.3383461 -0.024499007 -0.48477912 -2.1234117 0.71247745 -1.395816 -0.16808015
0.2827729 0.35889983 1.1997304 0.69757855 0.69968337 -0.19538127 -1.6359863 -0.9780044
-1.6417446 -0.2185794 0.021231161 -0.116844535 -0.09131231 0.019318786 0.01160889 -0.0028978956
-0.030729733 -0.09898354 0.028005335 -0.19287734 0.24549234 -0.1762633 -0.29766893 -0.15321854
0.32465044 -0.0093334075 -0.2329549 -0.15320526 0.075210385 0.4037356 0.2579599 -1.1391735
-0.32269663 -0.221082 -1.0794277 -0.81814015 0.22487047 0.17017992 -0.66065735 -0.5803921
-1.7451332 -0.20890547 0.32589847 0.16480322 0.8614545 -0.3466882 0.01522861 0.094703875
-0.23085077 -0.29359707 -1.6420722 0.48505092 -2.3327014 -0.19446726 0.25993437 -0.8419581
-0.29574427 -0.15112637 -0.20387603 0.18327706 0.2093226 0.58125013 -0.04082128 -0.50811905
0.05674215 0.06857062 -0.17516477 -0.2593013 -0.738417 -0.80121374 -0.39557713 0.31564966
0.1986801 -0.1753127 0.22409387 0.2662714 0.01147845 -0.16489913 -1.2670444 0.06931824
-0.7863454 0.79104286 -0.6324309 0.011058193 0.3949093 0.11231265 0.7164343 -0.1647514
0.4295913 -0.8488403 0.33530548 0.5111622 0.06881437 -0.50670207 0.46500784 -2.3891184
-1.0041034 -1.2694241 -1.5539738 -0.08358965 -0.112926856 0.02241384 -0.05290413 -0.04367009
-0.06925683 -0.054489143 0.003000635 -0.043836318 -0.14222597 -0.057749588 -0.8759847 -0.1945864
0.14246966 -0.38939425 -0.050736673 -0.20505191 -0.4931128 -0.48001075 -0.90408164 -0.5959457
-1.0047262 -1.2039925 -0.2491867 -0.013448752 -0.7572027 0.033930734 0.11173369 0.6463519
-0.8552291 -1.4281942 0.47611687 -0.13439895 -0.7496052 0.49853683 -0.074810274 -1.619431
-1.518908 -0.8088246 -0.27749124 -1.8676689 -0.8084985 -0.30170718 -0.73328876 -1.1117055
-0.53200173 0.001634421 -0.5001532 -0.30742732 0.19579555 -0.16966154 -0.0623692 0.06255055
-0.40889564 -0.47461748 -0.03317227 -0.76249224 0.48081824 -0.12894014 -0.1978453 0.20073742
-0.29418632 -0.8128579 -0.30173466 -0.7403782 -0.98094696 -0.13856545 -1.6648599 0.03671697
-0.40510336 -0.006913574 0.34433037 0.37482974 0.18672642 -0.5724617 -0.90993357 -1.4655323
00000000: eee5 00be a6b6 27be 1907 12be e7e4 ab3d
00000010: ed28 333d 83b4 993c 5a24 90bd 4230 aabd
00000020: 7848 dc3b 9acd b13e f447 babd 5173 27bf
00000030: 9678 783e 3692 c23b dcd6 e7bd 6122 c4bd
00000040: 31b2 29bf 7f46 993d 0179 47bd d7cc 31bd
00000050: 048c 6dbf 0821 783f 28c6 93bf ef8e 91bf
00000060: a7d2 92bf 778f 48bf a49d 14bd 95aa b4bb
00000070: 0b8f 153f c90e f9bc 4e74 8e3e 05cd e43e
00000080: 257a 883d 20d9 d53e 7e52 6d3d 4fe6 eabe
00000090: eb7f 7fbe 3a53 673e 0340 10bf 561a dd3e
000000a0: 35a4 d5be be93 9fbf 4604 993e cb4a 67bf
000000b0: 5a42 6bbf 65d8 3a3e d599 9b3c e6a9 29bf
000000c0: b57c f43e 0cf2 5d3d 533f febe 166e 2bbe
000000d0: cbdf 0cbf 8238 f3bd 6f9b 8b3e 6c1d 9e3e
000000e0: 19ec 43be ac14 2c3f d8da d8be 1690 05bf
000000f0: 65a8 0bbf c224 7cbf 89e3 20bd 47f3 013f
00000100: 6711 c6bf 96da c1be 3899 e9bd 552a 02c0
00000110: ded5 893e 42a9 ecbf 19fd 36bf 60aa 203e
00000120: 1fb6 c9be ed4e abbf 24b2 c8bc f834 f8be
00000130: fae5 07c0 ec64 363f 19aa b2bf 341d 2cbe
00000140: 9cc7 903e b8c1 b73e c490 993f 8294 323f
00000150: 731e 333f 0712 48be 0068 d1bf 7f5e 7abf
00000160: b024 d2bf 47d3 5fbe f9ec ad3c 304c efbd
00000170: f301 bbbd 6e42 9e3c 3733 3e3c 9fea 3dbb
00000180: ecbc fbbc e2b7 cabd 726b e53c a381 45be
00000190: 5862 7b3e 5e7e 34be 1068 98be 52e5 1cbe
000001a0: 9538 a63e 26eb 18bc bb8b 6ebe d7e1 1cbe
000001b0: e707 9a3d 6fb6 ce3e 5213 843e 70d0 91bf
000001c0: 7e38 a5be 5263 62be b02a 8abf a271 51bf
000001d0: 7244 663e a543 2e3e d720 29bf 9494 14bf
000001e0: 8660 dfbf 51eb 55be 2adc a63e 2dc2 283e
000001f0: 4888 5c3f 1e81 b1be 6b81 793c 1bf4 c13d
00000200: 2564 6cbe 5b52 96be 6c2f d2bf 9858 f83e
00000210: fb4a 15c0 6d22 47be 1e16 853e 918a 57bf
00000220: cb6b 97be dfc0 1abe e1c4 50be fbac 3b3e
00000230: aa58 563e cfcc 143f 3734 27bd 1714 02bf
00000240: 756a 683d c16e 8c3d 655e 33be 24c3 84be
00000250: e608 3dbf 581c 4dbf 1689 cabe d59c a13e
00000260: cc72 4b3e 2c85 33be dd78 653e ba54 883e
00000270: 1c10 3c3c 51db 28be 832e a2bf b9f6 8d3d
00000280: ef4d 49bf c981 4a3f fee6 21bf 6c2d 353c
00000290: 8d31 ca3e 2d04 e63d 3d68 373f 97b4 28be
000002a0: 64f3 db3e 994d 59bf 29ad ab3e 87db 023f
000002b0: 8cee 8c3d 3ab7 01bf 8215 ee3e 51e7 18c0
000002c0: 7686 80bf 7d7c a2bf 9de8 c6bf 0d31 abbd
000002d0: 3246 e7bd 3b9d b73c 00b2 58bd 69df 32bd
000002e0: 86d6 8dbd 0230 5fbd 4da6 443b b68d 33bd
000002f0: afa3 11be d58a 6cbd 8940 60bf a841 47be
00000300: 91e3 113e af5e c7be 42d1 4fbd 21f9 51be
00000310: 4879 fcbe f8c3 f5be e571 67bf e68f 18bf
00000320: de9a 80bf 6d1c 9abf cc2a 7fbe 2858 5cbc
00000330: 09d8 41bf f4fa 0a3d a2d4 e43d 5177 253f
00000340: 4bf0 5abf 11cf b6bf 97c5 f33e e19f 09be
00000350: 20e6 3fbf 3840 ff3e 2136 99bd 8449 cfbf
00000360: 946b c2bf 210f 4fbf 5513 8ebe c60f efbf
00000370: c2f9 4ebf 5d79 9abe d0b8 3bbf 5e4c 8ebf
00000380: 4431 08bf 113a d63a 0a0a 00bf 1d67 9dbe
00000390: a17e 483e c1bb 2dbe d976 7fbd 811a 803d
000003a0: c55a d1be 1001 f3be a5df 07bd b132 43bf
000003b0: cf2d f63e e208 04be f597 4abe 1c8e 4d3e
000003c0: 979f 96be 7517 50bf f77c 9abe 6d89 3dbf
000003d0: 571f 7bbf 1ae4 0dbe 211a d5bf 8964 163d
000003e0: b569 cfbe 438b e2bb 124c b03e afe9 bf3e
000003f0: 3635 3f3e da8c 12bf 68f1 68bf 9096 bbbf

conv2.bias f4 [20]
-0.052675016 -0.24148043 -0.16451244 -0.54886186 -0.10141663 -0.28119227 -0.2727147 -0.68833125
-0.7931217 -0.15370595 -0.1092651 -0.07161596 -0.38195023 -0.20886736 -0.07175403 -0.2856883
-0.0721904 -0.4014148 -0.08284529 -0.23282665
00000000: c2c1 57bd a546 77be f375 28be 3682 0cbf
00000010: 86b3 cfbd 6ff8 8fbe 43a1 8bbe 7a36 30bf
00000020: 060a 4bbf 1865 1dbe 61c6 dfbd 63ab 92bd
00000030: fb8e c3be 53e1 55be c7f3 92bd bd45 92be
00000040: 8fd8 93bd 3e86 cdbe cbaa a9bd 1c6a 6ebe

fc1.weight f4 [100, 500]
-0.09937515 -0.09804241 -0.025145316 -0.06931577 -0.08115271 -0.020134926 -0.018078722 -0.102000356
-0.08391388 0.055679925 -0.0714807 0.024798634 0.054000616 0.03564816 0.092152454 -0.028698856
-0.058104966 -0.10000999 -0.04069072 -0.09597306 -0.017561221 -0.05521001 0.018982736 -0.06409605
-0.07086927 -0.050008982 -0.046981793 -0.023846334 -0.091760516 -0.09473192 -0.09027005 -0.037791185
-0.049004763 -0.08469402 -0.04151838 -0.032057308 -0.0593389 0.040032886 0.09774264 -0.09021151
-0.017227871 -0.07962566 -0.055743113 -0.101445794 -0.061558586 -0.07652664 -0.08579072 -0.046486095
-0.086128026 -0.094417214 -0.10000353 -0.051355977 -0.09100261 -0.06773708 -0.043053463 -0.09591745
-0.09421267 -0.0783761 -0.023028255 -0.09992925 -0.0526073 -0.078798205 -0.07298606 -0.08068485
-0.09365502 -0.09552656 -0.10470264 -0.042500507 -0.09077383 -0.07947484 -0.09078726 -0.07814832
-0.09833379 -0.088721074 -0.044174396 0.022042649 0.062727205 -0.024176015 -0.06919789 0.04688666
0.093064085 -0.093777984 0.02187842 -0.06978523 0.05222991 -0.09340759 -0.03289188 0.023074625
0.06432101 -0.02908957 -0.029726004 -0.06786122 -0.060849488 -0.094595276 -0.09197749 -0.025389254
0.08346521 -0.07733946 -0.02401289 0.02238564 0.057972107 -0.015369557 -0.07644725 -0.073318854
-0.045973964 -0.032425374 -0.043934066 -0.076562144 -0.032397836 -0.03482824 -0.07446011 -0.03650899
-0.053447116 -0.023976471 -0.041039363 -0.023409532 -0.039471306 -0.035752814 -0.10393407 -0.09684397
-0.01552063 -0.09384277 -0.05923433 -0.04890596 -0.036312528 -0.051206384 -0.104539715 -0.06277063
0.045312807 -0.07965708 -0.051518157 -0.08135486 -0.08793173 -0.053583752 -0.040690005 -0.03408103
-0.023401828 -0.039405204 -0.03152268 -0.079146065 -0.025646452 -0.056696143 -0.0964192 -0.024198098
-0.058576852 -0.046341904 -0.06483319 0.017061472 0.09453915 -0.101018354 0.0774161 0.036247097
-0.0640899 -0.052319255 -0.021634756 -0.028591314 -0.08146433 -0.06592094 -0.10171349 -0.0427334
-0.050462093 -0.043364886 -0.10053503 -0.02007052 -0.08321678 -0.08191434 0.085373774 -0.02984265
-0.026514217 -0.05133764 -0.09642452 -0.06665114 -0.092718706 -0.100455105 0.09040855 0.09623119
-0.047705505 0.03429552 0.082573004 0.04294765 -0.1033995 0.061226703 0.06251348 0.08191761
0.08177975 -0.069694325 0.019384403 -0.03921353 -0.06159269 0.081540234 -0.04783577 -0.03884943
-0.04238568 -0.056178235 -0.030303916 0.05223325 -0.076790005 0.08870413 -0.079780504 -0.0669079
-0.036750175 0.027191672 0.043957498 0.032047983 -0.026482169 -0.014178223 0.0342297 0.026685428
0.015367158 0.0027226731 0.039009366 0.004955698 -0.043146897 -0.033540085 0.036615383 0.038204033
-0.03789799 -0.01174004 0.02833601 0.042009424 0.02291089 -0.04361454 0.010171175 -0.014592048
0.009590235 -0.035014924 -0.0507028 -0.035542708 -0.05485534 -0.07605466 -0.06684394 -0.084855646
-0.0912928 -0.0322569 -0.04977499 -0.046405856 -0.041480474 -0.029052593 -0.06313941 -0.09187611
-0.092473924 -0.035632785 -0.080689296 -0.05075743 -0.09485348 -0.07708972 -0.0881132 -0.093919456
-0.08667019 -0.04340567 -0.09063018 -0.05142511 -0.029864619 0.03222907 0.068739094 -0.07529509
00000000: 3385 cbbd 76ca c8bd 8dfd cdbc 6df5 8dbd
00000010: 6433 a6bd 00f2 a4bc d419 94bc 90e5 d0bd
00000020: 0adb abbd a210 643d 7964 92bd 8126 cb3c
00000030: c02f 5d3d ce03 123d 6dba bc3d dd19 ebbc
00000040: 79ff 6dbd 0ad2 ccbd 50ab 26bd 868d c4bd
00000050: 8ddc 8fbc e423 62bd af81 9b3c ca44 83bd
00000060: e823 91bd 38d6 4cbd fb6f 40bd 6359 c3bc
00000070: f0ec bbbd cf02 c2bd 81df b8bd eeca 1abd
00000080: 38b9 48bd 0f74 adbd 2d0f 2abd 864e 03bd
00000090: 590d 73bd 86f9 233d 4b2d c83d d0c0 b8bd
000000a0: 7721 8dbc c712 a3bd e452 64bd d0c2 cfbd
000000b0: db24 7cbd 00ba 9cbd 0cb3 afbd 3468 3ebd
000000c0: e463 b0bd d05d c1bd a7ce ccbd a55a 52bd
000000d0: 945f babd bdb9 8abd d458 30bd 5e70 c4bd
000000e0: 93f2 c0bd a683 a0bd c0a5 bcbc b5a7 ccbd
000000f0: c17a 57bd f460 a1bd b779 95bd 193e a5bd
00000100: 34ce bfbd 6ea3 c3bd 566e d6bd 0315 2ebd
00000110: a1e7 b9bd b4c3 a2bd acee b9bd 3a0c a0bd
00000120: 3a63 c9bd 65b3 b5bd 36f0 34bd c992 b43c
00000130: 1f77 803d c70c c6bc a0b7 8dbd 3a0c 403d
00000140: 6298 be3d ac0e c0bd 5f3a b33c 8feb 8ebd
00000150: 08ef 553d 7b4c bfbd a3b9 06bd ff06 bd3c
00000160: bcba 833d 404d eebc f383 f3bc d3fa 8abd
00000170: 503d 79bd 2bbb c1bd b25e bcbd 20fd cfbc
00000180: cfef aa3d 2764 9ebd aeb6 c4bc 1762 b73c
00000190: 2974 6d3d 98d0 7bbc 6090 9cbd 3228 96bd
000001a0: 324f 3cbd 78d0 04bd 35f4 33bd 9dcc 9cbd
000001b0: 98b3 04bd 0ea8 0ebd 8b7e 98bd 738a 15bd
000001c0: 5deb 5abd 4e6a c4bc e418 28bd 59c5 bfbc
000001d0: aaac 21bd 8b71 12bd 63db d4bd 2256 c6bd
000001e0: 3e4a 7ebc a330 c0bd b29f 72bd 9e51 48bd
000001f0: 72bc 14bd c9bd 51bd eb18 d6bd e38d 80bd
00000200: ec99 393d 4023 a3bd b404 53bd 609d a6bd
00000210: 8d15 b4bd a37a 5bbd 90aa 26bd 8d98 0bbd
00000220: 31b5 bfbc 5a67 21bd ed1d 01bd 5517 a2bd
00000230: 8218 d2bc 373a 68bd 6e77 c5bd 173b c6bc
00000240: 48ee 6fbd 02d1 3dbd 43c7 84bd 80c4 8b3c
00000250: be9d c13d b6e2 cebd 558c 9e3d d677 143d
00000260: 9141 83bd b74c 56bd 5f3b b1bc 5538 eabc
00000270: c5d6 a6bd 8f01 87bd 2a4f d0bd 3809 2fbd
00000280: 57b1 4ebd 619f 31bd 4fe5 cdbd ee6a a4bc
00000290: 8f6d aabd b5c2 a7bd 72d8 ae3d 9378 f4bc
000002a0: 5834 d9bc 6b47 52bd 387a c5bd 6580 88bd
000002b0: 4ee3 bdbd 68bb cdbd 1e28 b93d dc14 c53d
000002c0: d966 43bd 7679 0c3d 091c a93d e0e9 2f3d
000002d0: 1ec3 d3bd dac8 7a3d 1107 803d 6bc4 a73d
000002e0: 247c a73d e6bb 8ebd 0acc 9e3c 5e9e 20bd
000002f0: 9e48 7cbd 91fe a63d 71ef 43bd 9420 1fbd
00000300: 9b9c 2dbd 261b 66bd eb3f f8bc 88f2 553d
00000310: 1444 9dbd 83aa b53d f663 a3bd 0207 89bd
00000320: 5a87 16bd 12c1 de3c c70c 343d bf44 033d
00000330: 22f1 d8bc c74b 68bc 7134 0c3d 669b da3c
00000340: 88c6 7b3c e06e 323b 49c8 1f3d 6863 a23b
00000350: cdba 30bd 5461 09bd 03fa 153d d57b 1c3d
00000360: ec3a 1bbd 4c59 40bc ec20 e83c 1312 2c3d
00000370: 9eaf bb3c 29a5 32bd 00a5 263c 7c13 6fbc
00000380: 5c20 1d3c cf6b 0fbd bdad 4fbd 3b95 11bd
00000390: feaf 60bd 8cc2 9bbd 7ae5 88bd ccc8 adbd
000003a0: b8f7 babd d01f 04bd dce0 4bbd 1114 3ebd
000003b0: 6ee7 29bd b4ff edbc 3c4f 81bd 8b29 bcbd
000003c0: f862 bdbd aff3 11bd 6e40 a5bd 06e7 4fbd
000003d0: 8b42 c2bd 37e1 9dbd b274 b4bd d858 c0bd
000003e0: 2480 b1bd 25ca 31bd 519c b9bd 23a3 52bd
000003f0: a5a6 f4bc a102 043d 15c7 8c3d 5034 9abd

fc1.bias f4 [100]
-0.08746127 0.30230668 0.25074574 -0.032935273 -0.051867053 -0.030572252 -0.028167134 -0.05963401
-0.29123172 -0.5818218 0.008108953 -0.03808386 -0.029380715 -0.29349715 -0.07722376 0.03430383
-0.08624335 -0.25352162 -0.49019137 -0.058527246 -0.4371353 0.142483 0.20105423 -0.2605259
-0.34883416 -0.21379095 -0.0046326574 -0.33064735 -0.085151955 -0.08350588 -0.20424677 -0.07593649
-0.5251689 -0.045492318 -0.035905343 -0.6928747 -0.1371799 -0.077947274 -0.049796622 -0.7481245
-0.059431937 -0.033296652 -0.064070225 -0.6704591 -0.097965404 0.06898835 -0.4537163 -0.082731016
-0.07672167 -1.0065944 -0.25705492 0.586909 -0.29611367 -0.052219078 0.11476886 -0.06945023
-0.17252114 -0.09914797 -0.03799105 -0.09702939 -0.10349817 -0.060593225 -0.100235954 -0.07157169
-0.0897914 -0.25555095 -0.31351763 -0.04069146 -0.6913618 -0.084490076 -0.06412858 -0.0936542
-0.526051 0.11786254 -0.107177675 -0.05966521 -0.056743953 -0.09995988 -0.40415376 0.034785252
-0.14700514 -0.07032341 -0.18882588 0.46484727 -0.05368604 -0.092164695 -0.047633003 0.17616765
-0.06535107 -0.3958345 0.15457544 -0.077794455 -0.14744653 -0.06203065 0.07671205 -0.06723513
-0.034566462 -0.10040173 -0.4114366 -0.05928774
00000000: e51e b3bd f1c7 9a3e bf61 803e 23e7 06bd
00000010: 8c72 54bd a972 fabc c3be e6bc cb42 74bd
00000020: 531c 95be 46f2 14bf 6adb 043c d2fd 1bbd
00000030: d3af f0bc 4245 96be 7e27 9ebd 2c82 0c3d
00000040: 5aa0 b0bd 96cd 81be 5dfa fabe 44ba 6fbd
00000050: 33d0 dfbe 10e7 113e 29e1 4d3e a763 85be
00000060: 649a b2be 04ec 5abe 8ccd 97bb 9c4a a9be
00000070: 2664 aebd 2105 abbd 1126 51be 9784 9bbd
00000080: 7871 06bf 2756 3abd 7b11 13bd 3d60 31bf
00000090: e378 0cbe d2a2 9fbd 8bf7 4bbd 1685 3fbf
000000a0: e76e 73bd 1262 08bd 4037 83bd 35a3 2bbf
000000b0: 16a2 c8bd c449 8d3d 814d e8be e16e a9bd
000000c0: 4020 9dbd 16d8 80bf b49c 83be ab3f 163f
000000d0: 369c 97be ace3 55bd f00b eb3d ec3b 8ebd
000000e0: 62a9 30be 170e cbbd 819c 1bbd 58b7 c6bd
000000f0: d9f6 d3bd 9a30 78bd 8248 cdbd 2e94 92bd
00000100: 8ee4 b7bd 93d7 82be 6285 a0be 17ac 26bd
00000110: 16fd 30bf 2209 adbd d855 83bd c6cd bfbd
00000120: 47ab 06bf ea61 f13d f87f dbbd 8263 74bd
00000130: 596c 68bd c4b7 ccbd 3eed cebe fb7a 0e3d
00000140: 8488 16be b805 90bd 925b 41be 7600 ee3e
00000150: e5e5 5bbd d8c0 bcbd d31a 43bd 4b65 343e
00000160: c8d6 85bd d2aa cabe 0649 1e3e b352 9fbd
00000170: 39fc 16be da13 7ebd 351b 9d3d 92b2 89bd
00000180: 9095 0dbd 6c9f cdbd d1a7 d2be b4d7 72bd

fc2.weight f4 [10, 100]
-0.035115033 -0.54405254 -1.0538174 0.01679911 -1.131095 -0.009735746 -0.086135685 -0.04167316
-0.52248645 -0.3350595 -0.013728537 -0.011548701 -0.01782783 -0.032219764 -0.041145507 -0.15213373
0.024925763 0.19755143 0.008110781 -0.05017961 -0.63580495 -0.7105301 0.5786463 -0.32263273
0.041623764 -0.18606567 0.029188551 -0.7761467 0.0005080281 -0.08973828 -0.017666306 0.022278527
0.039706573 0.017673023 -0.09649543 0.30156124 -0.60196877 0.010462377 -0.15245804 -0.22761457
-0.05495334 -0.03249858 0.007874096 -0.6257795 -0.0411361 0.3925915 -0.1372949 -0.0016235724
0.045468587 0.09520088 0.09866446 -0.03352 0.5010813 -0.01523146 0.26890853 -0.03528461
-0.13694698 -0.003202991 -0.048381373 -0.03962598 -0.122704 0.041292015 -0.23518729 -0.08182848
0.07982372 -0.9884936 0.15034445 0.032141637 -0.2880018 0.030968066 0.036553115 0.025935806
0.22375327 -0.519455 -0.58385134 0.03499026 0.0067670234 -0.21015866 -0.61848253 -0.85183924
-0.05871954 0.040407613 0.48201686 -0.5180721 -0.051904395 0.008228127 0.0027302231 0.5974864
0.050164063 -0.031539187 -1.3795338 -0.036418978 0.08180886 0.04210988 0.45443085 -0.055190343
0.02220859 0.5008452 -0.19154309 0.017587291 -0.115033455 0.112757586 0.69851375 0.062235523
0.40368617 -0.0006328366 -0.1158017 0.038598534 -0.5166483 -0.7827624 -0.14220764 -0.027075134
0.015650619 -0.48108217 -0.02499645 0.22289105 0.032565683 -0.9382709 0.22760788 -0.02937391
0.27712667 0.3826163 0.56014067 -0.2547691 0.09221989 -0.29835436 -0.081720956 -0.52120006
-0.0044052196 -0.046003915 -0.049786475 -0.13651334 -0.62855405 0.10748587 0.0029549722 -0.32412535
0.0019328828 -0.11398018 -0.007916605 -0.036996022 -0.086181745 -0.109802336 -0.011385496 0.4385534
0.15166374 -0.056083772 -0.64789814 -0.04209723 0.05316546 0.23325706 -0.37995848 0.052376375
-0.7972931 -0.012829993 -1.5032187 -0.1103367 -0.026849203 -0.11362909 0.07804382 -0.05842892
0.022276845 -0.038938224 0.1694795 0.043499015 -0.013935027 -0.09948126 -0.30942443 0.03661936
-1.0445302 -0.1493676 -0.026165385 -0.13628866 -1.0066986 -0.020280145 0.26290143 0.03275076
-0.038254846 0.043756124 0.33256778 0.13035269 -0.040381435 0.024217222 0.11725503 -0.045010723
0.02750486 -0.08788504 0.031476747 0.47310698 -0.095620595 -0.22139065 0.31638506 -0.066509716
0.42548364 -0.07823217 -0.39276963 -0.01696615 0.13143699 -0.21179374 -0.4775528 -0.042590924
-0.044313654 0.15112568 -0.6189752 0.12834305 0.098237775 -0.0077126194 0.005939438 -0.036689557
0.361101 0.1112528 0.030592134 0.082340054 -0.037906468 0.24942619 -0.03294565 0.39297956
-0.05614628 -0.44973356 -0.40419027 -0.001867244 -0.4754379 -0.37491894 -0.68579113 -0.34766427
-0.089101054 0.34191498 0.07189925 0.35290122 -0.15064575 -5.675854e-05 0.13841687 0.020824615
-0.21542788 -0.017026845 -0.0466544 -0.34946668 -0.6298717 -0.10258861 -0.089870125 0.10811262
-0.084205635 0.0094979275 -0.11123518 -0.43358746 -0.09218056 0.45950302 0.20407084 -0.090827145
0.016022444 -0.2563241 -0.58353895 -0.2668701 0.15322593 0.14155842 -0.2274519 -0.10096636
00000000: c8d4 0fbd 0747 0bbf 7de3 86bf 4a9e 893c
00000010: b9c7 90bf ae82 1fbc e867 b0bd 7ab1 2abd
00000020: acc1 05bf eb8c abbe a8ed 60bc c336 3dbc
00000030: ab0b 92bc dff8 03bd 3188 28bd f2c8 1bbe
00000040: 1d31 cc3c ec4a 4a3e 15e3 043c 2289 4dbd
00000050: 1dc4 22bf 4de5 35bf 2a22 143f 1e30 a5be
00000060: ae7d 2a3d 0088 3ebe d41c ef3c 8db1 46bf
00000070: 302d 053a b4c8 b7bd eeb8 90bc 7581 b63c
00000080: 5ca3 223d 04c7 903c 659f c5bd 3c66 9a3e
00000090: a01a 1abf 646a 2b3c f61d 1cbe cb13 69be
000000a0: c116 61bd 3b1d 05bd 5a02 013c 1633 20bf
000000b0: 547e 28bd c101 c93e 0997 0cbe 0dce d4ba
000000c0: 453d 3a3d aef8 c23d 9810 ca3d 444c 09bd
000000d0: dd46 003f 608d 79bc 61ae 893e 9886 10bd
000000e0: d43b 0cbe 46e9 51bb 8c2b 46bd da4e 22bd
000000f0: 3c4c fbbd d121 293d f0d4 70be b195 a7bd
00000100: 9e7a a33d eb0d 7dbf e5f3 193e f3a6 033d
00000110: f974 93be beb0 fd3c b8b8 153d 5477 d43c
00000120: 941f 653e 01fb 04bf 4877 15bf f251 0f3d
00000130: e8bd dd3b d533 57be df54 1ebf 2312 5abf
00000140: e683 70bd 7482 253d eaca f63e 60a0 04bf
00000150: b499 54bd 44cf 063c 8bed 323b def4 183f
00000160: d578 4d3d 3c2f 01bd 9094 b0bf 112c 15bd
00000170: 678b a73d 697b 2c3d 29ab e83e 450f 62bd
00000180: caee b53c 6437 003f df23 44be 3913 903c
00000190: a996 ebbd 73ed e63d ccd1 323f adea 7e3d
000001a0: f4af ce3e f2e4 25ba 7129 edbd 7f19 1e3d
000001b0: 1043 04bf 1e63 48bf e19e 11be accc ddbc
000001c0: ba35 803c 6750 f6be 5bc5 ccbc 8d3d 643e
000001d0: 9863 053d 8632 70bf 0a12 693e 8ea1 f0bc
000001e0: 8ce3 8d3e 49e6 c33e 6165 0f3f 1871 82be
000001f0: c8dd bc3d e7c1 98be 515d a7bd 5e6d 05bf
00000200: a959 90bb 9a6e 3cbd e7ec 4bbd 27ca 0bbe
00000210: ebe8 20bf 8d21 dc3d 35a8 413b c2f3 a5be
00000220: c958 fd3a 716e e9bd a6b4 01bc 2489 17bd
00000230: 0e80 b0bd 0ce0 e0bd 3b8a 3abc 128a e03e
00000240: bd4d 1b3e 19b8 65bd a7dc 25bf 256e 2cbd
00000250: 06c4 593d f0da 6e3e eb89 c2be 9c88 563d
00000260: 671b 4cbf e434 52bc 7869 c0bf 35f8 e1bd
00000270: dcf2 dbbc 5eb6 e8bd 70d5 9f3d 2a53 6fbd
00000280: ee7d b63c b07d 1fbd 098c 2d3e 062c 323d
00000290: bd4f 64bc d5bc cbbd e16c 9ebe 2ffe 153d
000002a0: 2ab3 85bf d2f3 18be ca58 d6bc 418f 0bbe
000002b0: 80db 80bf 8c22 a6bc 049b 863e a925 063d
000002c0: 1db1 1cbd 9f39 333d 5346 aa3e 2d7b 053e
000002d0: 0167 25bd 3263 c63c 6823 f03d 2a5d 38bd
000002e0: df51 e13c 12fd b3bd c3ed 003d 143b f23e
000002f0: bbd4 c3bd 3bb4 62be 39fd a13e 3f36 88bd
00000300: fed8 d93e 3038 a0bd 1a19 c9be 98fc 8abc
00000310: 6b97 063e 75e0 58be cd81 f4be d273 2ebd
00000320: 3c82 35bd b1c0 1a3e 2975 1ebf 5c6c 033e
00000330: e330 c93d 24ba fcbb 9e9f c23b ca47 16bd
00000340: 3be2 b83e 82d8 e33d 5b9c fa3c e7a1 a83d
00000350: d043 1bbd 9469 7f3e 05f2 06bd 9e34 c93e
00000360: a4f9 65bd 7a43 e6be 07f2 cebe 50be f4ba
00000370: 996c f3be 60f5 bfbe 0290 2fbf 0d01 b2be
00000380: 9d7a b6bd 7b0f af3e ea3f 933d 78af b43e
00000390: e142 1abe 0510 6eb8 27bd 0d3e 6298 aa3c
000003a0: 2099 5cbe e27b 8bbc af18 3fbd 4ced b2be
000003b0: 463f 21bf fa19 d2bd d40d b8bd 266a dd3d
000003c0: 0174 acbd 329d 1b3c 45cf e3bd 2dff ddbe
000003d0: 29c9 bcbd fb43 eb3e f2f7 503e 9503 babd
000003e0: 8041 833c ea3c 83be cf62 15bf 33a3 88be
000003f0: 42e7 1c3e b1f4 103e 27e9 68be 73c7 cebd

fc2.bias f4 [10]
-0.46751827 0.91427255 -0.32155433 0.31801367 0.1970341 -0.5543709 -0.698914 -0.08619135
0.5283244 -0.21298052
00000000: 8e5e efbe c40d 6a3f c5a2 a4be b0d2 a23e
00000010: 4fc3 493e 40eb 0dbf 07ec 32bf 1785 b0bd
00000020: 4540 073f 9117 5abe

exp_avg f4 [10, 1, 3, 3]
6e-45 6e-45 6e-45 6e-45 -4.1760266e-14 6e-45 6e-45 6e-45
6e-45 1.37861016e-14 -2.4259177e-16 -8.5925786e-16 -8.610481e-07 -9.188561e-07 -9.188535e-07 1.7439154e-10
1.7439183e-10 -5.7633756e-08 0.0032037266 -0.0004885042 -0.0008822095 0.00020518733 -0.0022406406 -0.0012239716
-2.6664912e-07 -2.6882664e-05 0.0005732721 0.0051911883 0.0030797445 0.0059718704 0.0072387555 0.0042008823
-0.00032058387 0.0025559624 -0.0014513277 -0.0006201839 0.015397955 0.009587976 0.0055417325 0.0077348566
0.0041132174 -0.00075122755 -0.0011810286 -0.0018835134 -0.0033068003 6e-45 6e-45 6e-45
6e-45 6e-45 6e-45 6e-45 6e-45 6e-45 -6e-45 -6e-45
6e-45 -6e-45 -6e-45 6e-45 -6e-45 -6e-45 6e-45 -0.0035187337
-0.00839174 -0.022083461 -0.002719305 -0.0077354466 -0.022920737 -0.0073899846 -0.019692376 -0.029468212
-0.0033131384 -0.0029967823 -0.004787703 -0.009519299 -0.006400482 -0.007455715 -0.028501857 -0.026958112
-0.021269225 0.005409266 0.0010396878 0.004229411 -0.0032252097 -0.00032886196 0.0022300456 -0.00083915755
0.0068197977 0.006776421
00000000: 0400 0000 0400 0000 0400 0000 0400 0000
00000010: 4f12 3ca9 0400 0000 0400 0000 0400 0000
00000020: 0400 0000 2c59 7828 3ad8 8ba5 0aaa 77a6
00000030: c622 67b5 4fa7 76b5 22a7 76b5 dbbe 3f2f
00000040: f0be 3f2f fc88 77b3 9df5 513b f60e 00ba
00000050: 1444 67ba 8e27 5739 b6d7 12bb ac6d a0ba
00000060: fa27 8fb4 1582 e1b7 a447 163a d81a aa3b
00000070: 8ad5 493b aeaf c33b 1533 ed3b 8ea7 893b
00000080: 0a14 a8b9 ef81 273b 7a3a beba d693 22ba
00000090: b447 7c3c e316 1d3c 6c97 b53b ae74 fd3b
000000a0: 2bc8 863b 07ee 44ba becc 9aba 39e0 f6ba
000000b0: e7b6 58bb 0400 0000 0400 0000 0400 0000
000000c0: 0400 0000 0400 0000 0400 0000 0400 0000
000000d0: 0400 0000 0400 0000 0400 0080 0400 0080
000000e0: 0400 0000 0400 0080 0400 0080 0400 0000
000000f0: 0400 0080 0400 0080 0400 0000 8e9a 66bb
00000100: 827d 09bc 60e8 b4bc 5e36 32bb a179 fdbb
00000110: 45c4 bbbc af27 f2bb e851 a1bc 5267 f1bc
00000120: 3d21 59bb aa65 44bb 2ae2 9cbb d5f6 1bbc
00000130: 22bb d1bb 124f f4bb ba7c e9bc 42d7 dcbc
00000140: cc3c aebc 3640 b13b 2246 883a df96 8a3b
00000150: 0a5e 53bb 1b6b acb9 f525 123b e9fa 5bba
00000160: 9c78 df3b bd0c de3b

exp_avg_sq f4 [10, 1, 3, 3]
4.1829274e-12 4.8423587e-12 4.6730623e-12 3.193556e-12 4.445829e-12 3.1030684e-12 1.6856339e-13 2.8336234e-14
1.04667096e-13 2.724104e-06 2.1807782e-06 1.3241005e-06 1.1129197e-05 1.100538e-05 9.6412405e-06 2.330714e-06
2.6812481e-06 3.6009246e-06 0.0009865459 0.0019377365 0.0023755967 4.194997e-05 0.0006323024 0.0021088847
3.7958018e-06 0.00026841633 0.0018223436 0.010549534 0.009093249 0.005875794 0.010929082 0.0050456366
0.0013221059 0.008454563 0.0020735885 0.0006408787 0.011039662 0.011073869 0.011798863 0.0032666898
0.0024857882 0.004455201 0.00014130463 0.00012173916 0.0010318522 2.4704293e-06 2.9539372e-06 2.6751034e-06
2.5067259e-06 3.131007e-06 2.4196736e-06 2.938464e-06 3.1163847e-06 1.9108395e-06 2.666542e-07 2.4882077e-06
1.0399841e-05 1.6115049e-08 7.840309e-07 9.3228455e-06 2.6798197e-08 4.2292075e-07 8.047105e-06 0.0012960095
0.0037913378 0.009060347 0.00048351852 0.003888739 0.0111031905 0.001052458 0.005804439 0.0126213115
0.0038278585 0.001242906 0.0035043166 0.006467512 0.004593546 0.009151306 0.010864891 0.011864891
0.014707169 0.001982767 0.00016994496 0.0016699579 0.0028312325 4.5910332e-05 0.0004002418 0.0057124374
0.0014348809 0.0006441537
00000000: 762c 932c 1760 aa2c 346b a42c feb9 602c
00000010: 786c 9c2c e95b 5a2c 17c9 3d2a e83a ff28
00000020: 79b0 eb29 c0cf 3636 7c59 1236 bfb7 b135
00000030: 8ab7 3a37 bfa3 3837 d0c0 2137 5d69 1c36
00000040: 7eef 3336 6aa7 7136 fd4e 813a a6fb fd3a
00000050: e6af 1b3b 70f3 2f38 19c1 253a 3735 0a3b
00000060: 61bb 7e36 3bba 8c39 b4db ee3a f4d7 2c3c
00000070: dafb 143c bc89 c03b e40f 333c de55 a53b
00000080: 834a ad3a 0285 0a3c 0be5 073b a400 283a
00000090: b3df 343c 2c6f 353c 0550 413c f615 563b
000000a0: 9be8 223b effc 913b 2c2b 1439 374e ff38
000000b0: 373f 873a a7c9 2536 413c 4636 ed85 3336
000000c0: 3939 2836 4a1e 5236 ad61 2236 6d32 4536
000000d0: 1523 5136 f93b 0036 ad28 8f34 15fb 2636
000000e0: fa7a 2e37 5e6d 8a32 3176 5235 5169 1c37
000000f0: dc31 e632 c90d e334 0e02 0737 ddde a93a
00000100: 1878 783b da71 143c c280 fd39 37da 7e3b
00000110: 28ea 353c a1f2 893a 2a33 be3b 9ec9 4e3c
00000120: cfdc 7a3b 01e9 a23a ada8 653b 6ced d33b
00000130: 7585 963b 5cef 153c a802 323c f664 423c
00000140: 56f6 703c 4ff1 013b 4133 3239 7de2 da3a
00000150: 338c 393b d88f 4038 8cd7 d139 662f bb3b
00000160: 9d12 bc3a 6cdc 283a

exp_avg f4 [10]
-4.1760266e-14 -9.1884675e-07 -0.001014028 -0.0039730645 0.015383924 6e-45 6e-45 -0.037690442
-0.033335827 0.004930873
00000000: 4f12 3ca9 aba6 76b5 22e9 84ba 7b30 82bb
00000010: db0c 7c3c 0400 0000 0400 0000 4b61 1abd
00000020: 268b 08bd 2993 a13b

exp_avg_sq f4 [10]
5.4897306e-12 1.5164173e-05 0.0031342357 0.018184772 0.02517131 3.838837e-06 1.4119387e-05 0.016183736
0.024408706 0.019080315
00000000: 1927 c12c a169 7e37 c067 4d3b 3bf8 943c
00000010: 1034 ce3c 5ccf 8036 4ee2 6c37 c193 843c
00000020: c4f4 c73c 524e 9c3c

exp_avg f4 [20, 10, 3, 3]
-6e-45 5.6895707e-15 6e-45 6e-45 6e-45 6e-45 6e-45 6e-45
6e-45 2.5145383e-20 -7.023281e-24 6e-45 6e-45 -6e-45 6e-45 -6e-45
-6e-45 6.665061e-07 -8.412444e-06 -4.9361523e-05 -0.00010889487 0.00016491677 7.3347546e-06 -1.4837163e-05
0.00023423765 -2.5028473e-06 4.456143e-05 0.0024410172 0.002741712 0.0052744607 0.0026254728 0.004800246
0.005408131 0.0015768363 0.0025163533 0.00066438917 -0.0010367089 0.0004302811 0.00074437074 7.63442e-05
0.0015832112 0.00046795342 0.0008390424 0.00012489405 4.87033e-05 6e-45 -6e-45 -6e-45
-6e-45 -6e-45 6e-45 -6e-45 -6e-45 -6e-45 -6e-45 -6e-45
-6e-45 -6e-45 6e-45 6e-45 -6e-45 -6e-45 6e-45 0.0006768136
2.1810576e-05 -0.00016828658 -0.00069856783 6.829062e-05 0.0009573679 -0.00011590338 0.00033018366 -0.000726873
0.0031945144 0.0004345186 8.9256784e-05 0.0010927888 0.0005209858 0.0013949147 0.0007225802 0.003758626
0.00359929 -0.0010656014 -4.7548474e-05 0.0001381259 0.0011780614 0.00014646658 9.8919154e-05 0.00040136997
0.00047564378 0.00013646956 -6e-45 6e-45 6e-45 6e-45 6e-45 6e-45
6e-45 6e-45 6e-45 4.748169e-26 6e-45 -6e-45 6e-45 -6e-45
1.3143444e-11 -6.1698596e-25 -1.9417534e-22 1.0445239e-22 -0.00027583784 -3.1639534e-05 0.00015820684 2.0177215e-05
5.5738474e-07 3.0968563e-06 -3.229487e-06 8.124013e-08 0.00018361291 -0.00072683836 -0.00031457708 -0.0017321337
-0.00017653553 -0.00018575818 5.5536868e-05 -0.0011204552 -0.0007628311 -0.0013984963 -0.00035732295 -0.00040067593
-0.00044618535 0.00013673227 -3.3478027e-05 0.000470409 0.0002397667 0.00014996818 0.0002596194 6e-45
6e-45 6e-45 -6e-45 6e-45 6e-45 6e-45 6e-45 6e-45
-6e-45 6e-45 -6e-45 6e-45 -6e-45 -6e-45 -6e-45 6e-45
-6e-45 -0.001472011 -0.0009037508 0.0007138744 -0.0018968986 -0.0006438113 0.00014577633 -0.0011960717
-0.0011667925 -0.0034573604 0.00088599586 0.00084691605 0.000361838 -0.0016369659 -0.0020471746 -0.0017315573
-0.00065680395 -0.00078921294 -0.0044981893 -0.00038528873 -0.00021216938 4.9947754e-05 4.2610056e-05 -4.9749528e-05
-0.00096855726 -4.5710058e-05 -1.1108533e-05 -0.0005885469 6e-45 6e-45 6e-45 6e-45
6e-45 6e-45 6e-45 6e-45 6e-45 6e-45 -6e-45 -6e-45
-6e-45 6e-45 -6e-45 6e-45 6e-45 2.1254833e-31 5.0208246e-27 -3.680922e-14
8.31708e-07 5.771697e-10 -9.0549736e-13 -2.2528501e-10 4.170016e-06 -2.8316558e-08 -2.5985128e-06 -0.0049197483
-0.0005567548 -7.783785e-07 -0.007050474 -0.0012476419 6.7700785e-07 -0.0042099324 -0.0015143076 5.4399123e-05
-5.5403805e-05 -0.00035568798 -0.00039695864 -0.00022694844 7.3211703e-07 -0.00029123196 -0.00020264863 -1.8929137e-05
-8.4917424e-08 6e-45 6e-45 -6e-45 6e-45 -6e-45 -6e-45 -6e-45
-6e-45 6e-45 -6e-45 6e-45 6e-45 -6e-45 6e-45 -6e-45
6e-45 -6e-45 -6e-45 -3.960215e-06 -3.2513092e-10 4.0727766e-05 -4.6975018e-07 -8.030454e-06
0.00019479665 -0.00011594283 0.00013890068 -0.0016743281 -0.0009312173 1.0466099e-05 -2.847647e-05 -6.917056e-05
00000000: 0400 0080 07fd cc27 0400 0000 0400 0000
00000010: 0400 0000 0400 0000 0400 0000 0400 0000
00000020: 0400 0000 ce7d ed1e 9ad9 0799 0400 0000
00000030: 0400 0000 0400 0080 0400 0000 0400 0080
00000040: 0400 0080 f3e9 3235 2c23 0db7 8809 4fb8
00000050: 7d5e e4b8 82ed 2c39 101d f636 21ed 78b7
00000060: b19d 7539 97f6 27b6 79e7 3a38 79f9 1f3b
00000070: 4bae 333b 62d5 ac3b 2010 2c3b 624b 9d3b
00000080: b136 b13b d9ad ce3a 67e9 243b 672a 2e3a
00000090: 2ee2 87ba 5a97 e139 e021 433a fb1a a038
000000a0: c183 cf3a a557 f539 2ff3 5b3a fef5 0239
000000b0: c546 4c38 0400 0000 0400 0080 0400 0080
000000c0: 0400 0080 0400 0080 0400 0000 0400 0080
000000d0: 0400 0080 0400 0080 0400 0080 0400 0080
000000e0: 0400 0080 0400 0080 0400 0000 0400 0000
000000f0: 0400 0080 0400 0080 0400 0000 316c 313a
00000100: dbf5 b637 1676 30b9 1820 37ba 3f37 8f38
00000110: dff7 7a3a 2711 f3b8 801c ad39 9f8b 3eba
00000120: 0f5b 513b 19d0 e339 5f2f bb38 e83b 8f3a
00000130: c492 083a 92d5 b63a 896b 3d3a 4853 763b
00000140: 11e2 6b3b a6ab 8bba c96e 47b8 e4d5 1039
00000150: 2e69 9a3a d394 1939 d172 cf38 f76e d239
00000160: d45f f939 4519 0f39 0400 0080 0400 0000
00000170: 0400 0000 0400 0000 0400 0000 0400 0000
00000180: 0400 0000 0400 0000 0400 0000 311e 6b15
00000190: 0400 0000 0400 0080 0400 0000 0400 0080
000001a0: cf38 672d aaf2 3e97 5bbe 6a9b e68c fc1a
000001b0: 549e 90b9 b1b4 04b8 53e4 2539 3d42 a937
000001c0: 309f 1535 96d3 4f36 2aba 58b6 3c76 ae33
000001d0: 3788 4039 4c89 3eba d2ed a4b9 c308 e3ba
000001e0: 651c 39b9 15c8 42b9 42f0 6838 3ddc 92ba
000001f0: bbf8 47ba c04d b7ba 1357 bbb9 d011 d2b9
00000200: fced e9b9 ca5f 0f39 c26a 0cb8 3aa1 f639
00000210: e269 7b39 c740 1d39 871d 8839 0400 0000
00000220: 0400 0000 0400 0000 0400 0080 0400 0000
00000230: 0400 0000 0400 0000 0400 0000 0400 0000
00000240: 0400 0080 0400 0000 0400 0080 0400 0000
00000250: 0400 0080 0400 0080 0400 0080 0400 0000
00000260: 0400 0080 7ef0 c0ba b1e9 6cba 4d23 3b3a
00000270: 5ba1 f8ba 72c5 28ba 89db 1839 82c5 9cba
00000280: 0fef 98ba e294 62bb 2d42 683a 9303 5e3a
00000290: 13b5 bd39 768f d6ba e429 06bb 6cf5 e2ba
000002a0: 5e2d 2cba 2fe3 4eba 8c65 93bb 9400 cab9
000002b0: c979 5eb9 fe7e 5138 33b8 3238 26aa 50b8
000002c0: c7e6 7dba cdb8 3fb8 c95e 3ab7 b748 1aba
000002d0: 0400 0000 0400 0000 0400 0000 0400 0000
000002e0: 0400 0000 0400 0000 0400 0000 0400 0000
000002f0: 0400 0000 0400 0000 0400 0080 0400 0080
00000300: 0400 0080 0400 0000 0400 0080 0400 0000
00000310: 0400 0000 a6f3 890c 36e5 c613 24c6 25a9
00000320: 8a42 5f35 b5a6 1e30 f6df 7eab 18b4 77af
00000330: 2aec 8b36 c53c f3b2 1c62 2eb6 d735 a1bb
00000340: 2ff3 11ba c3f1 50b5 aa07 e7bb ea87 a3ba
00000350: a0bb 3535 79f3 89bb bb7b c6ba 9d2a 6438
00000360: 6261 68b8 a27b bab9 e31e d0b9 02f9 6db9
00000370: b386 4435 7eb0 98b9 147e 54b9 03ca 9eb7
00000380: d95b b6b3 0400 0000 0400 0000 0400 0080
00000390: 0400 0000 0400 0080 0400 0080 0400 0080
000003a0: 0400 0080 0400 0000 0400 0080 0400 0000
000003b0: 0400 0000 0400 0080 0400 0000 0400 0080
000003c0: 0400 0000 0400 0080 0400 0080 fde1 84b6
000003d0: 1cbe b2af 1bd3 2a38 f931 fcb4 8aba 06b7
000003e0: 5442 4c39 5526 f3b8 dea5 1139 2175 dbba
000003f0: ef1c 74ba 8e97 2f37 c1e0 eeb7 a90f 91b8

exp_avg_sq f4 [20, 10, 3, 3]
1.3125088e-17 1.606076e-15 1.9799416e-15 1.5749605e-15 1.16095e-15 5.522884e-15 1.1622009e-14 1.0468235e-15
1.8375425e-17 1.251353e-07 8.315008e-08 1.0692122e-08 1.2979186e-07 6.5656515e-08 1.6059127e-08 5.3512228e-08
8.0391755e-09 3.197318e-08 3.6953763e-05 2.3536084e-06 2.792282e-06 2.694093e-05 1.998786e-06 3.3025622e-06
2.108322e-06 1.0910916e-06 1.5349535e-05 0.00017207242 0.00047472955 0.00022868074 0.00046618743 0.0003990049
5.1533054e-05 0.00041711214 0.00015297535 2.839018e-05 9.702137e-05 9.7800534e-05 0.00010712173 0.00025121833
0.00010320478 9.35062e-06 0.00014846808 1.9041765e-05 8.765148e-06 4.9221893e-07 2.778059e-07 4.0232834e-08
4.63591e-07 7.255399e-08 2.873493e-08 2.4153198e-07 2.993019e-08 2.1096021e-07 6.0272924e-08 2.7321798e-09
4.4047496e-08 2.2659494e-08 1.6756512e-09 9.077568e-08 4.0562878e-09 1.0825174e-08 2.7631464e-07 0.00021784056
2.582424e-06 3.3911783e-05 9.3058974e-05 3.697728e-07 0.00022501871 1.5794583e-05 6.18818e-05 0.00045514523
0.00025946024 3.461804e-05 2.9178065e-05 5.7736637e-05 4.5780007e-06 0.0003080875 1.6724307e-05 0.00032048384
0.00073889585 0.00013844509 0.00020958943 6.237221e-05 0.00013329028 9.471772e-05 1.0257884e-05 3.367349e-05
2.3842518e-05 2.3013996e-05 1.5820861e-15 8.861066e-16 2.4021884e-16 1.6460685e-15 4.447558e-15 1.0776453e-14
4.7351314e-14 6.3008463e-14 6.032442e-14 7.2232645e-08 5.6837123e-08 5.207423e-08 4.005863e-08 7.5469465e-08
1.3227809e-07 8.481512e-08 9.735171e-08 1.17371435e-07 1.6949285e-05 4.727358e-05 2.673561e-05 1.433824e-06
2.6807088e-06 1.27305275e-05 3.6982522e-06 8.965319e-07 2.9854877e-05 4.639599e-05 9.898516e-06 9.835552e-05
5.653424e-06 8.029436e-05 0.00028081954 8.28601e-05 0.00038774143 0.00027228595 0.0001173813 0.000104478466
5.850297e-05 5.3514764e-06 3.3434599e-06 0.00012535637 1.3374318e-05 8.4142615e-05 0.00022884674 5.601004e-08
1.3463911e-07 2.8913442e-07 1.1133945e-07 4.1953254e-07 4.2908792e-07 4.2795583e-07 5.4797187e-07 2.6963372e-07
4.2333507e-08 7.961102e-08 1.1020251e-08 3.062365e-08 1.6883927e-08 2.152229e-09 8.616087e-08 2.4741796e-08
2.685807e-08 3.085617e-05 0.00016154816 9.8586424e-05 0.000117457814 0.00015209852 2.5601312e-05 0.00022598718
3.3852644e-05 9.9782446e-05 6.522689e-05 0.00030080596 0.00040135978 0.00048395942 0.000513029 0.00023395591
0.0003177938 5.3378157e-05 0.00011640457 2.7795299e-05 1.1220556e-05 3.2624408e-05 1.3529183e-05 1.3102915e-06
2.3540299e-05 1.0164076e-06 1.7136307e-06 1.0762235e-05 2.0335018e-14 2.744018e-14 6.1901418e-15 8.768838e-15
6.336349e-15 3.894454e-14 3.2468003e-14 4.0690416e-14 2.7748821e-14 1.9842552e-08 2.8953693e-09 6.6401373e-10
1.2200743e-08 4.3398546e-10 4.955332e-10 1.8608455e-08 1.3757663e-09 3.6587835e-09 5.091429e-09 2.2883944e-08
4.2204283e-07 5.5032015e-08 9.1649206e-08 1.7307833e-08 4.4638395e-07 6.0100626e-07 1.1566317e-06 0.00025450933
4.0164694e-05 1.531959e-07 0.00022670414 2.0400781e-05 1.380122e-07 0.00013996712 2.0352883e-05 1.6185405e-07
1.027333e-06 4.0756336e-06 1.3805377e-05 2.1699059e-06 3.1597733e-07 1.1933411e-06 5.2636337e-06 2.9432044e-07
7.105562e-07 1.5591756e-07 1.1353995e-08 9.540245e-10 8.54407e-08 1.4762197e-09 9.980785e-10 5.258415e-08
2.6607794e-09 7.3553226e-09 1.7694354e-10 5.1808766e-11 1.4045169e-08 4.981732e-11 1.4066699e-11 6.3486416e-09
1.15224566e-10 9.072305e-11 2.5886544e-09 3.4535053e-06 1.6982319e-09 3.0705353e-06 5.5388007e-08 3.585997e-07
4.9398905e-06 2.6329442e-06 1.0171979e-05 0.00013707583 2.9590394e-05 4.680105e-07 7.400858e-08 5.1526044e-06
00000000: 7a1d 7223 bf75 e726 7aab 0e27 c9f9 e226
00000010: 7f4f a726 9dfb c627 0e5d 5128 f8dc 9626
00000020: bf7b a923 ee5c 0634 3d90 b233 73b0 3732
00000030: ea5c 0b34 0dff 8c33 65f2 8932 51d5 6533
00000040: ab1c 0a32 e252 0933 cdfe 1a38 aff2 1d36
00000050: 0a63 3b36 35ff e137 e222 0636 96a1 5d36
00000060: b27c 0d36 9f71 9235 e0c2 8037 576e 3439
00000070: 1fe5 f839 05ca 6f39 9e6a f439 8831 d139
00000080: 3225 5838 d8af da39 0268 2039 7327 ee37
00000090: f477 cb38 431a cd38 8aa6 e038 f4b5 8339
000000a0: a56f d838 9be0 1c37 19ae 1b39 e1bb 9f37
000000b0: 060e 1337 0721 0435 5a25 9534 78cc 2c33
000000c0: 76e3 f834 face 9b33 c8d4 f632 e7ab 8134
000000d0: 988c 0033 4d84 6234 646f 8133 04c1 3b31
000000e0: bc2e 3d33 c1a4 c232 bc4c e630 75f0 c233
000000f0: 7c5f 8b31 9ef9 3932 6558 9434 216c 6439
00000100: b54d 2d36 803c 0e38 a828 c338 3085 c634
00000110: 00f3 6b39 9c7e 8437 8ac6 8138 8fa0 ee39
00000120: 2a08 8839 d632 1138 6bc3 f437 3e2a 7238
00000130: ba9c 9936 ce86 a139 2d4b 8c37 9d06 a839
00000140: 76b2 413a 922b 1139 3cc5 5b39 d3cd 8238
00000150: d6c3 0b39 30a3 c638 4719 2c37 a23c 0d38
00000160: 6b01 c837 2e0e c137 ad00 e426 2067 7f26
00000170: 0b7a 8a25 3539 ed26 7b3d a027 9e21 4228
00000180: 5940 5529 e8e1 8d29 a9d6 8729 511e 9b33
00000190: 141d 7433 39a8 5f33 ee0c 2c33 c711 a233
000001a0: 5308 0e34 9b23 b633 ab0f d133 a10d fc33
000001b0: 502e 8e37 9f47 4638 4946 e037 d171 c035
000001c0: 3ae6 3336 3395 5537 7d2f 7836 34a9 7035
000001d0: dc70 fa37 5199 4238 cd11 2637 3844 ce38
000001e0: 8bb2 bd36 b563 a838 f63a 9339 2dc5 ad38
000001f0: c649 cb39 9ac1 8e39 9b2a f638 731b db38
00000200: 1661 7538 d590 b336 3460 6036 1872 0339
00000210: 4262 6037 b975 b038 94f6 6f39 b18f 7033
00000220: 5191 1034 553a 9b34 8319 ef33 1d3c e134
00000230: 655d e634 cdc1 e534 5718 1335 2dc2 9034
00000240: 2fd2 3533 9ff6 aa33 9453 3d32 0f87 0333
00000250: 2608 9132 6ae6 1331 7007 b933 c987 d432
00000260: 85b5 e632 8f6b 0138 4165 2939 2fc0 ce38
00000270: af53 f638 a37c 1f39 66c2 d637 f9f6 6c39
00000280: 00fd 0d38 4b42 d138 6bca 8838 7eb5 9d39
00000290: 996d d239 efbb fd39 cb7c 063a 1052 7539
000002a0: 909d a639 5ce2 5f38 3a1e f438 f329 e937
000002b0: ec3f 3c37 31d6 0838 66fb 6237 46dd af35
000002c0: 6878 c537 806b 8835 e7ff e535 738f 3437
000002d0: 5c29 b728 bf28 f728 fb05 df27 21f7 1d28
000002e0: 814a e427 ff63 2f29 0f39 1229 db40 3729
000002f0: 6df0 f928 3c72 aa32 e0f7 4631 d085 3630
00000300: 6f9b 5132 0696 ee2f 0d36 0830 6dd8 9f32
00000310: 7915 bd30 006e 7b31 aff0 ae31 5392 c432
00000320: 2095 e234 575c 6c33 afd0 c433 54ac 9432
00000330: 8ba6 ef34 d654 2135 903d 9b35 aa6f 8539
00000340: 8376 2838 2b7e 2434 6eb7 6d39 5822 ab37
00000350: 8130 1434 23c4 1239 7cbb aa37 1aca 2d34
00000360: e5e2 8935 6dc1 8836 a59d 6737 b39e 1136
00000370: 98a3 a934 e32a a035 459e b036 1803 9e34
00000380: 0dbd 3e35 4b6a 2734 660f 4332 c11e 8330
00000390: 867b b733 dde3 ca30 c42c 8930 e2d8 6133
000003a0: edd8 3631 1aba fc31 2e8d 422f 7cdb 632e
000003b0: 4e4b 7132 5119 5b2e c876 772d 3e23 da31
000003c0: aa61 fd2e 8980 c72e 17e4 3131 c5c2 6736
000003d0: 3967 e930 650f 4e36 c2e3 6d33 9185 c034
000003e0: 56c1 a536 a3b1 3036 51a8 2a37 03bc 0f39
000003f0: e338 f837 e042 fb34 a6ee 9e33 89e4 ac36

exp_avg f4 [20]
0.006376295 -0.010800459 -0.019513685 6e-45 6e-45 0.008625887 6e-45 0.004045294
-0.00458838 -0.0030449238 -0.0048360513 6e-45 6e-45 6e-45 6e-45 0.0027016741
0.00095246127 -0.0028817027 6e-45 6e-45
00000000: 3df0 d03b 69f4 30bc 2adb 9fbc 0400 0000
00000010: 0400 0000 9853 0d3c 0400 0000 638e 843b
00000020: 1f5a 96bb 588d 47bb bd77 9ebb 0400 0000
00000030: 0400 0000 0400 0000 0400 0000 920e 313b
00000040: 98ae 793a f3da 3cbb 0400 0000 0400 0000

exp_avg_sq f4 [20]
0.0033353008 0.002051194 0.0017068625 1.7614084e-07 2.0427096e-10 0.0031775506 1.7037592e-10 0.0015543138
0.0014818884 0.0025022859 0.0026487862 2.8140967e-10 5.161408e-09 2.113911e-09 3.15852e-09 0.0014157824
0.0030563604 0.001892372 8.99399e-09 1.3915791e-14
00000000: 1095 5a3b 536d 063b cdb8 df3a 3a21 3d34
00000010: 2a99 602f 743e 503b 8f54 3b2f 1eba cb3a
00000020: ec3b c23a 64fd 233b 4297 2d3b e4b4 9a2f
00000030: 3a58 b131 5144 1131 450d 5931 c691 b93a
00000040: 384d 483b 7809 f83a fd83 1a32 42af 7a28

exp_avg f4 [100, 500]
-6e-45 6e-45 6e-45 -6e-45 -6e-45 6e-45 6e-45 -6e-45
6e-45 -6e-45 6e-45 -6e-45 -6e-45 -6e-45 -6e-45 -6e-45
6e-45 6e-45 6e-45 6e-45 -6e-45 6e-45 -6e-45 6e-45
-6e-45 -6e-45 6e-45 6e-45 -6e-45 6e-45 6e-45 6e-45
6e-45 6e-45 6e-45 6e-45 6e-45 -6e-45 -6e-45 6e-45
6e-45 6e-45 6e-45 -6e-45 6e-45 6e-45 6e-45 6e-45
6e-45 6e-45 6e-45 6e-45 6e-45 6e-45 6e-45 6e-45
6e-45 -6e-45 6e-45 -6e-45 6e-45 6e-45 -6e-45 6e-45
-6e-45 -6e-45 6e-45 6e-45 6e-45 6e-45 6e-45 6e-45
6e-45 6e-45 6e-45 -6e-45 -6e-45 6e-45 6e-45 -6e-45
-6e-45 6e-45 -6e-45 6e-45 -6e-45 6e-45 6e-45 -6e-45
-6e-45 6e-45 6e-45 6e-45 6e-45 6e-45 6e-45 6e-45
-6e-45 6e-45 6e-45 -6e-45 -6e-45 6e-45 6e-45 6e-45
6e-45 6e-45 6e-45 6e-45 6e-45 6e-45 6e-45 6e-45
6e-45 6e-45 6e-45 6e-45 6e-45 6e-45 6e-45 6e-45
6e-45 6e-45 6e-45 6e-45 6e-45 6e-45 6e-45 6e-45
-6e-45 6e-45 6e-45 6e-45 6e-45 6e-45 6e-45 6e-45
6e-45 6e-45 6e-45 6e-45 6e-45 6e-45 6e-45 6e-45
6e-45 6e-45 -6e-45 -6e-45 -6e-45 6e-45 -6e-45 -6e-45
6e-45 6e-45 6e-45 6e-45 6e-45 6e-45 6e-45 6e-45
6e-45 6e-45 6e-45 6e-45 6e-45 6e-45 -6e-45 6e-45
6e-45 6e-45 6e-45 6e-45 6e-45 6e-45 -6e-45 -6e-45
6e-45 -6e-45 -6e-45 -6e-45 6e-45 -6e-45 -6e-45 -6e-45
-6e-45 6e-45 -6e-45 6e-45 6e-45 -6e-45 6e-45 6e-45
6e-45 6e-45 -6e-45 -6e-45 6e-45 -6e-45 6e-45 -6e-45
0.0 0.0 0.0 0.0 0.0 -6e-45 -6e-45 0.0
0.0 0.0 0.0 0.0 0.0 0.0 0.0 0.0
-6e-45 0.0 -6e-45 0.0 0.0 -6e-45 0.0 0.0
0.0 6e-45 6e-45 6e-45 6e-45 6e-45 6e-45 6e-45
6e-45 6e-45 6e-45 6e-45 6e-45 6e-45 6e-45 6e-45
6e-45 6e-45 6e-45 -6e-45 6e-45 6e-45 6e-45 6e-45
6e-45 6e-45 -6e-45 -6e-45 -6e-45 -6e-45 -6e-45 -6e-45
00000000: 0400 0080 0400 0000 0400 0000 0400 0080
00000010: 0400 0080 0400 0000 0400 0000 0400 0080
00000020: 0400 0000 0400 0080 0400 0000 0400 0080
00000030: 0400 0080 0400 0080 0400 0080 0400 0080
00000040: 0400 0000 0400 0000 0400 0000 0400 0000
00000050: 0400 0080 0400 0000 0400 0080 0400 0000
00000060: 0400 0080 0400 0080 0400 0000 0400 0000
00000070: 0400 0080 0400 0000 0400 0000 0400 0000
00000080: 0400 0000 0400 0000 0400 0000 0400 0000
00000090: 0400 0000 0400 0080 0400 0080 0400 0000
000000a0: 0400 0000 0400 0000 0400 0000 0400 0080
000000b0: 0400 0000 0400 0000 0400 0000 0400 0000
000000c0: 0400 0000 0400 0000 0400 0000 0400 0000
000000d0: 0400 0000 0400 0000 0400 0000 0400 0000
000000e0: 0400 0000 0400 0080 0400 0000 0400 0080
000000f0: 0400 0000 0400 0000 0400 0080 0400 0000
00000100: 0400 0080 0400 0080 0400 0000 0400 0000
00000110: 0400 0000 0400 0000 0400 0000 0400 0000
00000120: 0400 0000 0400 0000 0400 0000 0400 0080
00000130: 0400 0080 0400 0000 0400 0000 0400 0080
00000140: 0400 0080 0400 0000 0400 0080 0400 0000
00000150: 0400 0080 0400 0000 0400 0000 0400 0080
00000160: 0400 0080 0400 0000 0400 0000 0400 0000
00000170: 0400 0000 0400 0000 0400 0000 0400 0000
00000180: 0400 0080 0400 0000 0400 0000 0400 0080
00000190: 0400 0080 0400 0000 0400 0000 0400 0000
000001a0: 0400 0000 0400 0000 0400 0000 0400 0000
000001b0: 0400 0000 0400 0000 0400 0000 0400 0000
000001c0: 0400 0000 0400 0000 0400 0000 0400 0000
000001d0: 0400 0000 0400 0000 0400 0000 0400 0000
000001e0: 0400 0000 0400 0000 0400 0000 0400 0000
000001f0: 0400 0000 0400 0000 0400 0000 0400 0000
00000200: 0400 0080 0400 0000 0400 0000 0400 0000
00000210: 0400 0000 0400 0000 0400 0000 0400 0000
00000220: 0400 0000 0400 0000 0400 0000 0400 0000
00000230: 0400 0000 0400 0000 0400 0000 0400 0000
00000240: 0400 0000 0400 0000 0400 0080 0400 0080
00000250: 0400 0080 0400 0000 0400 0080 0400 0080
00000260: 0400 0000 0400 0000 0400 0000 0400 0000
00000270: 0400 0000 0400 0000 0400 0000 0400 0000
00000280: 0400 0000 0400 0000 0400 0000 0400 0000
00000290: 0400 0000 0400 0000 0400 0080 0400 0000
000002a0: 0400 0000 0400 0000 0400 0000 0400 0000
000002b0: 0400 0000 0400 0000 0400 0080 0400 0080
000002c0: 0400 0000 0400 0080 0400 0080 0400 0080
000002d0: 0400 0000 0400 0080 0400 0080 0400 0080
000002e0: 0400 0080 0400 0000 0400 0080 0400 0000
000002f0: 0400 0000 0400 0080 0400 0000 0400 0000
00000300: 0400 0000 0400 0000 0400 0080 0400 0080
00000310: 0400 0000 0400 0080 0400 0000 0400 0080
00000320: 0000 0000 0000 0000 0000 0000 0000 0000
00000330: 0000 0000 0400 0080 0400 0080 0000 0000
00000340: 0000 0000 0000 0000 0000 0000 0000 0000
00000350: 0000 0000 0000 0000 0000 0000 0000 0000
00000360: 0400 0080 0000 0000 0400 0080 0000 0000
00000370: 0000 0000 0400 0080 0000 0000 0000 0000
00000380: 0000 0000 0400 0000 0400 0000 0400 0000
00000390: 0400 0000 0400 0000 0400 0000 0400 0000
000003a0: 0400 0000 0400 0000 0400 0000 0400 0000
000003b0: 0400 0000 0400 0000 0400 0000 0400 0000
000003c0: 0400 0000 0400 0000 0400 0000 0400 0080
000003d0: 0400 0000 0400 0000 0400 0000 0400 0000
000003e0: 0400 0000 0400 0000 0400 0080 0400 0080
000003f0: 0400 0080 0400 0080 0400 0080 0400 0080
