dev_code/playground/inference_flight_beta/drone_obstacle_cnn_acc_0.81.pt (torch, 377693 bytes, 26 tensors)

architecture.conv1.weight f4 [10, 3, 3, 3]
00000000: 3b1c 01be 0614 a8bd 562b b13d f299 f83d
00000010: dad4 bf3d df24 b8bd 59f5 873d 06a1 43be
00000020: 9c51 553c 7869 21be 31e6 303e 2101 c13d
00000030: 1286 dd3d fb45 9b3d 0415 433e 40bd 113e
00000040: 9129 09be 0531 c93d 8220 1cbe 385d d2bd
00000050: 6553 473e e14e d63b 9c2e fabd 23b8 34be
00000060: c132 1a3b aff3 0ebd bab1 6cbd 4900 ec3d
00000070: 78ec f0bd fba2 313e ed9c 1c3e 2eb7 373d
00000080: e142 2f3e 165f 41bd 16ad 45bd 1e86 2ebe
00000090: e66b 39be 6641 0cbe 8077 bf3d dc01 123d
000000a0: afc6 173e 4987 05bd 9ab9 adbd f69e 453c
000000b0: 8cc8 3dbe 3eaa fe3d 8a0b 4bbd d51f 77bd
000000c0: b957 013e 9429 aa3d 004d 673d 4376 43be
000000d0: 34dd 313d c9db 23be f8ca 063d 6c19 703d
000000e0: b3a2 0fbe 2c95 84bd c216 d1bd 5b98 273e
000000f0: 0d7b 32be 031f acba 6346 1abd 6ad2 03be
00000100: 3b8b bcbd 8f18 04be 68fd 1cbd a6db 13be
00000110: 8699 ca3d 804f cb3a eda2 b73d 77a0 2dbe
00000120: edfe 093e 5ef4 3bbe 91c1 ae3d 8015 123d
00000130: c275 903d a3bb 1fbe 9bdb 19be 4599 a93d
00000140: cb8b 853c 3d57 383e 8c93 ff3d 0b9b 71bd
00000150: d39a 29be 26dc 70bd 1794 86bd 00d5 ebbd
00000160: fa17 33bd 1947 f9bd 4e26 673c fe99 d0bd
00000170: d9b1 aa3d 556c da3d a09e fabd dc28 b03c
00000180: 6c50 043e 14f7 9dbc d47f d3bd 5912 c13d
00000190: d003 2f3e 9897 023e 2b0a f93d b707 223e
000001a0: 932e 3cbe aaa9 18be 3368 a6bd 6ec2 053e
000001b0: f27a 8abd ed45 ba3d 21c5 b2bd 7ef5 2c3e
000001c0: 3b29 eabc 8e2b b83d 8f3e 4dbd 35fc 9e3d
000001d0: 334a a6bb 5634 c9bb 1642 173e f8d5 19be
000001e0: eace 1fbe 3df1 dcbb 275d 3b3e 0d2d 4c3d
000001f0: 507a 0b3e 9dd1 8cbc c60a 1a3e 1e41 50bd
00000200: 4428 8e3c 7b02 df3d 01e6 e83c 3c94 f23c
00000210: cbfe a9bd f3ee 533d d038 3abd dcac 153e
00000220: 3fb7 d8bd 1cf4 2e3e fa1c 323e 6460 f93d
00000230: 73b4 ff3d 4e6f 3cbe 1ef7 bfbc cdda 313e
00000240: e2a7 b03d 3e04 d93d 359e 323e 5667 a0bd
00000250: 7a44 0dbe 6db8 2abe 0580 273e 7a09 0abe
00000260: e653 f6b9 4ccd 6bbc 6e58 e7bd d150 85bd
00000270: c18b 4c3e 1409 9cbd 705b 07be ef2f 943c
00000280: cf68 eabd 572e 02be 571f dcbd 76ed 7b3d
00000290: aec9 39be f03e 273e b4df 493d bc2c 79bd
000002a0: 8726 bebd b8b9 84bd 3a73 d53c 48d1 353e
000002b0: 4d74 843c 598e dd3b 95f7 12be 8021 953d
000002c0: a3ad 78bd 0ca6 313e 796f 623d 13ad 003d
000002d0: b84c 03be f36c b43d e1ac 37be b4c7 3b3d
000002e0: c7a9 9a3d 25b9 4fbd e6fd e3bd c71a 5f3d
000002f0: 185d 84bd d222 30bc dd9b 153e f57f 16bd
00000300: 2540 1bbd 4622 eabc 56f0 31bc 70ec 873d
00000310: 2bea c3bc f7f0 a6bd 8d4c 25be 7122 3d3e
00000320: 0ecb 20be e9f7 163e 869c 363d 87e9 d8bd
00000330: 0e0d 21be 595a 4abe fcb3 623d 11cf 993d
00000340: 965b f4bd 4827 023e bfbe 003e 0530 203d
00000350: 03b7 c1bd 432e bf3c ee15 32be 0510 1e3e
00000360: 8668 ef3d a6e7 903c 09e9 01bd f331 59bd
00000370: 54e0 23bd 2dd7 e3bd 23ca fd3d 577a 433e
00000380: b906 fbbc eb46 633d e1a3 a2bd 29f3 f73d
00000390: be01 70bc 582f 1c3e 184e d2bd 9566 e43d
000003a0: b8d6 ff3d 9500 0f3e 9fd6 d7bd 3993 3abe
000003b0: 7755 4abc 5ea2 f33c cee6 e9bd 416e 033e
000003c0: 3025 10be c9f5 033d 24a3 1f3e da84 b03c
000003d0: e1df 00be 6b19 d6bd bba4 36bd 0323 3b3e
000003e0: 3f7b bbbd 4f8e 0abc 7501 2fbd ccdb 92ba
000003f0: 7eff 8c3d a598 15be 729f c83d 32b9 7f3d
-0.12608425 -0.08206944 0.08650844 0.12138738 0.0936677 -0.089914076 0.06638593 -0.19104394
0.0130199455 -0.1576289 0.17275311 0.094240434 0.108165875 0.07581707 0.19050986 0.1423235
-0.13394763 0.09823803 -0.15246776 -0.10271686 0.19465406 0.006540165 -0.12215921 -0.17648368
0.0023528787 -0.034900364 -0.05778668 0.11523492 -0.11763853 0.17347328 0.15294237 0.04485243
0.17115356 -0.04720982 -0.04826077 -0.17043349 -0.18107566 -0.13696823 0.09348965 0.035646304
0.14821886 -0.03259972 -0.08482666 0.012061825 -0.18533534 0.12434815 -0.04957155 -0.06033309
0.1263112 0.08308712 0.056469917 -0.19088082 0.043423846 -0.1600181 0.03290841 0.058617994
-0.14026909 -0.06473765 -0.10209419 0.16366713 -0.17429753 -0.0013131801 -0.037664782 -0.12873235
-0.092062436 -0.12899993 -0.038327605 -0.14439258 0.098925635 0.0015511364 0.089666225 -0.16955744
0.13476153 -0.18354937 0.085330136 0.035665035 0.070537105 -0.15598921 -0.15025179 0.08281187
0.01630201 0.18002029 0.12479314 -0.05898575 -0.16562967 -0.0588037 -0.06571215 -0.11515236
-0.043724038 -0.12171764 0.014108254 -0.10185622 0.08334703 0.10665194 -0.122372866 0.021503858
0.12921304 -0.019282855 -0.10327116 0.09427328 0.17091298 0.12753141 0.121601425 0.15823255
-0.18377142 -0.14908472 -0.08125343 0.1306245 -0.06761731 0.090953685 -0.087290056 0.16890523
-0.028584113 0.089926824 -0.05010849 0.077629484 -0.005074763 -0.006140272 0.14771304 -0.15023029
-0.15606275 -0.006742625 0.18297254 0.04984765 0.13620877 -0.017189795 0.15043172 -0.05084335
0.017353185 0.10889145 0.028429987 0.0296117 -0.08300551 0.05174155 -0.045464337 0.14616722
-0.105818264 0.17085308 0.17393866 0.12176588 0.1248559 -0.18401834 -0.023433264 0.17368622
0.08625771 0.10596512 0.17443164 -0.0783221 -0.13795653 -0.16671915 0.1635743 -0.13480178
-0.00046983286 -0.014392208 -0.112961635 -0.06509555 0.19975187 -0.07618919 -0.13218474 0.018089263
-0.11445772 -0.1271299 -0.10748165 0.061505757 -0.18143341 0.16332603 0.049285606 -0.060833678
-0.09284692 -0.064807355 0.02605592 0.17755616 0.016168738 0.006761354 -0.14352258 0.0728178
-0.060712468 0.17348498 0.05528209 0.031415056 -0.12822235 0.08809843 -0.17937042 0.04584475
0.07551914 -0.050713677 -0.11132412 0.054468896 -0.06463069 -0.010750489 0.14610238 -0.036743123
-0.03790297 -0.028580796 -0.010860523 0.06636894 -0.02391537 -0.08151429 -0.16142483 0.1847017
-0.15702459 0.14743008 0.044582866 -0.10591417 -0.15727636 -0.19761027 0.055347428 0.07510198
-0.11931531 0.12710297 0.12572764 0.039108295 -0.09458735 0.023337489 -0.17391178 0.15435798
0.11689858 0.017688584 -0.03171638 -0.05302615 -0.040008858 -0.11125026 0.1239207 0.19089638
-0.030642854 0.055487555 -0.07941414 0.12106926 -0.014648853 0.15252435 -0.102688015 0.111523785
0.12492126 0.13965066 -0.105389826 -0.18220223 -0.012349478 0.029740509 -0.114209756 0.12835027
-0.14076686 0.03221682 0.15589577 0.021547724 -0.12585403 -0.10454067 -0.044590693 0.18275075
-0.09154367 -0.008456781 -0.042726 -0.0011204421 0.06884669 -0.1460901 0.09796037 0.062432475

architecture.conv1.bias f4 [10]
00000000: 04f1 42be a91e c13d 3a69 d9bd 92a2 f6bd
00000010: 26c5 9cbd 2234 283e fdcc 1dbe 3a50 2e3c
00000020: d069 b7bd ca09 d43d
-0.19037253 0.09429676 -0.106157735 -0.120427266 -0.076547906 0.16426137 -0.15410228 0.010639245
-0.08955729 0.103534296

architecture.b1.weight f4 [10]
00000000: 3acf 833f c04d 813f 0239 7f3f b088 833f
00000010: 033d 7c3f f42f 7a3f 1923 823f 3973 7f3f
00000020: 6a5e 7e3f e957 803f
1.0297616 1.0101852 0.9969636 1.0276089 0.98530596 0.9772942 1.0166961 0.9978519
0.99362814 1.0026828

architecture.b1.bias f4 [10]
00000000: 84ce 0a3b 0b2b a93b e05a a43c fed1 183c
00000010: bcde 973c bced a6bc 1934 25bc e6b8 48bc
00000020: 10a2 623c 8440 52bc
0.0021180222 0.005162602 0.020062864 0.00932741 0.018538825 -0.020377032 -0.010083222 -0.0122511145
0.013832584 -0.012832765

architecture.b1.running_mean f4 [10]
00000000: beac b039 21d7 9f3d 8278 f033 f594 203b
00000010: 8170 1c3e 6f9a 8a3e 84d8 0239 236a 3f3b
00000020: 92c3 113e e2fa c43d
0.0003369804 0.078047045 1.1197791e-07 0.0024502848 0.15277292 0.27070948 0.00012478424 0.002920755
0.1423476 0.096181646

architecture.b1.running_var f4 [10]
00000000: a91b 3e39 2552 083b fe4e 1639 c511 f739
00000010: 1524 613c 9f7a ce3b 2b0c 2439 c991 8f39
00000020: 85b5 313c 165b 233a
0.00018130116 0.0020800915 0.00014334542 0.0004712475 0.013741513 0.0063012387 0.00015644792 0.00027383704
0.0108465 0.00062315294

architecture.conv2.weight f4 [20, 10, 3, 3]
00000000: 6adc 9dbd 2550 8a3d e294 c8bd 9ed2 9dbd
00000010: 675a b6bd 4bfb b53d 8db9 93bc d02b e5bc
00000020: b4d7 8bbc 8a57 8d3c db47 a1bc b86f ae3c
00000030: 79d5 83bd 5ad9 993d aa08 fe3c de0c a8bc
00000040: 9557 54bd 076d 23bc e17e 0fbc 698e 3f3d
00000050: 2cd2 21bd d915 8a3d f318 323d d9c6 a9bc
00000060: 6a68 cfbb c7a7 f8bd af67 8d3d 7fed c03d
00000070: 9ec1 b6bd ed84 9fbd 8926 bc3d 560d 953d
00000080: 336e ba3d 3f00 d2bc 400e dc3a 5a1e 19bc
00000090: 37d9 703b eee6 af3d a988 9fbd 3aac fc3c
000000a0: 99ac 68bd 1fe9 6b3d b0fb 44bd 6627 c5bd
000000b0: 8811 813c 703f e6bc 9336 043d edcd 093d
000000c0: feb1 40bd 77c0 e53d cb0a 78bc ed88 a1bd
000000d0: bfb8 a0bd 82f0 54bd 360a b0bd e39b 573b
000000e0: c1bb 3dbd 0151 b5bd 1bf4 13bd c66b 883d
000000f0: fe30 b7bd 438b a3bc c0a8 123d b039 86bd
00000100: 6f81 d03d ef80 863d cdcf c33d 38ce b23d
00000110: 9b80 103d ccf7 cdbc 13cb a4bd 4ef6 d13d
00000120: 9382 d0bd 15fe 0abd 5292 393d 2662 a83d
00000130: acd8 ddbc 2d79 11bd d05f f43c 250d c7bd
00000140: 7614 8cbc 3088 6ebd 663d c9bd ef6a d63d
00000150: 4769 22bd 7736 b33d cdfa 67bd d20b 7c3d
00000160: f3bc 733d 96f0 163d ccec 553d b314 c83b
00000170: 4bf8 fdbc e6bf 193d 741a 093c 1a53 803c
00000180: 6081 95bc 06bf cd3b 3c29 7b3c 7fda 80bd
00000190: 45b0 0bbc cfaa 093c fe4e d73d 7899 81bc
000001a0: a9e8 d13c 2a94 183c 3566 bbbd d07a e9ba
000001b0: da88 ecbc 10de 093d 82f7 5bbd ff39 16bd
000001c0: 99fb ac3d 8dcc ca3d fe68 113d bf8e a83c
000001d0: 2522 66bd 96db ae3d 7a83 a1bd aa73 f13d
000001e0: f7ac 9639 ade2 bb3b 8f2a 013e a11a 99bd
000001f0: d5f2 683d bd57 aabc 26de 2a3c 4704 2abc
00000200: adbd c13c 7aa5 cabd 66a1 f13c 9821 bebd
00000210: d078 303d e34a ee3c bdb3 743d df25 6f3d
00000220: 435d 723d 2d45 5a3d b5c6 ca3d 1eda 9cbd
00000230: a759 60bd eeaa cbbc 28ea 423d a167 c2bc
00000240: 45ee d43d c0b5 8dbd 94bd d6bc be23 9a3d
00000250: 62ce fabc 092d 82bd 4abf 83bd 1b20 033d
00000260: 2b9f 973d b874 703d c1c9 c4bd b47e 0dbd
00000270: bb21 ae3d ff6f bfbd 0749 84bc 70ea 6a3c
00000280: c008 5e3d 24d0 c13d 66e3 923b 39af a1bc
00000290: 9555 b43c dd61 5cbd 296d 213d f857 03bc
000002a0: 8bc5 d2bc 643f 98bd bc17 763d a034 cebd
000002b0: a520 c23c e46a 473d dbff 0a3d d98c 843d
000002c0: 252c 11bd e12d 9a3d 2ae6 643d d3a0 30bc
000002d0: 5516 d23d b87f 5cbb f973 ac3d 8361 b1bc
000002e0: cb28 1f3d 52ce a8bd be31 f7bc 78f0 ffbb
000002f0: 2e6c 5d3a 6687 e03d ea5d bdbd 402b 50bd
00000300: b557 b9bc 4539 4d3d 8870 9b3d f751 183c
00000310: 26cf d4bc 2520 d63d f1ab b63d 45c0 523d
00000320: 8749 9cbd 546c 8c3d a16b 1a3d 4a7c bf3a
00000330: 28f9 ab3d b62c a2bd 33a6 96bd 355c c6bd
00000340: 253f b73d 71ea fa3c 53c4 903d 3af7 e9bd
00000350: e68b d3bd 1a09 efbd b614 9e3b cad5 8b3d
00000360: eaf7 b7bd 4382 b4bd 1bb0 2ebd cfc7 04bd
00000370: 35f6 82bd 374c 52bd e6cd 9d3d 5b19 233d
00000380: 360e 83bd 52ac c43d 8f4c 9abc 2026 a93d
00000390: 9dd8 8b39 5831 fc3c cfa6 4a3c 7253 c83d
000003a0: bf03 c8bc 3d7f 9f3d b241 813d 9a6c b8bc
000003b0: d46c 8cbd 36b9 733a f688 783d 4572 73bd
000003c0: 5d06 8a3c 5afb 9fbd 5278 3f3c 5f07 df3c
000003d0: 3177 f2bc 67cc 9eba eaa8 1fbc ab20 40bd
000003e0: 7d94 a03d 34b6 40bd a0f9 193b e901 91bd
000003f0: d16f 3a3c f467 663d 3d8c 6ebd ba4d ddbc
-0.07708056 0.067535676 -0.09794022 -0.07706188 -0.08903962 0.08885821 -0.018032813 -0.027974993
-0.017070629 0.017253656 -0.019687584 0.021293506 -0.06437201 0.0751216 0.03100999 -0.020513948
-0.051841337 -0.009974725 -0.008758278 0.046766672 -0.039507076 0.06742448 0.043480825 -0.0207247
-0.006329586 -0.12141376 0.06904542 0.09420299 -0.08923648 -0.077890255 0.091870375 0.07277934
0.0910305 -0.025634883 0.0016788915 -0.009345615 0.0036750564 0.08588968 -0.07789738 0.030843843
-0.056805227 0.05759537 -0.04809159 -0.09626655 0.01575543 -0.028106421 0.03227861 0.03364365
-0.047044747 0.112183504 -0.015139292 -0.07887445 -0.078477375 -0.05198718 -0.085956976 0.0032899312
-0.046321634 -0.08853341 -0.03612147 0.06661181 -0.089448914 -0.019963866 0.035805464 -0.06553972
0.101809375 0.06567561 0.09561119 0.08730739 0.035278898 -0.025142573 -0.08046546 0.10252057
-0.10181155 -0.033933718 0.045305558 0.08221845 -0.027080856 -0.035515953 0.029830843 -0.09719304
-0.0170996 -0.058235347 -0.09826164 0.10469615 -0.03965118 0.08750623 -0.056635667 0.06153471
0.059506368 0.036850534 0.05222778 0.006105983 -0.031002184 0.037536524 0.008368123 0.015664626
-0.018250167 0.0062788753 0.015329655 -0.06291675 -0.008525913 0.00840254 0.105131134 -0.01582025
0.025623636 0.009312669 -0.09150354 -0.001781309 -0.02887385 0.03365904 -0.05370284 -0.036676403
0.08446426 0.09902296 0.03550052 0.02057588 -0.056184907 0.085379764 -0.07886405 0.11789639
0.00028739098 0.005733809 0.12613891 -0.07475782 0.056872208 -0.02079379 0.010428941 -0.010376996
0.023650015 -0.098948434 0.029495906 -0.09283751 0.043083966 0.029088443 0.059741724 0.058385726
0.059170973 0.053288627 0.099011816 -0.0765879 -0.054773 -0.024861779 0.04758659 -0.023731055
0.10397009 -0.06919432 -0.026213445 0.075263485 -0.03061599 -0.06356246 -0.0643297 0.03201304
0.07403406 0.05870506 -0.09608794 -0.03454466 0.08502527 -0.093475334 -0.016148103 0.014338121
0.054207563 0.09463528 0.0044826744 -0.019736873 0.022013465 -0.053804267 0.039410744 -0.008016579
-0.025728961 -0.07433966 0.06008123 -0.10068631 0.023697207 0.048685923 0.03393541 0.06472177
-0.03544249 0.07528282 0.055883564 -0.010780531 0.10258166 -0.0033645462 0.084205575 -0.021652943
0.038857263 -0.082424775 -0.030175086 -0.0078106485 0.0008446601 0.10963325 -0.09246428 -0.050822496
-0.02262483 0.050103445 0.07589823 0.009296886 -0.025977682 0.1045535 0.08919514 0.051452894
-0.07631212 0.068565995 0.0377003 0.0014609185 0.08397132 -0.07918684 -0.07355919 -0.09685556
0.08947591 0.030629368 0.07068696 -0.11424108 -0.10329418 -0.11671658 0.0048242463 0.068278864
-0.08982833 -0.08813908 -0.042648416 -0.032417115 -0.063946165 -0.051342215 0.07705288 0.039819103
-0.06399195 0.0960318 -0.018835334 0.08259225 0.00026673535 0.030785248 0.012368872 0.09781541
-0.024415849 0.07787941 0.063113585 -0.022512723 -0.06856695 0.0009297313 0.06067749 -0.059435148
0.016848737 -0.078116134 0.011686401 0.027225194 -0.02959785 -0.001211536 -0.009744862 -0.046906155
0.07840822 -0.047048762 0.0023494735 -0.070804425 0.011379198 0.05625148 -0.05823921 -0.027014602

architecture.conv2.bias f4 [20]
00000000: 344a 79bc a17d b73a dd23 843d ab7a 363d
00000010: 2072 92bd 899a 27bd d4ec e4bd 0f81 ec3c
00000020: 44db b2bd 38a9 9cbd 46aa 8fbc 1c3d 91bd
00000030: 68d6 70bd 5891 f2bd bcf6 c8bc 690b 043d
00000040: 048a 403d 7fe0 ca3d 2784 d73d ef76 90bd
-0.015215445 0.0013999232 0.06452153 0.04455058 -0.07150674 -0.04091886 -0.11177984 0.028870134
-0.08733228 -0.076494634 -0.017537247 -0.07091734 -0.058798224 -0.11844128 -0.024531715 0.032237444
0.047006622 0.099061005 0.10523253 -0.07053935

architecture.b2.weight f4 [20]
00000000: 2236 763f c2a6 733f 35e7 753f 0d61 783f
00000010: ec69 763f eab7 753f b900 763f 577c 743f
00000020: 4e76 763f 28d9 733f 12d5 743f 46b1 743f
00000030: a8f5 793f d696 743f a4a7 743f bc94 753f
00000040: 2a6d 763f c74a 793f 7956 753f 7547 743f
0.9617635 0.9517633 0.9605592 0.9702309 0.96255374 0.95983756 0.9609485 0.9550223
0.9627427 0.9525323 0.9563762 0.95583 0.97640467 0.9554266 0.955683 0.95930076
0.9626032 0.97379726 0.9583507 0.95421535

architecture.b2.bias f4 [20]
00000000: 0145 acbb f48b f2bb bad3 e3bb 266f 2e3c
00000010: fe0a 483c b023 c43b 0c98 87bb ee98 283c
00000020: 3fd9 183c 9cef b5bb 5e21 54b9 3882 4e3c
00000030: 6d6d 22bc 5971 8fbb a7e0 603c c2dd 4fbc
00000040: 3bd9 1e3c ea3b 413c 9cf4 643b 630f 2c3c
-0.0052572493 -0.0074019376 -0.00695273 0.010646617 0.012209652 0.0059856996 -0.0041379984 0.0102903675
0.009329139 -0.0055522453 -0.00020230326 0.012604289 -0.009913784 -0.0043775258 0.013725436 -0.0126871485
0.0096953465 0.01179407 0.0034935838 0.010501715

architecture.b2.running_mean f4 [20]
00000000: 41a2 8f3e a90e 483e 5ed4 ca3e 427b bf3e
00000010: 2835 363e b3ae 8c3e 9c7e 323e 64f6 7f3e
00000020: 34cd 4b3e b9b1 4a3e ac06 803e ea61 273e
00000030: 2aa4 713e bde2 4c3e 06ca 3d3e e8bb 9f3e
00000040: e220 683e 524c c13e 29cd 8a3e 30e5 383e
0.28053477 0.19536842 0.39615148 0.37398726 0.17793715 0.27477035 0.1743111 0.24996334
0.19902498 0.19794358 0.2500509 0.16345945 0.2359778 0.20008369 0.18534097 0.3119805
0.22668794 0.3775354 0.2710965 0.18056178

architecture.b2.running_var f4 [20]
00000000: 154a d83e e541 7f3e 3521 753e 9831 a33e
00000010: f24a 673e 2696 fd3e 5c6d 863e 602f e83e
00000020: b6f4 7e3e 82d3 713e a6da 963e 61c3 293e
00000030: 846d 1d3e 20da 6a3e ffeb 543e 7975 ed3e
00000040: b972 1c3e 4e82 9c3e 53fc 543e 8b69 ad3e
0.4224402 0.2492748 0.23938449 0.31873775 0.22587183 0.49528617 0.2625531 0.45348644
0.24898037 0.2361584 0.2946369 0.16578437 0.15373808 0.2293477 0.2079315 0.46378687
0.15278138 0.30568165 0.20799379 0.33869585

architecture.fc1.weight f4 [1, 90480]
00000000: e529 c7bb dbaa a73b 13b4 84bb d741 f1ba
00000010: 6d01 b73a b6b6 34bc 3697 f2bb d24a 42bb
00000020: cde3 983a 9305 30bc 2ec2 edbb 6c9d 15bb
00000030: 4b3e 19bc cf62 efbb c8a4 c0bb 018b b43a
00000040: 6add 0bbc bdef 2e3b a43c 7dbb 0b82 d73a
00000050: 4b4f 3abb 7603 703b 063a 093c 58e2 4f3c
00000060: 32c6 b03b c77a 483c dcd6 95b7 64c7 153a
00000070: fb8c c1ba 9b3c 9abb f183 7bba 8add b0ba
00000080: a3ad e5bb a85e 7c3b 1f4f fcbb 0072 593b
00000090: 5819 12bb 1fe1 1bbc d7c1 3cbb 7074 8dbb
000000a0: 9baf 94ba 0ccc 1dbc 97aa 833a 771e f33a
000000b0: 7752 32bc bfa2 11bb 34c2 34bc d835 0d3b
000000c0: 83df 02bc 14ed 82b9 72c3 f8bb 82ab f7bb
000000d0: eb61 073c aec5 9a3b 66e0 793c 0088 593b
000000e0: 0837 113b d91d 773b 157f d4b9 abc1 063c
000000f0: 8f1f 703b f95e c5ba b5ab 363b 5c7c 54bc
00000100: 042d 75b8 3399 11bc b197 e9bb 7c80 23bc
00000110: d79a f2bb e68b f2bb 268d d8bb 1dfe 3bbc
00000120: 91f4 29bc 7652 e93b fe39 34bb a0f8 9e3b
00000130: b4e6 bbbb e094 c3bb 0c8b 423b b41e dfba
00000140: 03b9 0c3c c824 b93b 9a7b 163b 12b8 293c
00000150: a650 42ba ea1d 24b6 d11b bb3b a1f4 113c
00000160: abd3 7c3b 6d27 1f3b 1855 87ba de64 6fbb
00000170: d092 58ba 9f19 2d3b bed6 563b 7b47 c33a
00000180: 531e 4a3b dfe5 c33b 36da a4b9 b252 1e3c
00000190: be4a a33a 9bcb 1dbb d8dd 3fbc 6f3b 8abb
000001a0: 4cf3 30bc eb81 f93b 3a51 adbb 6659 f53b
000001b0: a924 56bc b34f b0ba 2e89 1abc 19a5 19bc
000001c0: af7c f43a dbf2 dcbb 8588 19bb e984 d5bb
000001d0: bb90 e3b9 d2b0 b4bb cb92 8ebb bbd3 c33b
000001e0: a25d bbbb 6fc2 bebb 0da2 713a 0930 cebb
000001f0: 2ae5 24bc ffaf c1bb 7110 bfbb f640 37bc
00000200: 106f 19bc 8e5a afbb 1241 86bb 1477 1dbc
00000210: b078 eebb b1e2 34bc d9c2 d4bb bf9c be38
00000220: f77a 263c e899 063b 87c3 e13b 414a 683b
00000230: 3736 493c 7317 1e3c 38e9 573b 8af0 123b
00000240: cb69 de3b 0cf8 1b39 009f 80b8 9e41 f4bb
00000250: 4738 96ba 8ff3 ecba 512c 8bbb ef51 3d3a
00000260: b30a 363c d328 3c3c 1c3b 87ba 8350 243b
00000270: 2438 353b 4e68 32bb 72f7 28bc 88f4 debb
00000280: a80d a73b 7d55 0dbb df36 71ba 4e59 e7bb
00000290: 044e 70bc f153 2dbc b38b 2cbc a440 6dbb
000002a0: 8523 1ebc ffb8 04bb 4203 6fbb 3cf2 26bc
000002b0: aedc 913b d4df dcb9 101a 973b f4b3 1dbc
000002c0: a775 19bc a502 d5bb 498d 05bb 1955 74bc
000002d0: 4899 85ba bc85 46ba 2155 bfbb ecc5 1fbc
000002e0: b2fd 85bb 78dd 49bc b3fc 5dbc 94bf 9abc
000002f0: 1252 e5bb a7d1 99bb 9e95 eabb 159a 3bbc
00000300: cc7a 4ebc da8e baba c2ba 1f3c edfb 9dba
00000310: 3801 383c 5d65 253c 6b90 4cb9 1de0 2c3c
00000320: 3cce fb3b f3e6 cc3b a809 143c 3213 27ba
00000330: b763 0a3c e5e4 c23b 78d6 46bb 9ebe ddbb
00000340: d6ca f1bb b96e a7bb 9ffe 5a3b f9c3 853b
00000350: 4c8b d6ba 9717 b53a c473 763c b582 713c
00000360: 6d71 ddb8 8d82 cfbb b38f 633a 653c d9ba
00000370: 062e 1dbc 0a20 10bc d001 2ebc ad91 47bc
00000380: 751b bf3b d7ed 2fbc 5465 0abc 1fa3 0fbc
00000390: b47a 75bb f265 c2bb fd83 17bb 9693 c4bb
000003a0: 1dc9 0fbc f20f 0abc 5021 6ebc 0051 183a
000003b0: 8ca4 35bc e947 393c 971e 70b9 516c dd3b
000003c0: bab2 e3bb d59a 4dbb 68b2 e4bb a077 b3bb
000003d0: 0b04 2bbc d89b 8fbb 419a f3bb 3ac5 7dbc
000003e0: 88d2 53bc 994d 2cbc 5028 54bc 3df0 f73b
000003f0: 71fa 023c a586 b33b ae81 193c 0b4d 0f3c
-0.0060779923 0.005116803 -0.004049787 -0.0018406463 0.0013962217 -0.01102989 -0.0074032797 -0.0029646647
0.001166457 -0.0107435165 -0.007255814 -0.0022829426 -0.009353231 -0.00730548 -0.0058790185 0.0013774337
-0.008536676 0.0026693188 -0.003864088 0.0016441954 -0.002842861 0.0036623157 0.00837565 0.012688242
0.0053947205 0.012236304 -1.7862236e-05 0.00057136104 -0.0014766747 -0.0047069318 -0.0009594551 -0.0013493758
-0.0070092245 0.0038508568 -0.0076998617 0.0033179522 -0.0022292938 -0.009514122 -0.002880206 -0.004316859
-0.0011343838 -0.009631168 0.0010045347 0.0018548508 -0.010883919 -0.0022222248 -0.01103263 0.0021546986
-0.00798786 -0.0002497217 -0.0075916583 -0.007558287 0.008263092 0.0047232723 0.015251255 0.0033192635
0.0022158045 0.0037707 -0.00040530475 0.008224885 0.0036639904 -0.0015058211 0.0027873341 -0.012969103
-5.8454476e-05 -0.008886623 -0.0071286787 -0.0099793635 -0.0074037123 -0.007401931 -0.006608623 -0.01147416
-0.010373251 0.007120426 -0.0027500386 0.0048514158 -0.005734289 -0.005968675 0.002968493 -0.00170227
0.008589032 0.0056501366 0.0022961856 0.010358827 -0.000741253 -2.4455317e-06 0.005710103 0.008908422
0.0038578312 0.0024284974 -0.0010325043 -0.0036528627 -0.0008261623 0.0026412976 0.0032781805 0.0014898622
0.0030840829 0.0059783305 -0.00031443097 0.009663271 0.0012458188 -0.0024077657 -0.0117106065 -0.004218511
-0.010800194 0.0076143644 -0.005289224 0.0074874638 -0.013070264 -0.0013451487 -0.00943212 -0.009377741
0.0018652881 -0.006742818 -0.002342732 -0.0065160883 -0.00043404647 -0.0055142427 -0.004350995 0.005976168
-0.005717949 -0.005821518 0.0009217568 -0.0062923473 -0.010064403 -0.005910873 -0.0058308174 -0.0111849215
-0.009364858 -0.005351371 -0.0040971125 -0.00961091 -0.0072775707 -0.011040376 -0.006492954 9.089102e-05
0.010161153 0.0020538513 0.0068897638 0.003544465 0.012280992 0.009649145 0.0032945406 0.0022421204
0.006787514 0.00014874357 -6.133132e-05 -0.0074541112 -0.0011460864 -0.0018077957 -0.0042472263 0.0007221987
0.011110949 0.011484343 -0.0010317299 0.0025072403 0.002765187 -0.0027222815 -0.010312902 -0.0068040527
0.0050980635 -0.0021565848 -0.0009201597 -0.0070602065 -0.014667038 -0.010579095 -0.010531354 -0.003620186
-0.009652023 -0.0020251868 -0.0036470448 -0.010189589 0.004451356 -0.00042128435 0.004611261 -0.009625424
-0.009366429 -0.0065005594 -0.0020378402 -0.014912867 -0.0010192776 -0.00075730286 -0.0058390056 -0.009751778
-0.0040890807 -0.012320869 -0.013549018 -0.01889018 -0.006998309 -0.004694182 -0.007158949 -0.01145031
-0.012602519 -0.0014233247 0.009749116 -0.0012053229 0.011230759 0.010094968 -0.00019508756 0.01055148
0.007684497 0.006253117 0.009035505 -0.0006373405 0.008446625 0.0059476965 -0.0030340236 -0.006767108
-0.0073789163 -0.0051096347 0.0033415926 0.0040821997 -0.0016368418 0.0013816234 0.015042249 0.014740636
-0.000105592284 -0.0063327015 0.00086807756 -0.0016573785 -0.009593492 -0.008796701 -0.010620549 -0.012180728
0.0058321306 -0.010737858 -0.00844701 -0.008766918 -0.003745717 -0.005932563 -0.0023119443 -0.005999039
-0.0087759765 -0.008426653 -0.0145343095 0.000581041 -0.011086594 0.011308649 -0.00022899579 0.006757297
-0.006948796 -0.0031372805 -0.0069792755 -0.005476907 -0.010437976 -0.0043825917 -0.00743416 -0.015488917
-0.0129286125 -0.010516548 -0.012949064 0.0075664804 0.00799428 0.0054786974 0.009369297 0.008746396

conv1.weight f4 [10, 3, 3, 3]
00000000: 3b1c 01be 0614 a8bd 562b b13d f299 f83d
00000010: dad4 bf3d df24 b8bd 59f5 873d 06a1 43be
00000020: 9c51 553c 7869 21be 31e6 303e 2101 c13d
00000030: 1286 dd3d fb45 9b3d 0415 433e 40bd 113e
00000040: 9129 09be 0531 c93d 8220 1cbe 385d d2bd
00000050: 6553 473e e14e d63b 9c2e fabd 23b8 34be
00000060: c132 1a3b aff3 0ebd bab1 6cbd 4900 ec3d
00000070: 78ec f0bd fba2 313e ed9c 1c3e 2eb7 373d
00000080: e142 2f3e 165f 41bd 16ad 45bd 1e86 2ebe
00000090: e66b 39be 6641 0cbe 8077 bf3d dc01 123d
000000a0: afc6 173e 4987 05bd 9ab9 adbd f69e 453c
000000b0: 8cc8 3dbe 3eaa fe3d 8a0b 4bbd d51f 77bd
000000c0: b957 013e 9429 aa3d 004d 673d 4376 43be
000000d0: 34dd 313d c9db 23be f8ca 063d 6c19 703d
000000e0: b3a2 0fbe 2c95 84bd c216 d1bd 5b98 273e
000000f0: 0d7b 32be 031f acba 6346 1abd 6ad2 03be
00000100: 3b8b bcbd 8f18 04be 68fd 1cbd a6db 13be
00000110: 8699 ca3d 804f cb3a eda2 b73d 77a0 2dbe
00000120: edfe 093e 5ef4 3bbe 91c1 ae3d 8015 123d
00000130: c275 903d a3bb 1fbe 9bdb 19be 4599 a93d
00000140: cb8b 853c 3d57 383e 8c93 ff3d 0b9b 71bd
00000150: d39a 29be 26dc 70bd 1794 86bd 00d5 ebbd
00000160: fa17 33bd 1947 f9bd 4e26 673c fe99 d0bd
00000170: d9b1 aa3d 556c da3d a09e fabd dc28 b03c
00000180: 6c50 043e 14f7 9dbc d47f d3bd 5912 c13d
00000190: d003 2f3e 9897 023e 2b0a f93d b707 223e
000001a0: 932e 3cbe aaa9 18be 3368 a6bd 6ec2 053e
000001b0: f27a 8abd ed45 ba3d 21c5 b2bd 7ef5 2c3e
000001c0: 3b29 eabc 8e2b b83d 8f3e 4dbd 35fc 9e3d
000001d0: 334a a6bb 5634 c9bb 1642 173e f8d5 19be
000001e0: eace 1fbe 3df1 dcbb 275d 3b3e 0d2d 4c3d
000001f0: 507a 0b3e 9dd1 8cbc c60a 1a3e 1e41 50bd
00000200: 4428 8e3c 7b02 df3d 01e6 e83c 3c94 f23c
00000210: cbfe a9bd f3ee 533d d038 3abd dcac 153e
00000220: 3fb7 d8bd 1cf4 2e3e fa1c 323e 6460 f93d
00000230: 73b4 ff3d 4e6f 3cbe 1ef7 bfbc cdda 313e
00000240: e2a7 b03d 3e04 d93d 359e 323e 5667 a0bd
00000250: 7a44 0dbe 6db8 2abe 0580 273e 7a09 0abe
00000260: e653 f6b9 4ccd 6bbc 6e58 e7bd d150 85bd
00000270: c18b 4c3e 1409 9cbd 705b 07be ef2f 943c
00000280: cf68 eabd 572e 02be 571f dcbd 76ed 7b3d
00000290: aec9 39be f03e 273e b4df 493d bc2c 79bd
000002a0: 8726 bebd b8b9 84bd 3a73 d53c 48d1 353e
000002b0: 4d74 843c 598e dd3b 95f7 12be 8021 953d
000002c0: a3ad 78bd 0ca6 313e 796f 623d 13ad 003d
000002d0: b84c 03be f36c b43d e1ac 37be b4c7 3b3d
000002e0: c7a9 9a3d 25b9 4fbd e6fd e3bd c71a 5f3d
000002f0: 185d 84bd d222 30bc dd9b 153e f57f 16bd
00000300: 2540 1bbd 4622 eabc 56f0 31bc 70ec 873d
00000310: 2bea c3bc f7f0 a6bd 8d4c 25be 7122 3d3e
00000320: 0ecb 20be e9f7 163e 869c 363d 87e9 d8bd
00000330: 0e0d 21be 595a 4abe fcb3 623d 11cf 993d
00000340: 965b f4bd 4827 023e bfbe 003e 0530 203d
00000350: 03b7 c1bd 432e bf3c ee15 32be 0510 1e3e
00000360: 8668 ef3d a6e7 903c 09e9 01bd f331 59bd
00000370: 54e0 23bd 2dd7 e3bd 23ca fd3d 577a 433e
00000380: b906 fbbc eb46 633d e1a3 a2bd 29f3 f73d
00000390: be01 70bc 582f 1c3e 184e d2bd 9566 e43d
000003a0: b8d6 ff3d 9500 0f3e 9fd6 d7bd 3993 3abe
000003b0: 7755 4abc 5ea2 f33c cee6 e9bd 416e 033e
000003c0: 3025 10be c9f5 033d 24a3 1f3e da84 b03c
000003d0: e1df 00be 6b19 d6bd bba4 36bd 0323 3b3e
000003e0: 3f7b bbbd 4f8e 0abc 7501 2fbd ccdb 92ba
000003f0: 7eff 8c3d a598 15be 729f c83d 32b9 7f3d
-0.12608425 -0.08206944 0.08650844 0.12138738 0.0936677 -0.089914076 0.06638593 -0.19104394
0.0130199455 -0.1576289 0.17275311 0.094240434 0.108165875 0.07581707 0.19050986 0.1423235
-0.13394763 0.09823803 -0.15246776 -0.10271686 0.19465406 0.006540165 -0.12215921 -0.17648368
0.0023528787 -0.034900364 -0.05778668 0.11523492 -0.11763853 0.17347328 0.15294237 0.04485243
0.17115356 -0.04720982 -0.04826077 -0.17043349 -0.18107566 -0.13696823 0.09348965 0.035646304
0.14821886 -0.03259972 -0.08482666 0.012061825 -0.18533534 0.12434815 -0.04957155 -0.06033309
0.1263112 0.08308712 0.056469917 -0.19088082 0.043423846 -0.1600181 0.03290841 0.058617994
-0.14026909 -0.06473765 -0.10209419 0.16366713 -0.17429753 -0.0013131801 -0.037664782 -0.12873235
-0.092062436 -0.12899993 -0.038327605 -0.14439258 0.098925635 0.0015511364 0.089666225 -0.16955744
0.13476153 -0.18354937 0.085330136 0.035665035 0.070537105 -0.15598921 -0.15025179 0.08281187
0.01630201 0.18002029 0.12479314 -0.05898575 -0.16562967 -0.0588037 -0.06571215 -0.11515236
-0.043724038 -0.12171764 0.014108254 -0.10185622 0.08334703 0.10665194 -0.122372866 0.021503858
0.12921304 -0.019282855 -0.10327116 0.09427328 0.17091298 0.12753141 0.121601425 0.15823255
-0.18377142 -0.14908472 -0.08125343 0.1306245 -0.06761731 0.090953685 -0.087290056 0.16890523
-0.028584113 0.089926824 -0.05010849 0.077629484 -0.005074763 -0.006140272 0.14771304 -0.15023029
-0.15606275 -0.006742625 0.18297254 0.04984765 0.13620877 -0.017189795 0.15043172 -0.05084335
0.017353185 0.10889145 0.028429987 0.0296117 -0.08300551 0.05174155 -0.045464337 0.14616722
-0.105818264 0.17085308 0.17393866 0.12176588 0.1248559 -0.18401834 -0.023433264 0.17368622
0.08625771 0.10596512 0.17443164 -0.0783221 -0.13795653 -0.16671915 0.1635743 -0.13480178
-0.00046983286 -0.014392208 -0.112961635 -0.06509555 0.19975187 -0.07618919 -0.13218474 0.018089263
-0.11445772 -0.1271299 -0.10748165 0.061505757 -0.18143341 0.16332603 0.049285606 -0.060833678
-0.09284692 -0.064807355 0.02605592 0.17755616 0.016168738 0.006761354 -0.14352258 0.0728178
-0.060712468 0.17348498 0.05528209 0.031415056 -0.12822235 0.08809843 -0.17937042 0.04584475
0.07551914 -0.050713677 -0.11132412 0.054468896 -0.06463069 -0.010750489 0.14610238 -0.036743123
-0.03790297 -0.028580796 -0.010860523 0.06636894 -0.02391537 -0.08151429 -0.16142483 0.1847017
-0.15702459 0.14743008 0.044582866 -0.10591417 -0.15727636 -0.19761027 0.055347428 0.07510198
-0.11931531 0.12710297 0.12572764 0.039108295 -0.09458735 0.023337489 -0.17391178 0.15435798
0.11689858 0.017688584 -0.03171638 -0.05302615 -0.040008858 -0.11125026 0.1239207 0.19089638
-0.030642854 0.055487555 -0.07941414 0.12106926 -0.014648853 0.15252435 -0.102688015 0.111523785
0.12492126 0.13965066 -0.105389826 -0.18220223 -0.012349478 0.029740509 -0.114209756 0.12835027
-0.14076686 0.03221682 0.15589577 0.021547724 -0.12585403 -0.10454067 -0.044590693 0.18275075
-0.09154367 -0.008456781 -0.042726 -0.0011204421 0.06884669 -0.1460901 0.09796037 0.062432475

conv1.bias f4 [10]
00000000: 04f1 42be a91e c13d 3a69 d9bd 92a2 f6bd
00000010: 26c5 9cbd 2234 283e fdcc 1dbe 3a50 2e3c
00000020: d069 b7bd ca09 d43d
-0.19037253 0.09429676 -0.106157735 -0.120427266 -0.076547906 0.16426137 -0.15410228 0.010639245
-0.08955729 0.103534296

b1.weight f4 [10]
00000000: 3acf 833f c04d 813f 0239 7f3f b088 833f
00000010: 033d 7c3f f42f 7a3f 1923 823f 3973 7f3f
00000020: 6a5e 7e3f e957 803f
1.0297616 1.0101852 0.9969636 1.0276089 0.98530596 0.9772942 1.0166961 0.9978519
0.99362814 1.0026828

b1.bias f4 [10]
00000000: 84ce 0a3b 0b2b a93b e05a a43c fed1 183c
00000010: bcde 973c bced a6bc 1934 25bc e6b8 48bc
00000020: 10a2 623c 8440 52bc
0.0021180222 0.005162602 0.020062864 0.00932741 0.018538825 -0.020377032 -0.010083222 -0.0122511145
0.013832584 -0.012832765

b1.running_mean f4 [10]
00000000: beac b039 21d7 9f3d 8278 f033 f594 203b
00000010: 8170 1c3e 6f9a 8a3e 84d8 0239 236a 3f3b
00000020: 92c3 113e e2fa c43d
0.0003369804 0.078047045 1.1197791e-07 0.0024502848 0.15277292 0.27070948 0.00012478424 0.002920755
0.1423476 0.096181646

b1.running_var f4 [10]
00000000: a91b 3e39 2552 083b fe4e 1639 c511 f739
00000010: 1524 613c 9f7a ce3b 2b0c 2439 c991 8f39
00000020: 85b5 313c 165b 233a
0.00018130116 0.0020800915 0.00014334542 0.0004712475 0.013741513 0.0063012387 0.00015644792 0.00027383704
0.0108465 0.00062315294

conv2.weight f4 [20, 10, 3, 3]
00000000: 6adc 9dbd 2550 8a3d e294 c8bd 9ed2 9dbd
00000010: 675a b6bd 4bfb b53d 8db9 93bc d02b e5bc
00000020: b4d7 8bbc 8a57 8d3c db47 a1bc b86f ae3c
00000030: 79d5 83bd 5ad9 993d aa08 fe3c de0c a8bc
00000040: 9557 54bd 076d 23bc e17e 0fbc 698e 3f3d
00000050: 2cd2 21bd d915 8a3d f318 323d d9c6 a9bc
00000060: 6a68 cfbb c7a7 f8bd af67 8d3d 7fed c03d
00000070: 9ec1 b6bd ed84 9fbd 8926 bc3d 560d 953d
00000080: 336e ba3d 3f00 d2bc 400e dc3a 5a1e 19bc
00000090: 37d9 703b eee6 af3d a988 9fbd 3aac fc3c
000000a0: 99ac 68bd 1fe9 6b3d b0fb 44bd 6627 c5bd
000000b0: 8811 813c 703f e6bc 9336 043d edcd 093d
000000c0: feb1 40bd 77c0 e53d cb0a 78bc ed88 a1bd
000000d0: bfb8 a0bd 82f0 54bd 360a b0bd e39b 573b
000000e0: c1bb 3dbd 0151 b5bd 1bf4 13bd c66b 883d
000000f0: fe30 b7bd 438b a3bc c0a8 123d b039 86bd
00000100: 6f81 d03d ef80 863d cdcf c33d 38ce b23d
00000110: 9b80 103d ccf7 cdbc 13cb a4bd 4ef6 d13d
00000120: 9382 d0bd 15fe 0abd 5292 393d 2662 a83d
00000130: acd8 ddbc 2d79 11bd d05f f43c 250d c7bd
00000140: 7614 8cbc 3088 6ebd 663d c9bd ef6a d63d
00000150: 4769 22bd 7736 b33d cdfa 67bd d20b 7c3d
00000160: f3bc 733d 96f0 163d ccec 553d b314 c83b
00000170: 4bf8 fdbc e6bf 193d 741a 093c 1a53 803c
00000180: 6081 95bc 06bf cd3b 3c29 7b3c 7fda 80bd
00000190: 45b0 0bbc cfaa 093c fe4e d73d 7899 81bc
000001a0: a9e8 d13c 2a94 183c 3566 bbbd d07a e9ba
000001b0: da88 ecbc 10de 093d 82f7 5bbd ff39 16bd
000001c0: 99fb ac3d 8dcc ca3d fe68 113d bf8e a83c
000001d0: 2522 66bd 96db ae3d 7a83 a1bd aa73 f13d
000001e0: f7ac 9639 ade2 bb3b 8f2a 013e a11a 99bd
000001f0: d5f2 683d bd57 aabc 26de 2a3c 4704 2abc
00000200: adbd c13c 7aa5 cabd 66a1 f13c 9821 bebd
00000210: d078 303d e34a ee3c bdb3 743d df25 6f3d
00000220: 435d 723d 2d45 5a3d b5c6 ca3d 1eda 9cbd
00000230: a759 60bd eeaa cbbc 28ea 423d a167 c2bc
00000240: 45ee d43d c0b5 8dbd 94bd d6bc be23 9a3d
00000250: 62ce fabc 092d 82bd 4abf 83bd 1b20 033d
00000260: 2b9f 973d b874 703d c1c9 c4bd b47e 0dbd
00000270: bb21 ae3d ff6f bfbd 0749 84bc 70ea 6a3c
00000280: c008 5e3d 24d0 c13d 66e3 923b 39af a1bc
00000290: 9555 b43c dd61 5cbd 296d 213d f857 03bc
000002a0: 8bc5 d2bc 643f 98bd bc17 763d a034 cebd
000002b0: a520 c23c e46a 473d dbff 0a3d d98c 843d
000002c0: 252c 11bd e12d 9a3d 2ae6 643d d3a0 30bc
000002d0: 5516 d23d b87f 5cbb f973 ac3d 8361 b1bc
000002e0: cb28 1f3d 52ce a8bd be31 f7bc 78f0 ffbb
000002f0: 2e6c 5d3a 6687 e03d ea5d bdbd 402b 50bd
00000300: b557 b9bc 4539 4d3d 8870 9b3d f751 183c
00000310: 26cf d4bc 2520 d63d f1ab b63d 45c0 523d
00000320: 8749 9cbd 546c 8c3d a16b 1a3d 4a7c bf3a
00000330: 28f9 ab3d b62c a2bd 33a6 96bd 355c c6bd
00000340: 253f b73d 71ea fa3c 53c4 903d 3af7 e9bd
00000350: e68b d3bd 1a09 efbd b614 9e3b cad5 8b3d
00000360: eaf7 b7bd 4382 b4bd 1bb0 2ebd cfc7 04bd
00000370: 35f6 82bd 374c 52bd e6cd 9d3d 5b19 233d
00000380: 360e 83bd 52ac c43d 8f4c 9abc 2026 a93d
00000390: 9dd8 8b39 5831 fc3c cfa6 4a3c 7253 c83d
000003a0: bf03 c8bc 3d7f 9f3d b241 813d 9a6c b8bc
000003b0: d46c 8cbd 36b9 733a f688 783d 4572 73bd
000003c0: 5d06 8a3c 5afb 9fbd 5278 3f3c 5f07 df3c
000003d0: 3177 f2bc 67cc 9eba eaa8 1fbc ab20 40bd
000003e0: 7d94 a03d 34b6 40bd a0f9 193b e901 91bd
000003f0: d16f 3a3c f467 663d 3d8c 6ebd ba4d ddbc
-0.07708056 0.067535676 -0.09794022 -0.07706188 -0.08903962 0.08885821 -0.018032813 -0.027974993
-0.017070629 0.017253656 -0.019687584 0.021293506 -0.06437201 0.0751216 0.03100999 -0.020513948
-0.051841337 -0.009974725 -0.008758278 0.046766672 -0.039507076 0.06742448 0.043480825 -0.0207247
-0.006329586 -0.12141376 0.06904542 0.09420299 -0.08923648 -0.077890255 0.091870375 0.07277934
0.0910305 -0.025634883 0.0016788915 -0.009345615 0.0036750564 0.08588968 -0.07789738 0.030843843
-0.056805227 0.05759537 -0.04809159 -0.09626655 0.01575543 -0.028106421 0.03227861 0.03364365
-0.047044747 0.112183504 -0.015139292 -0.07887445 -0.078477375 -0.05198718 -0.085956976 0.0032899312
-0.046321634 -0.08853341 -0.03612147 0.06661181 -0.089448914 -0.019963866 0.035805464 -0.06553972
0.101809375 0.06567561 0.09561119 0.08730739 0.035278898 -0.025142573 -0.08046546 0.10252057
-0.10181155 -0.033933718 0.045305558 0.08221845 -0.027080856 -0.035515953 0.029830843 -0.09719304
-0.0170996 -0.058235347 -0.09826164 0.10469615 -0.03965118 0.08750623 -0.056635667 0.06153471
0.059506368 0.036850534 0.05222778 0.006105983 -0.031002184 0.037536524 0.008368123 0.015664626
-0.018250167 0.0062788753 0.015329655 -0.06291675 -0.008525913 0.00840254 0.105131134 -0.01582025
0.025623636 0.009312669 -0.09150354 -0.001781309 -0.02887385 0.03365904 -0.05370284 -0.036676403
0.08446426 0.09902296 0.03550052 0.02057588 -0.056184907 0.085379764 -0.07886405 0.11789639
0.00028739098 0.005733809 0.12613891 -0.07475782 0.056872208 -0.02079379 0.010428941 -0.010376996
0.023650015 -0.098948434 0.029495906 -0.09283751 0.043083966 0.029088443 0.059741724 0.058385726
0.059170973 0.053288627 0.099011816 -0.0765879 -0.054773 -0.024861779 0.04758659 -0.023731055
0.10397009 -0.06919432 -0.026213445 0.075263485 -0.03061599 -0.06356246 -0.0643297 0.03201304
0.07403406 0.05870506 -0.09608794 -0.03454466 0.08502527 -0.093475334 -0.016148103 0.014338121
0.054207563 0.09463528 0.0044826744 -0.019736873 0.022013465 -0.053804267 0.039410744 -0.008016579
-0.025728961 -0.07433966 0.06008123 -0.10068631 0.023697207 0.048685923 0.03393541 0.06472177
-0.03544249 0.07528282 0.055883564 -0.010780531 0.10258166 -0.0033645462 0.084205575 -0.021652943
0.038857263 -0.082424775 -0.030175086 -0.0078106485 0.0008446601 0.10963325 -0.09246428 -0.050822496
-0.02262483 0.050103445 0.07589823 0.009296886 -0.025977682 0.1045535 0.08919514 0.051452894
-0.07631212 0.068565995 0.0377003 0.0014609185 0.08397132 -0.07918684 -0.07355919 -0.09685556
0.08947591 0.030629368 0.07068696 -0.11424108 -0.10329418 -0.11671658 0.0048242463 0.068278864
-0.08982833 -0.08813908 -0.042648416 -0.032417115 -0.063946165 -0.051342215 0.07705288 0.039819103
-0.06399195 0.0960318 -0.018835334 0.08259225 0.00026673535 0.030785248 0.012368872 0.09781541
-0.024415849 0.07787941 0.063113585 -0.022512723 -0.06856695 0.0009297313 0.06067749 -0.059435148
0.016848737 -0.078116134 0.011686401 0.027225194 -0.02959785 -0.001211536 -0.009744862 -0.046906155
0.07840822 -0.047048762 0.0023494735 -0.070804425 0.011379198 0.05625148 -0.05823921 -0.027014602

conv2.bias f4 [20]
00000000: 344a 79bc a17d b73a dd23 843d ab7a 363d
00000010: 2072 92bd 899a 27bd d4ec e4bd 0f81 ec3c
00000020: 44db b2bd 38a9 9cbd 46aa 8fbc 1c3d 91bd
00000030: 68d6 70bd 5891 f2bd bcf6 c8bc 690b 043d
00000040: 048a 403d 7fe0 ca3d 2784 d73d ef76 90bd
-0.015215445 0.0013999232 0.06452153 0.04455058 -0.07150674 -0.04091886 -0.11177984 0.028870134
-0.08733228 -0.076494634 -0.017537247 -0.07091734 -0.058798224 -0.11844128 -0.024531715 0.032237444
0.047006622 0.099061005 0.10523253 -0.07053935

b2.weight f4 [20]
00000000: 2236 763f c2a6 733f 35e7 753f 0d61 783f
00000010: ec69 763f eab7 753f b900 763f 577c 743f
00000020: 4e76 763f 28d9 733f 12d5 743f 46b1 743f
00000030: a8f5 793f d696 743f a4a7 743f bc94 753f
00000040: 2a6d 763f c74a 793f 7956 753f 7547 743f
0.9617635 0.9517633 0.9605592 0.9702309 0.96255374 0.95983756 0.9609485 0.9550223
0.9627427 0.9525323 0.9563762 0.95583 0.97640467 0.9554266 0.955683 0.95930076
0.9626032 0.97379726 0.9583507 0.95421535

b2.bias f4 [20]
00000000: 0145 acbb f48b f2bb bad3 e3bb 266f 2e3c
00000010: fe0a 483c b023 c43b 0c98 87bb ee98 283c
00000020: 3fd9 183c 9cef b5bb 5e21 54b9 3882 4e3c
00000030: 6d6d 22bc 5971 8fbb a7e0 603c c2dd 4fbc
00000040: 3bd9 1e3c ea3b 413c 9cf4 643b 630f 2c3c
-0.0052572493 -0.0074019376 -0.00695273 0.010646617 0.012209652 0.0059856996 -0.0041379984 0.0102903675
0.009329139 -0.0055522453 -0.00020230326 0.012604289 -0.009913784 -0.0043775258 0.013725436 -0.0126871485
0.0096953465 0.01179407 0.0034935838 0.010501715

b2.running_mean f4 [20]
00000000: 41a2 8f3e a90e 483e 5ed4 ca3e 427b bf3e
00000010: 2835 363e b3ae 8c3e 9c7e 323e 64f6 7f3e
00000020: 34cd 4b3e b9b1 4a3e ac06 803e ea61 273e
00000030: 2aa4 713e bde2 4c3e 06ca 3d3e e8bb 9f3e
00000040: e220 683e 524c c13e 29cd 8a3e 30e5 383e
0.28053477 0.19536842 0.39615148 0.37398726 0.17793715 0.27477035 0.1743111 0.24996334
0.19902498 0.19794358 0.2500509 0.16345945 0.2359778 0.20008369 0.18534097 0.3119805
0.22668794 0.3775354 0.2710965 0.18056178

b2.running_var f4 [20]
00000000: 154a d83e e541 7f3e 3521 753e 9831 a33e
00000010: f24a 673e 2696 fd3e 5c6d 863e 602f e83e
00000020: b6f4 7e3e 82d3 713e a6da 963e 61c3 293e
00000030: 846d 1d3e 20da 6a3e ffeb 543e 7975 ed3e
00000040: b972 1c3e 4e82 9c3e 53fc 543e 8b69 ad3e
0.4224402 0.2492748 0.23938449 0.31873775 0.22587183 0.49528617 0.2625531 0.45348644
0.24898037 0.2361584 0.2946369 0.16578437 0.15373808 0.2293477 0.2079315 0.46378687
0.15278138 0.30568165 0.20799379 0.33869585

fc1.weight f4 [1, 90480]
00000000: e529 c7bb dbaa a73b 13b4 84bb d741 f1ba
00000010: 6d01 b73a b6b6 34bc 3697 f2bb d24a 42bb
00000020: cde3 983a 9305 30bc 2ec2 edbb 6c9d 15bb
00000030: 4b3e 19bc cf62 efbb c8a4 c0bb 018b b43a
00000040: 6add 0bbc bdef 2e3b a43c 7dbb 0b82 d73a
00000050: 4b4f 3abb 7603 703b 063a 093c 58e2 4f3c
00000060: 32c6 b03b c77a 483c dcd6 95b7 64c7 153a
00000070: fb8c c1ba 9b3c 9abb f183 7bba 8add b0ba
00000080: a3ad e5bb a85e 7c3b 1f4f fcbb 0072 593b
00000090: 5819 12bb 1fe1 1bbc d7c1 3cbb 7074 8dbb
000000a0: 9baf 94ba 0ccc 1dbc 97aa 833a 771e f33a
000000b0: 7752 32bc bfa2 11bb 34c2 34bc d835 0d3b
000000c0: 83df 02bc 14ed 82b9 72c3 f8bb 82ab f7bb
000000d0: eb61 073c aec5 9a3b 66e0 793c 0088 593b
000000e0: 0837 113b d91d 773b 157f d4b9 abc1 063c
000000f0: 8f1f 703b f95e c5ba b5ab 363b 5c7c 54bc
00000100: 042d 75b8 3399 11bc b197 e9bb 7c80 23bc
00000110: d79a f2bb e68b f2bb 268d d8bb 1dfe 3bbc
00000120: 91f4 29bc 7652 e93b fe39 34bb a0f8 9e3b
00000130: b4e6 bbbb e094 c3bb 0c8b 423b b41e dfba
00000140: 03b9 0c3c c824 b93b 9a7b 163b 12b8 293c
00000150: a650 42ba ea1d 24b6 d11b bb3b a1f4 113c
00000160: abd3 7c3b 6d27 1f3b 1855 87ba de64 6fbb
00000170: d092 58ba 9f19 2d3b bed6 563b 7b47 c33a
00000180: 531e 4a3b dfe5 c33b 36da a4b9 b252 1e3c
00000190: be4a a33a 9bcb 1dbb d8dd 3fbc 6f3b 8abb
000001a0: 4cf3 30bc eb81 f93b 3a51 adbb 6659 f53b
000001b0: a924 56bc b34f b0ba 2e89 1abc 19a5 19bc
000001c0: af7c f43a dbf2 dcbb 8588 19bb e984 d5bb
000001d0: bb90 e3b9 d2b0 b4bb cb92 8ebb bbd3 c33b
000001e0: a25d bbbb 6fc2 bebb 0da2 713a 0930 cebb
000001f0: 2ae5 24bc ffaf c1bb 7110 bfbb f640 37bc
00000200: 106f 19bc 8e5a afbb 1241 86bb 1477 1dbc
00000210: b078 eebb b1e2 34bc d9c2 d4bb bf9c be38
00000220: f77a 263c e899 063b 87c3 e13b 414a 683b
00000230: 3736 493c 7317 1e3c 38e9 573b 8af0 123b
00000240: cb69 de3b 0cf8 1b39 009f 80b8 9e41 f4bb
00000250: 4738 96ba 8ff3 ecba 512c 8bbb ef51 3d3a
00000260: b30a 363c d328 3c3c 1c3b 87ba 8350 243b
00000270: 2438 353b 4e68 32bb 72f7 28bc 88f4 debb
00000280: a80d a73b 7d55 0dbb df36 71ba 4e59 e7bb
00000290: 044e 70bc f153 2dbc b38b 2cbc a440 6dbb
000002a0: 8523 1ebc ffb8 04bb 4203 6fbb 3cf2 26bc
000002b0: aedc 913b d4df dcb9 101a 973b f4b3 1dbc
000002c0: a775 19bc a502 d5bb 498d 05bb 1955 74bc
000002d0: 4899 85ba bc85 46ba 2155 bfbb ecc5 1fbc
000002e0: b2fd 85bb 78dd 49bc b3fc 5dbc 94bf 9abc
000002f0: 1252 e5bb a7d1 99bb 9e95 eabb 159a 3bbc
00000300: cc7a 4ebc da8e baba c2ba 1f3c edfb 9dba
00000310: 3801 383c 5d65 253c 6b90 4cb9 1de0 2c3c
00000320: 3cce fb3b f3e6 cc3b a809 143c 3213 27ba
00000330: b763 0a3c e5e4 c23b 78d6 46bb 9ebe ddbb
00000340: d6ca f1bb b96e a7bb 9ffe 5a3b f9c3 853b
00000350: 4c8b d6ba 9717 b53a c473 763c b582 713c
00000360: 6d71 ddb8 8d82 cfbb b38f 633a 653c d9ba
00000370: 062e 1dbc 0a20 10bc d001 2ebc ad91 47bc
00000380: 751b bf3b d7ed 2fbc 5465 0abc 1fa3 0fbc
00000390: b47a 75bb f265 c2bb fd83 17bb 9693 c4bb
000003a0: 1dc9 0fbc f20f 0abc 5021 6ebc 0051 183a
000003b0: 8ca4 35bc e947 393c 971e 70b9 516c dd3b
000003c0: bab2 e3bb d59a 4dbb 68b2 e4bb a077 b3bb
000003d0: 0b04 2bbc d89b 8fbb 419a f3bb 3ac5 7dbc
000003e0: 88d2 53bc 994d 2cbc 5028 54bc 3df0 f73b
000003f0: 71fa 023c a586 b33b ae81 193c 0b4d 0f3c
-0.0060779923 0.005116803 -0.004049787 -0.0018406463 0.0013962217 -0.01102989 -0.0074032797 -0.0029646647
0.001166457 -0.0107435165 -0.007255814 -0.0022829426 -0.009353231 -0.00730548 -0.0058790185 0.0013774337
-0.008536676 0.0026693188 -0.003864088 0.0016441954 -0.002842861 0.0036623157 0.00837565 0.012688242
0.0053947205 0.012236304 -1.7862236e-05 0.00057136104 -0.0014766747 -0.0047069318 -0.0009594551 -0.0013493758
-0.0070092245 0.0038508568 -0.0076998617 0.0033179522 -0.0022292938 -0.009514122 -0.002880206 -0.004316859
-0.0011343838 -0.009631168 0.0010045347 0.0018548508 -0.010883919 -0.0022222248 -0.01103263 0.0021546986
-0.00798786 -0.0002497217 -0.0075916583 -0.007558287 0.008263092 0.0047232723 0.015251255 0.0033192635
0.0022158045 0.0037707 -0.00040530475 0.008224885 0.0036639904 -0.0015058211 0.0027873341 -0.012969103
-5.8454476e-05 -0.008886623 -0.0071286787 -0.0099793635 -0.0074037123 -0.007401931 -0.006608623 -0.01147416
-0.010373251 0.007120426 -0.0027500386 0.0048514158 -0.005734289 -0.005968675 0.002968493 -0.00170227
0.008589032 0.0056501366 0.0022961856 0.010358827 -0.000741253 -2.4455317e-06 0.005710103 0.008908422
0.0038578312 0.0024284974 -0.0010325043 -0.0036528627 -0.0008261623 0.0026412976 0.0032781805 0.0014898622
0.0030840829 0.0059783305 -0.00031443097 0.009663271 0.0012458188 -0.0024077657 -0.0117106065 -0.004218511
-0.010800194 0.0076143644 -0.005289224 0.0074874638 -0.013070264 -0.0013451487 -0.00943212 -0.009377741
0.0018652881 -0.006742818 -0.002342732 -0.0065160883 -0.00043404647 -0.0055142427 -0.004350995 0.005976168
-0.005717949 -0.005821518 0.0009217568 -0.0062923473 -0.010064403 -0.005910873 -0.0058308174 -0.0111849215
-0.009364858 -0.005351371 -0.0040971125 -0.00961091 -0.0072775707 -0.011040376 -0.006492954 9.089102e-05
0.010161153 0.0020538513 0.0068897638 0.003544465 0.012280992 0.009649145 0.0032945406 0.0022421204
0.006787514 0.00014874357 -6.133132e-05 -0.0074541112 -0.0011460864 -0.0018077957 -0.0042472263 0.0007221987
0.011110949 0.011484343 -0.0010317299 0.0025072403 0.002765187 -0.0027222815 -0.010312902 -0.0068040527
0.0050980635 -0.0021565848 -0.0009201597 -0.0070602065 -0.014667038 -0.010579095 -0.010531354 -0.003620186
-0.009652023 -0.0020251868 -0.0036470448 -0.010189589 0.004451356 -0.00042128435 0.004611261 -0.009625424
-0.009366429 -0.0065005594 -0.0020378402 -0.014912867 -0.0010192776 -0.00075730286 -0.0058390056 -0.009751778
-0.0040890807 -0.012320869 -0.013549018 -0.01889018 -0.006998309 -0.004694182 -0.007158949 -0.01145031
-0.012602519 -0.0014233247 0.009749116 -0.0012053229 0.011230759 0.010094968 -0.00019508756 0.01055148
0.007684497 0.006253117 0.009035505 -0.0006373405 0.008446625 0.0059476965 -0.0030340236 -0.006767108
-0.0073789163 -0.0051096347 0.0033415926 0.0040821997 -0.0016368418 0.0013816234 0.015042249 0.014740636
-0.000105592284 -0.0063327015 0.00086807756 -0.0016573785 -0.009593492 -0.008796701 -0.010620549 -0.012180728
0.0058321306 -0.010737858 -0.00844701 -0.008766918 -0.003745717 -0.005932563 -0.0023119443 -0.005999039
-0.0087759765 -0.008426653 -0.0145343095 0.000581041 -0.011086594 0.011308649 -0.00022899579 0.006757297
-0.006948796 -0.0031372805 -0.0069792755 -0.005476907 -0.010437976 -0.0043825917 -0.00743416 -0.015488917
-0.0129286125 -0.010516548 -0.012949064 0.0075664804 0.00799428 0.0054786974 0.009369297 0.008746396
