dev_code/playground/inference_flight_beta/drone_obstacle_cnn_8857.pt (torch, 377403 bytes, 26 tensors)

architecture.conv1.weight f4 [10, 3, 3, 3]
-0.1409924 -0.092212595 -0.198754 -0.09036819 -0.077305466 -0.11323369 0.07132154 0.12405506
0.09895639 -0.13815925 -0.07024879 -0.14099601 0.0108013 0.16364369 0.13433917 -0.12500794
0.045621753 0.17760698 0.031917553 0.052953977 -0.17269993 0.089860246 0.1567024 0.08262003
-0.11584617 -0.1229771 0.0043593836 -0.1365139 0.17824425 0.04944443 0.088207185 -0.060725898
-0.1769871 0.054831058 0.06475809 -0.102239594 0.17740917 -0.0047195195 0.05457945 -0.006732011
-0.13157898 -0.16389315 0.11189864 0.06644378 -0.08087903 -0.038301937 -0.11164835 -0.09130697
-0.17515802 -0.09709322 -0.03379753 0.09091587 0.13081494 0.10506076 -0.06770078 -0.11238535
0.12947187 -0.16774838 0.045188624 -0.13213176 -0.07389946 0.02096542 -0.11804547 -0.016767757
0.11991218 0.0742817 0.036590736 -0.12268345 0.04456418 -0.10650281 0.013383668 -0.032682113
0.12639447 0.033666383 -0.05817294 -0.1514263 -0.1695619 0.1310912 -0.073315464 0.053270448
-0.20049278 -0.06984701 -0.07298218 -0.040767804 0.15667842 0.15984075 -0.14142148 0.14533134
0.06730858 -0.17078568 -0.091787286 0.008117354 0.019907894 -0.07421509 -0.03932396 -0.014662859
-0.014819126 -0.06134754 0.008569314 -0.19449657 -0.097769715 0.15966333 -0.03047189 -0.13022867
-0.1576993 -0.1422953 0.10587664 0.059180126 -0.15346429 0.09892231 -0.18079 -0.08717611
-0.010998756 -0.10436866 0.089663 0.1087274 0.016379254 0.1464919 0.1926678 -0.06977712
0.10810429 0.09076362 -0.07999339 -0.13739072 -0.033940494 0.057322405 0.09401899 -0.038825106
0.17920023 0.030919107 -0.14241041 0.13644633 0.012606195 0.16518584 0.0011549606 -0.032993697
-0.15625536 -0.09312863 -0.08900863 -0.18341096 -0.08579396 -0.031129966 0.15626164 -0.04866273
0.08755465 -0.087807596 -0.096194126 -0.13199839 0.15424463 0.042420845 -0.054424416 -0.17810737
0.034984276 0.12479845 0.18599552 0.17890836 0.09103768 0.15854965 0.13653128 -0.07341728
-0.025467768 -0.17634398 -0.08976579 0.14717874 -0.11320587 0.15746589 -0.018058468 -0.18654512
-0.13467918 -0.08181243 0.14400883 -0.16589488 0.05008169 0.04992183 -0.19412035 0.004357183
-0.12740438 -0.0065242955 0.1518067 0.033596117 -0.04468118 0.10453632 0.089523084 -0.1827786
0.07463075 0.15895376 0.025968686 0.047943853 0.18242292 0.16145612 0.12535593 0.12643185
0.11841978 0.027432593 0.034375735 -0.036916044 -0.07728888 0.14011668 0.14582871 -0.18972257
0.069521 -0.17696378 -0.06652844 0.09593134 0.13582207 0.12687805 -0.0878456 0.14384288
0.110568 0.18212177 -0.09150863 0.08422761 0.06516188 -0.06283161 0.1619215 0.04973922
0.0749856 0.17203058 -0.12920794 -0.016293481 -0.046524238 0.07850008 0.08288781 -0.17715746
0.07123503 0.13878876 0.16290678 0.027854206 0.16197863 0.053035147 0.03052852 0.046091687
0.0987911 0.11594472 0.05242749 -0.006511193 0.09531317 0.13266282 -0.06967553 -0.16840486
-0.07396662 -0.041616257 -0.049518906 0.1181277 -0.080613196 -0.1387082 0.13402526 -0.12767278
0.14349456 0.03617766 0.006001855 0.18408415 -0.14743727 -0.1921795 -0.17538626 -0.14009792
00000000: 5060 10be f5d9 bcbd 2b86 4bbe f512 b9bd
00000010: 5452 9ebd 11e7 e7bd 0711 923d 9410 fe3d
00000020: a6a9 ca3d 9e79 0dbe 99de 8fbd 4261 10be
00000030: f0f7 303c 3692 273e 3590 093e 1502 00be
00000040: e0dd 3a3d 9bde 353e fbbb 023d 45e6 583d
00000050: 40d8 30be a608 b83d 9876 203e b134 a93d
00000060: c240 edbd 6bdb fbbd 29d9 8e3b 4dca 0bbe
00000070: a985 363e 3e86 4a3d f8a5 b43d b8bb 78bd
00000080: 1b3c 35be 8896 603d e49f 843d fe62 d1bd
00000090: c0aa 353e 33a6 9abb b48e 5f3d 3498 dcbb
000000a0: a4bc 06be 9bd3 27be 1d2b e53d ad13 883d
000000b0: e8a3 a5bd 7ee2 1cbd e4a7 e4bd 26ff babd
000000c0: a05c 33be cfd8 c6bd 476f 0abd 1a32 ba3d
000000d0: 5af4 053e 192a d73d b5a6 8abd 4a2a e6bd
000000e0: 4694 043e 3bc6 2bbe b517 393d 8c4d 07be
000000f0: 9a58 97bd acbf ab3c d3c1 f1bd 895c 89bc
00000100: 8494 f53d 0121 983d 2be0 153d 7641 fbbd
00000110: ee88 363d 251e dabd 2c47 5b3c aedd 05bd
00000120: 8d6d 013e c3e5 093d c046 6ebd 7f0f 1bbe
00000130: a2a1 2dbe c63c 063e 6b26 96bd 1d32 5a3d
00000140: fb4d 4dbe f30b 8fbd ae77 95bd 24fc 26bd
00000150: 4f70 203e 4bad 233e cbd0 10be bdd1 143e
00000160: 15d9 893d 71e2 2ebe f9fa bbbd a6fe 043c
00000170: e115 a33c 15fe 97bd 2912 21bd 7d3c 70bc
00000180: ebcb 72bc 8f47 7bbd 4f66 0c3c 1c2a 47be
00000190: 7d3b c8bd c97e 233e 2fa0 f9bc aa5a 05be
000001a0: ed7b 21be dcb5 11be dad5 d83d dc66 723d
000001b0: be25 1dbe c897 ca3d 0421 39be 6389 b2bd
000001c0: 2034 34bc 3cbf d5bd 3ca1 b73d 79ac de3d
000001d0: c92d 863c f901 163e b54a 453e 4fe7 8ebd
000001e0: c865 dd3d 47e2 b93d 93d3 a3bd 27b0 0cbe
000001f0: 3005 0bbd e6ca 6a3d 078d c03d 1307 1fbd
00000200: 4480 373e 114a fd3c 09d4 11be 96b8 0b3e
00000210: 378a 4e3c 7a26 293e 0c62 973a 6624 07bd
00000220: 6801 20be 39ba bebd 284a b6bd 15d0 3bbe
00000230: beb4 afbd 4504 ffbc 0d03 203e 9252 47bd
00000240: da4f b33d 78d4 b3bd 6d01 c5bd 962a 07be
00000250: 4ef2 1d3e 7bc1 2d3d 23ec 5ebd c761 36be
00000260: ac4b 0f3d 5496 ff3d 9c75 3e3e c133 373e
00000270: f771 ba3d d75a 223e dbce 0b3e cd5b 96bd
00000280: c8a1 d0bc 8493 34be 20d7 b7bd 06b6 163e
00000290: 7bd8 e7bd bd3e 213e 5aef 93bc af05 3fbe
000002a0: 57e9 09be 468d a7bd 0d77 133e 59e0 29be
000002b0: 7522 4d3d d57a 4c3d 7cc7 46be b3c6 8e3b
000002c0: 4b76 02be c2c9 d5bb 3773 1b3e 159c 093d
000002d0: 9d03 37bd 2317 d63d e157 b73d 502a 3bbe
000002e0: 02d8 983d c6c4 223e 48bc d43c c660 443d
000002f0: 13cd 3a3e c154 253e 4e5d 003e 5a77 013e
00000300: 1286 f23d 51ba e03c 92cd 0c3d 4735 17bd
00000310: a249 9ebd bf7a 0f3e 1f54 153e a246 42be
00000320: 0761 8e3d fe35 35be 1040 88bd a677 c43d
00000330: f114 0b3e 52ec 013e 65e8 b3bd 8c4b 133e
00000340: 7a71 e23d 217e 3a3e e068 bbbd 867f ac3d
00000350: 9773 853d dcad 80bd c0ce 253e 5abb 4b3d
00000360: 0d92 993d c928 303e 164f 04be e879 85bc
00000370: 3390 3ebd a6c4 a03d 16c1 a93d c468 35be
00000380: ace3 913d a41e 0e3e 09d1 263e 812e e43c
00000390: badd 253e 623b 593d f216 fa3c a3ca 3c3d
000003a0: fd52 ca3d 6d74 ed3d 35be 563d d85b d5bb
000003b0: 8d33 c33d c3d8 073e 0bb2 8ebd 5372 2cbe
000003c0: d07b 97bd cf75 2abd 56d4 4abd f0ec f13d
000003d0: 8818 a5bd 8609 0ebe eb3d 093e a7bc 02be
000003e0: 3df0 123e 072f 143d 35ab c43b 8e80 3c3e
000003f0: ccf9 16be b4ca 44be 7598 33be d475 0fbe

architecture.conv1.bias f4 [10]
-0.12556249 0.031943254 -0.1529208 0.13161373 0.12890972 -0.05308213 0.10761911 0.0022813673
-0.19271268 0.020374253
00000000: 7493 00be eed6 023d 4597 1cbe c0c5 063e
00000010: e900 043e a66c 59bd 6867 dc3d fe82 153b
00000020: 7956 45be e8e7 a63c

architecture.b1.weight f4 [10]
1.0174279 0.97992116 0.9940164 1.0011207 0.98934865 1.0200485 1.0056503 0.99249476
0.9984564 0.9866949
00000000: 143b 823f 1ddc 7a3f dc77 7e3f b924 803f
00000010: f445 7d3f f390 823f 26b9 803f 2314 7e3f
00000020: d79a 7f3f 0998 7c3f

architecture.b1.bias f4 [10]
0.0094046295 0.018809738 0.019655345 0.0012070296 0.022295598 -0.0045314464 -0.0027393138 -0.02424157
-0.00858851 -0.0029523526
00000000: e015 1a3c e116 9a3c 3f04 a13c 3135 9e3a
00000010: 42a5 b63c 877c 94bb 0f86 33bb 4296 c6bc
00000020: d2b6 0cbc 427c 41bb

architecture.b1.running_mean f4 [10]
0.00015190555 0.0053168773 4.2553766e-06 0.020148534 0.29149815 0.0009641476 0.11693478 0.51058656
0.16117726 0.0024281524
00000000: d648 1f39 3339 ae3b 68c9 8e36 8a0e a53c
00000010: 3f3f 953e dabe 7c3a 807b ef3d cdb5 023f
00000020: a70b 253e a321 1f3b

architecture.b1.running_var f4 [10]
2.4587825e-05 0.00026869777 5.936599e-07 0.0016799492 0.014118515 0.00012537507 0.0036098638 0.08448282
0.019580778 0.00015468734
00000000: f441 ce37 01e0 8c39 ff5b 1f35 be31 dc3a
00000010: 5851 673c 1d77 0339 7793 6c3b 5405 ad3d
00000020: de67 a03c 9133 2239

architecture.conv2.weight f4 [20, 10, 3, 3]
-0.0030995072 -0.009789618 -0.048803225 -0.062453084 -0.08919878 -0.077576086 -0.074395984 -0.01983846
0.07698426 0.003504978 0.021562705 0.007988143 0.02841228 0.024643175 0.021317096 -0.072220735
-0.0749095 0.00026716804 0.08340172 -0.022550138 0.057391383 -0.065821014 -0.037287787 -0.09618856
-0.10637622 0.0952358 0.05623143 -0.111768335 -0.122289576 -0.032147594 0.02369305 -0.047422256
0.05089376 -0.09339715 0.06570146 0.0053318897 0.07940519 0.019983158 0.091824815 0.044428796
-0.0012932599 -0.03498413 0.056497738 0.1020618 -0.07713612 0.06309121 0.08971448 0.021677988
-0.0055360314 -0.08207797 0.07879543 -0.030006887 0.03630605 0.09326712 0.05671278 -0.043720275
-0.10217783 0.016258502 -0.07114122 -0.06927773 0.03844759 -0.061564896 0.09566735 0.007308245
-0.11010638 0.09143991 -0.11442062 -0.07228631 -0.09438872 0.018900823 0.0026803522 0.07662317
-0.042105436 0.0103588365 0.008887077 -0.06316129 -0.07565714 0.068099745 -0.104991816 0.100817986
0.06639145 -0.101775385 -0.0497508 -0.042889502 0.037525274 0.034613773 -0.032003812 -0.023156773
-0.117830746 -0.034187317 -0.09464025 -0.04694717 0.032519855 0.07808581 -0.06450378 0.06292588
-0.035730407 -0.09211917 0.060807254 -0.071366504 0.05593984 0.0924117 0.06279331 0.06128901
0.10213563 -0.014304902 -0.10459227 -0.11244874 0.026386404 0.021310648 -0.07637784 0.072975285
-0.09517691 0.03286694 0.06592863 0.024195377 0.057775207 -0.05726148 0.048058696 0.015885474
0.013946958 -0.09097165 0.009818994 0.05579022 -0.111394346 -0.051023263 -0.07543384 0.0614031
0.03957347 -0.02336694 -0.018300837 0.09549603 0.0016358546 -0.008369266 0.05271705 -0.05355683
-0.10482785 -0.0121033 0.049640305 -0.06767679 0.06511698 0.0149643095 -0.06371167 -0.044934504
0.029348478 0.0075369873 0.08027614 0.07969548 -0.024232125 0.083581306 0.042919856 -0.05767062
-0.09945982 0.06703883 0.073954076 -0.04228958 -0.078744754 -0.02543779 -0.032918107 0.059437394
-0.0037331174 0.0002746697 -0.08864695 -0.09488626 -0.10632822 -0.012811015 0.021726716 -0.0772416
0.080879666 0.09267805 0.0048345216 -0.10342536 0.048487034 0.037589353 -0.019341823 -0.028473832
-0.09878933 -0.020096218 -0.017991139 -0.07053779 0.00965036 0.047407493 -0.034729533 0.036016412
0.030989373 -0.07302957 -0.10381943 -0.005538409 0.048161115 0.002147422 0.06749374 -0.113261856
0.058189686 0.041600112 0.019451912 -0.05886392 0.0772956 -0.030268582 -0.11077738 -0.09966235
0.008510551 0.037368204 0.034723118 -0.02464077 -0.10580874 -0.06328446 0.058937453 0.06563638
0.041548338 -0.07923011 0.06799502 0.0044600475 -0.040025648 -0.044563975 -0.06949009 -0.029587561
0.057050254 0.052503765 0.06970718 -0.029849408 0.08024804 0.010508994 0.03679255 0.087718226
0.06986516 0.0467794 0.06726557 -0.07279256 -0.058053058 0.11218826 0.068528175 -0.06582882
0.004866197 0.09654977 -0.0677681 0.015366745 0.019260647 -0.088068455 -0.0682286 0.09319103
-0.1014454 -0.10903935 -0.014761157 0.09839448 -0.037042614 -0.052056253 -0.005187263 -0.07938911
-0.039874863 0.0045670895 -0.098657556 -0.09839185 0.060146425 -0.02344179 -0.008909334 0.084741876
00000000: 1a21 4bbb a264 20bc e4e5 47bd cece 7fbd
00000010: daad b6bd 36e0 9ebd ec5c 98bd 4484 a2bc
00000020: eca9 9d3d c6b3 653b 45a4 b03c b3e0 023c
00000030: dfc0 e83c 7ce0 c93c 31a1 ae3c 77e8 93bd
00000040: 276a 99bd b012 8c39 85ce aa3d 11bb b8bc
00000050: 3a13 6b3d 2bcd 86bd 14bb 18bd 82fe c4bd
00000060: c7db d9bd fd0a c33d ee52 663d cce6 e4bd
00000070: f572 fabd 32ad 03bd ed17 c23c d73d 42bd
00000080: fa75 503d 0147 bfbd 7d8e 863d 22b7 ae3b
00000090: 309f a23d b8b3 a33c a60e bc3d f8fa 353d
000000a0: 9a82 a9ba 854b 0fbd 2c6a 673d c705 d13d
000000b0: 8bf9 9dbd f735 813d 3abc b73d 0996 b13c
000000c0: 9967 b5bb 7f18 a8bd 805f a13d 01d1 f5bc
000000d0: a7b5 143d d502 bf3d a94b 683d 0814 33bd
000000e0: 9c42 d1bd 8d30 853c 7db2 91bd 7ce1 8dbd
000000f0: 387b 1d3d 792b 7cbd 3eed c33d 017a ef3b
00000100: 747f e1bd d944 bb3d 5c55 eabd d80a 94bd
00000110: e04e c1bd e6d5 9a3c d9a8 2f3b 9cec 9c3d
00000120: c076 2cbd 1cb8 293c 1a9b 113c b55a 81bd
00000130: 21f2 9abd e177 8b3d f305 d7bd a979 ce3d
00000140: 3ef8 873d 9d6f d0bd 7fc7 4bbd e7ac 2fbd
00000150: 1ab4 193d 2cc7 0d3d 6e16 03bd 46b3 bdbc
00000160: 3f51 f1bd 0008 0cbd bfd2 c1bd ad4b 40bd
00000170: 8a33 053d 74eb 9f3d 8f1a 84bd 49df 803d
00000180: 0c5a 12bd faa8 bcbd 0711 793d 9a28 92bd
00000190: 2c21 653d 5842 bd3d c799 803d 2f0a 7b3d
000001a0: 7c2c d13d 1c5f 6abc 7934 d6bd 864b e6bd
000001b0: 4d28 d83c ab93 ae3c fc6b 9cbd 1174 953d
000001c0: 1dec c2bd 7c9f 063d 9705 873d 6235 c63c
000001d0: b2a5 6c3d 038b 6abd 32d9 443d 4122 823c
000001e0: c881 643c 584f babd d9df 203c 4984 643d
000001f0: b822 e4bd c5fd 50bd 0f7d 9abd d181 7b3d
00000200: ca17 223d 066c bfbc a3eb 95bc 6c93 c33d
00000210: 2c6a d63a 3f1f 09bc d5ed 573d 685e 5bbd
00000220: fcaf d6bd eb4c 46bc a253 4b3d 219a 8abd
00000230: 0d5c 853d dd2c 753c 447b 82bd 3e0d 38bd
00000240: 386c f03c d5f8 f63b d167 a43d 6237 a33d
00000250: 7382 c6bc ad2c ab3d bbcc 2f3d 0738 6cbd
00000260: 97b1 cbbd a74b 893d 3c75 973d d737 2dbd
00000270: ee44 a1bd ea62 d0bc 23d5 06bd a074 733d
00000280: 51a7 74bb 8b01 9039 888c b5bd ba53 c2bd
00000290: 9cc2 d9bd 4be5 51bc 3afc b13c d830 9ebd
000002a0: 3da4 a53d fdcd bd3d e86a 9e3b add0 d3bd
000002b0: 579a 463d 4bf7 193d be72 9ebc f441 e9bc
000002c0: 0f52 cabd d3a0 a4bc 2762 93bc 1e76 90bd
000002d0: 8b1c 1e3c 5c2e 423d 8e40 0ebd f285 133d
000002e0: 6ddd fd3c 8790 95bd 489f d4bd 8b7b b5bb
000002f0: 9744 453d c3bb 0c3b 283a 8a3d d5f5 e7bd
00000300: 4f58 6e3d e164 2a3d 9e59 9f3c 4b1b 71bd
00000310: 284d 9e3d d1f5 f7bc 40df e2bd c61b ccbd
00000320: d76f 0b3c 670f 193d d439 0e3d 71db c9bc
00000330: 41b2 d8bd 489b 81bd 6668 713d 5e6c 863d
00000340: 972e 2a3d 6543 a2bd f940 8b3d 9725 923b
00000350: eff1 23bd b788 36bd d250 8ebd 9d61 f2bc
00000360: 87ad 693d 300e 573d a3c2 8e3d bf86 f4bc
00000370: 1659 a43d ea2d 2c3c c9b3 163d 9da5 b33d
00000380: 7715 8f3d c29b 3f3d 88c2 893d 4414 95bd
00000390: 0bc9 6dbd f5c2 e53d 8058 8c3d 43d1 86bd
000003a0: 9e74 9f3b e3bb c53d 00ca 8abd cdc4 7b3c
000003b0: 81c8 9d3c 3c5d b4bd 70bb 8bbd f0da be3d
000003c0: 9bc2 cfbd 0650 dfbd c8d8 71bc 0c83 c93d
000003d0: ffb9 17bd f038 55bd eaf9 a9bb c296 a2bd
000003e0: d353 23bd 86a7 953b f90c cabd ab81 c9bd
000003f0: 195c 763d ff08 c0bc 75f8 11bc 268d ad3d

architecture.conv2.bias f4 [20]
0.07456929 0.010582239 0.020466989 -0.06398264 0.00443611 -0.13749802 0.056579668 0.046200715
-0.106573686 0.07056389 0.024889547 -0.100077614 -0.05205787 0.021523682 -0.06636713 0.019350754
-0.041349173 -0.003906753 -0.088512726 -0.002103407
00000000: c9b7 983d 2161 2d3c 63aa a73c 5509 83bd
00000010: ca5c 913b 48cc 0cbe 15c0 673d f63c 3d3d
00000020: 4e43 dabd cd83 903d 2ae5 cb3c 7ef5 ccbd
00000030: a23a 55bd 6f52 b03c 7deb 87bd 7985 9e3c
00000040: c05d 29bd 3804 80bb 2946 b5bd 50d9 09bb

architecture.b2.weight f4 [20]
0.9607041 0.9576561 0.96467274 0.9814947 0.95178014 0.94006383 0.96310645 0.947629
0.9598946 0.9510981 0.9433408 0.9391578 0.9216971 0.9632437 0.9376715 0.97005063
0.94384366 0.94389534 0.9555714 0.93022573
00000000: b4f0 753f f328 753f cbf4 763f 3d43 7b3f
00000010: dda7 733f 06a8 703f 258e 763f d097 723f
00000020: a7bb 753f 2a7b 733f c87e 713f a56c 703f
00000030: 57f4 6b3f 2497 763f 3d0b 703f 3d55 783f
00000040: bd9f 713f 20a3 713f 54a0 743f 4623 6e3f

architecture.b2.bias f4 [20]
-0.0010487409 -0.004907996 0.001694975 0.0024880944 0.002668769 0.004922711 -0.008638978 -0.009788871
-0.0016122775 0.003027002 0.0017613621 6.0747105e-05 0.0022604505 0.0036975027 0.002312606 0.0016382065
-8.360434e-05 0.0008689129 0.0055537177 -0.001168125
00000000: e875 89ba 41d3 a0bb ec29 de3a 4c0f 233b
00000010: 84e6 2e3b b14e a13b 808a 0dbc 8061 20bc
00000020: 0e53 d3ba ab60 463b 81dd e63a b5ca 7e38
00000030: 1124 143b cd51 723b 178f 173b 17b9 d63a
00000040: bd54 afb8 c2c7 633a f6fb b53b c51b 99ba

architecture.b2.running_mean f4 [20]
0.21477653 0.18295804 0.119686484 0.13259917 0.17837666 0.079011805 0.29296044 0.14292754
0.08446518 0.25865543 0.13897112 0.2750419 0.09690062 0.23285286 0.18167686 0.1542393
0.119183175 0.25666672 0.08926447 0.1783081
00000000: 61ee 5b3e 5a59 3b3e 301e f53d 14c8 073e
00000010: 5fa8 363e f1d0 a13d e9fe 953e 995b 123e
00000020: 15fc ac3d 7c6e 843e 724e 0e3e 4bd2 8c3e
00000030: d573 c63d fb70 6e3e 8009 3a3e e8f0 1d3e
00000040: 4f16 f43d d269 833e 4ad0 b63d 6696 363e

architecture.b2.running_var f4 [20]
0.08927096 0.08894467 0.08196854 0.08013358 0.11900026 0.30900928 0.13937342 0.10038575
0.059831303 0.22492236 0.12887289 0.2866527 0.24930243 0.09121969 0.36738628 0.18771337
0.19312316 0.36377987 0.23265706 0.27978158
00000000: b1d3 b63d a028 b63d 1fdf a73d 131d a43d
00000010: 69b6 f33d 7736 9e3e e8b7 0e3e 0b97 cd3d
00000020: ab11 753d 0c52 663e 41f7 033e 25c4 923e
00000030: 2349 7f3e 64d1 ba3d 0e1a bc3e ef37 403e
00000040: 14c2 453e 5b41 ba3e a73d 6e3e 883f 8f3e

architecture.fc1.weight f4 [1, 90480]
0.007407848 0.0054707993 -0.010292872 -0.012814796 -0.0035760778 0.0023842573 -0.003181244 -0.0074414657
-0.0047524 0.005384428 0.0028678472 0.004850935 0.0074738264 0.009939024 0.014689836 -0.001450013
0.00840599 0.013394603 -0.0033032333 0.011609844 0.010869928 0.01657956 0.0023925425 0.0026472092
0.010743084 0.0025139991 0.012399793 0.012706741 0.015552404 0.018036705 0.010395667 0.0025096848
-0.00010302194 0.0077115595 -0.000866548 -0.013648626 -0.015052111 -0.012870352 -0.007123347 -0.00954635
-0.0009978624 -0.003388084 0.0053163692 0.0032958507 -0.0017918731 -0.0035751432 -0.004486276 0.0005486323
0.003495194 -0.004432246 0.0018466798 -0.005321113 -0.0038093147 -0.007984742 0.0027340704 0.002248477
-0.007049528 0.0063216668 0.0048781466 -0.0054289573 -0.00901517 -0.0028639324 -0.009313046 -0.0051371125
0.0027416819 -0.0073243836 0.0022056107 -0.006650043 0.0007057805 -0.007310666 0.0014748368 -0.0036800785
-0.0075869723 0.00043491132 0.007999307 -6.537404e-05 -0.0016923691 0.0018050367 0.0016820267 0.017382866
0.0029236046 0.004712791 0.0041540065 0.0043002865 0.0071826223 0.0013606246 0.0068400833 0.011715204
0.007220457 0.008406299 -0.0010620996 0.0019560521 0.0078036347 -0.004087741 -0.0074371574 -0.0074230777
0.010532172 0.005149703 -0.0022065297 0.0045038895 0.0072040264 0.006275579 0.0068689594 -0.002012689
-0.0092887655 -0.007682187 -0.0047564586 0.0003977365 0.0012630282 -0.0027675272 0.0007217719 0.0021078207
-0.00059905293 0.013254595 0.0026048988 0.0037454362 -0.0058656163 -0.0027839227 -0.017430047 0.00020809138
-0.0005158609 -0.013926254 -0.013236925 -0.017408017 -0.0018090042 -0.005776293 -0.011345378 0.00068518234
-0.0004207533 0.004930214 0.0010957842 0.014165513 0.011740883 0.011961322 -0.005284328 0.001129623
-0.0076476 0.0020631198 0.0029502737 0.0053892545 -0.00080019207 0.00945883 0.012845522 0.012800632
0.0054749083 0.014292637 0.012328316 0.006845561 0.00045672132 0.008178053 0.007318327 -0.0043399986
-0.008179769 -0.005963639 0.014967025 0.010153187 0.005920565 0.007602602 0.009647456 0.0028098268
0.0074024866 0.00039247784 -0.008506893 -0.009976394 -0.00822506 -0.00040776396 -0.0020075862 -0.0018232097
-0.010825783 -0.0019007697 -0.005377931 0.0013497677 -0.0040504723 -0.0053344504 0.0010349645 -0.013524084
-0.014398876 -0.016044017 -0.004375837 -0.010028309 -0.0029264363 -0.014999396 0.0022684005 -0.0013923466
-0.011754559 -0.016821098 0.0004347868 0.0025810734 0.0032401895 0.016432656 0.010878145 0.018636882
-0.0008855479 0.005291055 0.00094351947 -0.0055421265 -0.004189591 0.008705215 0.0050081257 0.005690129
0.0075417105 0.013317862 0.0072301934 0.009529872 0.007448251 0.001544557 -0.004626068 0.009576092
0.01270855 0.002677832 0.00057556236 -0.0057829986 0.015664896 0.008378904 0.014803373 0.01076642
0.00449821 0.01099489 0.00848411 -0.0056811874 -0.004275043 -0.0055062626 -0.00845907 0.0014390062
-0.011754635 0.0020103198 -0.003844392 -0.00042263907 0.0023558855 -0.00585241 -0.006193994 -0.0007348366
-0.0041288966 -0.009669274 -0.01422312 -0.011640881 -0.0040391125 -0.009363612 -0.010344203 -0.003807395
0.0012065574 0.0021826832 -0.0013236917 -0.012512865 -0.013669175 -0.015094594 0.00057970796 0.01103181
0.005636425 0.0075581097 -0.004623145 0.0033864623 -0.0031853782 -0.002896767 0.0026163764 -0.0024076698
00000000: 88bd f23b 6444 b33b 6fa3 28bc 26f5 51bc
00000010: a15c 6abb 3341 1c3b 6b7c 50bb 8ad7 f3bb
00000020: 05ba 9bbb db6f b03b 7ef2 3b3b 98f4 9e3b
00000030: 00e7 f43b 4ad7 223c a3ad 703c 5d0e beba
00000040: 47b9 093c 0975 5b3c 0f7b 58bb 3737 3e3c
00000050: c817 323c dbd1 873c 34cc 1c3b cd7c 2d3b
00000060: c303 303c e8c1 243b 8028 4b3c ef2f 503c
00000070: 83cf 7e3c b6c1 933c 9652 2a3c 8679 243b
00000080: 7c0d d8b8 40b1 fc3b 0d29 63ba 7d9e 5fbc
00000090: 219d 76bc 2bde 52bc f76a e9bb 4b68 1cbc
000000a0: b5ca 82ba 9e0a 5ebb f034 ae3b 33ff 573b
000000b0: 49dd eaba f34c 6abb 9c01 93bb 17d2 0f3a
000000c0: a00f 653b 603c 91bb 4b0c f23a bb5c aebb
000000d0: b2a5 79bb 6fd2 02bc 172e 333b 2f5b 133b
000000e0: baff e6bb fc25 cf3b dcd8 9f3b 65e5 b1bb
000000f0: 5db4 13bc d0b0 3bbb bf95 18bc 3955 a8bb
00000100: caad 333b 6201 f0bb 028c 103b 9be8 d9bb
00000110: 2104 393a 508e efbb 504f c13a 792d 71bb
00000120: 239c f8bb cf04 e439 860f 033c 6c19 89b8
00000130: 7cd2 ddba fb96 ec3a 7377 dc3a 8366 8e3c
00000140: f299 3f3b c26d 9a3b 551e 883b 6be9 8c3b
00000150: 345c eb3b fc56 b23a c722 e03b 21f1 3f3c
00000160: 9599 ec3b 93ba 093c 2636 8bba 1c31 003b
00000170: a2b5 ff3b 75f2 85bb 66b3 f3bb 4a3d f3bb
00000180: 228f 2c3c d7be a83b 6d9b 10bb 5d95 933b
00000190: c10f ec3b 5fa3 cd3b 0215 e13b 51e7 03bb
000001a0: e82f 18bc dbba fbbb 11dc 9bbb 4a87 d039
000001b0: 328c a53a 675f 35bb 4b35 3d3a 5d23 0a3b
000001c0: c309 1dba cd29 593c f3b6 2a3b fe75 753b
000001d0: 5b34 c0bb 7972 36bb 75c9 8ebc 1b33 5a39
000001e0: d73a 07ba f12a 64bc b0df 58bc 429b 8ebc
000001f0: 1c1c edba 0f47 bdbb f7e1 39bc cf9d 333a
00000200: 8d98 dcb9 a28d a13b 6ba0 8f3a 7816 683c
00000210: d55c 403c 6cf9 433c 2828 adbb dc0f 943a
00000220: b898 fabb 6835 073b 6159 413b 5898 b03b
00000230: fbc3 51ba 35f9 1a3c 0676 523c beb9 513c
00000240: dc66 b33b aa2b 6a3c b5fc 493c ba50 e03b
00000250: 1974 ef39 3efd 053c 94ce ef3b 8c36 8ebb
00000260: 7004 06bc a16a c3bb 4138 753c 8e59 263c
00000270: 4d01 c23b 3f1f f93b 5d10 1e3c 1225 383b
00000280: 8f90 f23b 7cc5 cd39 7f60 0bbc 0774 23bc
00000290: 67c2 06bc 27c9 d5b9 b591 03bb c4f8 eeba
000002a0: a05e 31bc 3f23 f9ba 5b39 b0bb b0ea b03a
000002b0: d3b9 84bb 9dcc aebb a5a7 873a 1f94 5dbc
000002c0: 43e9 6bbc be6e 83bc 2e63 8fbb c74d 24bc
000002d0: 74c9 3fbb 07c0 75bc 72a9 143b 667f b6ba
000002e0: 3296 40bc 66cc 89bc 19f4 e339 3a27 293b
000002f0: 5c59 543b c79d 863c 3f3a 323c 60ac 983c
00000300: 1d24 68ba 9660 ad3b 8556 773a ba9a b5bb
00000310: d648 89bb 51a0 0e3c 341b a43b 4374 ba3b
00000320: 7420 f73b 2933 5a3c 42eb ec3b 2e23 1c3c
00000330: 7510 f43b bc72 ca3a 4596 97bb 0ae5 1c3c
00000340: 8637 503c 917e 2f3b 56e1 163a 4f7f bdbb
00000350: ab53 803c ac47 093c d989 723c a365 303c
00000360: b865 933b e923 343c f000 0b3c 4129 babb
00000370: a915 8cbb e16d b4bb e997 0abc 099d bc3a
00000380: 8396 40bc 92bf 033b 32f2 7bbb a895 ddb9
00000390: 3365 1a3b 93c5 bfbb fdf6 cabb 0da2 40ba
000003a0: b24b 87bb e06b 1ebc 1708 69bc 65b9 3ebc
000003b0: 885a 84bb d669 19bc bb7a 29bc 7d85 79bb
000003c0: 5925 9e3a 590b 0f3b b97f adba c202 4dbc
000003d0: adf4 5fbc 514f 77bc 8bf7 173a c4be 343c
000003e0: c3b1 b83b 05aa f73b c07d 97bb 69ef 5d3b
000003f0: c7c1 50bb b0d7 3dbb 8377 2b3b ffc9 1dbb

conv1.weight f4 [10, 3, 3, 3]
-0.1409924 -0.092212595 -0.198754 -0.09036819 -0.077305466 -0.11323369 0.07132154 0.12405506
0.09895639 -0.13815925 -0.07024879 -0.14099601 0.0108013 0.16364369 0.13433917 -0.12500794
0.045621753 0.17760698 0.031917553 0.052953977 -0.17269993 0.089860246 0.1567024 0.08262003
-0.11584617 -0.1229771 0.0043593836 -0.1365139 0.17824425 0.04944443 0.088207185 -0.060725898
-0.1769871 0.054831058 0.06475809 -0.102239594 0.17740917 -0.0047195195 0.05457945 -0.006732011
-0.13157898 -0.16389315 0.11189864 0.06644378 -0.08087903 -0.038301937 -0.11164835 -0.09130697
-0.17515802 -0.09709322 -0.03379753 0.09091587 0.13081494 0.10506076 -0.06770078 -0.11238535
0.12947187 -0.16774838 0.045188624 -0.13213176 -0.07389946 0.02096542 -0.11804547 -0.016767757
0.11991218 0.0742817 0.036590736 -0.12268345 0.04456418 -0.10650281 0.013383668 -0.032682113
0.12639447 0.033666383 -0.05817294 -0.1514263 -0.1695619 0.1310912 -0.073315464 0.053270448
-0.20049278 -0.06984701 -0.07298218 -0.040767804 0.15667842 0.15984075 -0.14142148 0.14533134
0.06730858 -0.17078568 -0.091787286 0.008117354 0.019907894 -0.07421509 -0.03932396 -0.014662859
-0.014819126 -0.06134754 0.008569314 -0.19449657 -0.097769715 0.15966333 -0.03047189 -0.13022867
-0.1576993 -0.1422953 0.10587664 0.059180126 -0.15346429 0.09892231 -0.18079 -0.08717611
-0.010998756 -0.10436866 0.089663 0.1087274 0.016379254 0.1464919 0.1926678 -0.06977712
0.10810429 0.09076362 -0.07999339 -0.13739072 -0.033940494 0.057322405 0.09401899 -0.038825106
0.17920023 0.030919107 -0.14241041 0.13644633 0.012606195 0.16518584 0.0011549606 -0.032993697
-0.15625536 -0.09312863 -0.08900863 -0.18341096 -0.08579396 -0.031129966 0.15626164 -0.04866273
0.08755465 -0.087807596 -0.096194126 -0.13199839 0.15424463 0.042420845 -0.054424416 -0.17810737
0.034984276 0.12479845 0.18599552 0.17890836 0.09103768 0.15854965 0.13653128 -0.07341728
-0.025467768 -0.17634398 -0.08976579 0.14717874 -0.11320587 0.15746589 -0.018058468 -0.18654512
-0.13467918 -0.08181243 0.14400883 -0.16589488 0.05008169 0.04992183 -0.19412035 0.004357183
-0.12740438 -0.0065242955 0.1518067 0.033596117 -0.04468118 0.10453632 0.089523084 -0.1827786
0.07463075 0.15895376 0.025968686 0.047943853 0.18242292 0.16145612 0.12535593 0.12643185
0.11841978 0.027432593 0.034375735 -0.036916044 -0.07728888 0.14011668 0.14582871 -0.18972257
0.069521 -0.17696378 -0.06652844 0.09593134 0.13582207 0.12687805 -0.0878456 0.14384288
0.110568 0.18212177 -0.09150863 0.08422761 0.06516188 -0.06283161 0.1619215 0.04973922
0.0749856 0.17203058 -0.12920794 -0.016293481 -0.046524238 0.07850008 0.08288781 -0.17715746
0.07123503 0.13878876 0.16290678 0.027854206 0.16197863 0.053035147 0.03052852 0.046091687
0.0987911 0.11594472 0.05242749 -0.006511193 0.09531317 0.13266282 -0.06967553 -0.16840486
-0.07396662 -0.041616257 -0.049518906 0.1181277 -0.080613196 -0.1387082 0.13402526 -0.12767278
0.14349456 0.03617766 0.006001855 0.18408415 -0.14743727 -0.1921795 -0.17538626 -0.14009792
00000000: 5060 10be f5d9 bcbd 2b86 4bbe f512 b9bd
00000010: 5452 9ebd 11e7 e7bd 0711 923d 9410 fe3d
00000020: a6a9 ca3d 9e79 0dbe 99de 8fbd 4261 10be
00000030: f0f7 303c 3692 273e 3590 093e 1502 00be
00000040: e0dd 3a3d 9bde 353e fbbb 023d 45e6 583d
00000050: 40d8 30be a608 b83d 9876 203e b134 a93d
00000060: c240 edbd 6bdb fbbd 29d9 8e3b 4dca 0bbe
00000070: a985 363e 3e86 4a3d f8a5 b43d b8bb 78bd
00000080: 1b3c 35be 8896 603d e49f 843d fe62 d1bd
00000090: c0aa 353e 33a6 9abb b48e 5f3d 3498 dcbb
000000a0: a4bc 06be 9bd3 27be 1d2b e53d ad13 883d
000000b0: e8a3 a5bd 7ee2 1cbd e4a7 e4bd 26ff babd
000000c0: a05c 33be cfd8 c6bd 476f 0abd 1a32 ba3d
000000d0: 5af4 053e 192a d73d b5a6 8abd 4a2a e6bd
000000e0: 4694 043e 3bc6 2bbe b517 393d 8c4d 07be
000000f0: 9a58 97bd acbf ab3c d3c1 f1bd 895c 89bc
00000100: 8494 f53d 0121 983d 2be0 153d 7641 fbbd
00000110: ee88 363d 251e dabd 2c47 5b3c aedd 05bd
00000120: 8d6d 013e c3e5 093d c046 6ebd 7f0f 1bbe
00000130: a2a1 2dbe c63c 063e 6b26 96bd 1d32 5a3d
00000140: fb4d 4dbe f30b 8fbd ae77 95bd 24fc 26bd
00000150: 4f70 203e 4bad 233e cbd0 10be bdd1 143e
00000160: 15d9 893d 71e2 2ebe f9fa bbbd a6fe 043c
00000170: e115 a33c 15fe 97bd 2912 21bd 7d3c 70bc
00000180: ebcb 72bc 8f47 7bbd 4f66 0c3c 1c2a 47be
00000190: 7d3b c8bd c97e 233e 2fa0 f9bc aa5a 05be
000001a0: ed7b 21be dcb5 11be dad5 d83d dc66 723d
000001b0: be25 1dbe c897 ca3d 0421 39be 6389 b2bd
000001c0: 2034 34bc 3cbf d5bd 3ca1 b73d 79ac de3d
000001d0: c92d 863c f901 163e b54a 453e 4fe7 8ebd
000001e0: c865 dd3d 47e2 b93d 93d3 a3bd 27b0 0cbe
000001f0: 3005 0bbd e6ca 6a3d 078d c03d 1307 1fbd
00000200: 4480 373e 114a fd3c 09d4 11be 96b8 0b3e
00000210: 378a 4e3c 7a26 293e 0c62 973a 6624 07bd
00000220: 6801 20be 39ba bebd 284a b6bd 15d0 3bbe
00000230: beb4 afbd 4504 ffbc 0d03 203e 9252 47bd
00000240: da4f b33d 78d4 b3bd 6d01 c5bd 962a 07be
00000250: 4ef2 1d3e 7bc1 2d3d 23ec 5ebd c761 36be
00000260: ac4b 0f3d 5496 ff3d 9c75 3e3e c133 373e
00000270: f771 ba3d d75a 223e dbce 0b3e cd5b 96bd
00000280: c8a1 d0bc 8493 34be 20d7 b7bd 06b6 163e
00000290: 7bd8 e7bd bd3e 213e 5aef 93bc af05 3fbe
000002a0: 57e9 09be 468d a7bd 0d77 133e 59e0 29be
000002b0: 7522 4d3d d57a 4c3d 7cc7 46be b3c6 8e3b
000002c0: 4b76 02be c2c9 d5bb 3773 1b3e 159c 093d
000002d0: 9d03 37bd 2317 d63d e157 b73d 502a 3bbe
000002e0: 02d8 983d c6c4 223e 48bc d43c c660 443d
000002f0: 13cd 3a3e c154 253e 4e5d 003e 5a77 013e
00000300: 1286 f23d 51ba e03c 92cd 0c3d 4735 17bd
00000310: a249 9ebd bf7a 0f3e 1f54 153e a246 42be
00000320: 0761 8e3d fe35 35be 1040 88bd a677 c43d
00000330: f114 0b3e 52ec 013e 65e8 b3bd 8c4b 133e
00000340: 7a71 e23d 217e 3a3e e068 bbbd 867f ac3d
00000350: 9773 853d dcad 80bd c0ce 253e 5abb 4b3d
00000360: 0d92 993d c928 303e 164f 04be e879 85bc
00000370: 3390 3ebd a6c4 a03d 16c1 a93d c468 35be
00000380: ace3 913d a41e 0e3e 09d1 263e 812e e43c
00000390: badd 253e 623b 593d f216 fa3c a3ca 3c3d
000003a0: fd52 ca3d 6d74 ed3d 35be 563d d85b d5bb
000003b0: 8d33 c33d c3d8 073e 0bb2 8ebd 5372 2cbe
000003c0: d07b 97bd cf75 2abd 56d4 4abd f0ec f13d
000003d0: 8818 a5bd 8609 0ebe eb3d 093e a7bc 02be
000003e0: 3df0 123e 072f 143d 35ab c43b 8e80 3c3e
000003f0: ccf9 16be b4ca 44be 7598 33be d475 0fbe

conv1.bias f4 [10]
-0.12556249 0.031943254 -0.1529208 0.13161373 0.12890972 -0.05308213 0.10761911 0.0022813673
-0.19271268 0.020374253
00000000: 7493 00be eed6 023d 4597 1cbe c0c5 063e
00000010: e900 043e a66c 59bd 6867 dc3d fe82 153b
00000020: 7956 45be e8e7 a63c

b1.weight f4 [10]
1.0174279 0.97992116 0.9940164 1.0011207 0.98934865 1.0200485 1.0056503 0.99249476
0.9984564 0.9866949
00000000: 143b 823f 1ddc 7a3f dc77 7e3f b924 803f
00000010: f445 7d3f f390 823f 26b9 803f 2314 7e3f
00000020: d79a 7f3f 0998 7c3f

b1.bias f4 [10]
0.0094046295 0.018809738 0.019655345 0.0012070296 0.022295598 -0.0045314464 -0.0027393138 -0.02424157
-0.00858851 -0.0029523526
00000000: e015 1a3c e116 9a3c 3f04 a13c 3135 9e3a
00000010: 42a5 b63c 877c 94bb 0f86 33bb 4296 c6bc
00000020: d2b6 0cbc 427c 41bb

b1.running_mean f4 [10]
0.00015190555 0.0053168773 4.2553766e-06 0.020148534 0.29149815 0.0009641476 0.11693478 0.51058656
0.16117726 0.0024281524
00000000: d648 1f39 3339 ae3b 68c9 8e36 8a0e a53c
00000010: 3f3f 953e dabe 7c3a 807b ef3d cdb5 023f
00000020: a70b 253e a321 1f3b

b1.running_var f4 [10]
2.4587825e-05 0.00026869777 5.936599e-07 0.0016799492 0.014118515 0.00012537507 0.0036098638 0.08448282
0.019580778 0.00015468734
00000000: f441 ce37 01e0 8c39 ff5b 1f35 be31 dc3a
00000010: 5851 673c 1d77 0339 7793 6c3b 5405 ad3d
00000020: de67 a03c 9133 2239

conv2.weight f4 [20, 10, 3, 3]
-0.0030995072 -0.009789618 -0.048803225 -0.062453084 -0.08919878 -0.077576086 -0.074395984 -0.01983846
0.07698426 0.003504978 0.021562705 0.007988143 0.02841228 0.024643175 0.021317096 -0.072220735
-0.0749095 0.00026716804 0.08340172 -0.022550138 0.057391383 -0.065821014 -0.037287787 -0.09618856
-0.10637622 0.0952358 0.05623143 -0.111768335 -0.122289576 -0.032147594 0.02369305 -0.047422256
0.05089376 -0.09339715 0.06570146 0.0053318897 0.07940519 0.019983158 0.091824815 0.044428796
-0.0012932599 -0.03498413 0.056497738 0.1020618 -0.07713612 0.06309121 0.08971448 0.021677988
-0.0055360314 -0.08207797 0.07879543 -0.030006887 0.03630605 0.09326712 0.05671278 -0.043720275
-0.10217783 0.016258502 -0.07114122 -0.06927773 0.03844759 -0.061564896 0.09566735 0.007308245
-0.11010638 0.09143991 -0.11442062 -0.07228631 -0.09438872 0.018900823 0.0026803522 0.07662317
-0.042105436 0.0103588365 0.008887077 -0.06316129 -0.07565714 0.068099745 -0.104991816 0.100817986
0.06639145 -0.101775385 -0.0497508 -0.042889502 0.037525274 0.034613773 -0.032003812 -0.023156773
-0.117830746 -0.034187317 -0.09464025 -0.04694717 0.032519855 0.07808581 -0.06450378 0.06292588
-0.035730407 -0.09211917 0.060807254 -0.071366504 0.05593984 0.0924117 0.06279331 0.06128901
0.10213563 -0.014304902 -0.10459227 -0.11244874 0.026386404 0.021310648 -0.07637784 0.072975285
-0.09517691 0.03286694 0.06592863 0.024195377 0.057775207 -0.05726148 0.048058696 0.015885474
0.013946958 -0.09097165 0.009818994 0.05579022 -0.111394346 -0.051023263 -0.07543384 0.0614031
0.03957347 -0.02336694 -0.018300837 0.09549603 0.0016358546 -0.008369266 0.05271705 -0.05355683
-0.10482785 -0.0121033 0.049640305 -0.06767679 0.06511698 0.0149643095 -0.06371167 -0.044934504
0.029348478 0.0075369873 0.08027614 0.07969548 -0.024232125 0.083581306 0.042919856 -0.05767062
-0.09945982 0.06703883 0.073954076 -0.04228958 -0.078744754 -0.02543779 -0.032918107 0.059437394
-0.0037331174 0.0002746697 -0.08864695 -0.09488626 -0.10632822 -0.012811015 0.021726716 -0.0772416
0.080879666 0.09267805 0.0048345216 -0.10342536 0.048487034 0.037589353 -0.019341823 -0.028473832
-0.09878933 -0.020096218 -0.017991139 -0.07053779 0.00965036 0.047407493 -0.034729533 0.036016412
0.030989373 -0.07302957 -0.10381943 -0.005538409 0.048161115 0.002147422 0.06749374 -0.113261856
0.058189686 0.041600112 0.019451912 -0.05886392 0.0772956 -0.030268582 -0.11077738 -0.09966235
0.008510551 0.037368204 0.034723118 -0.02464077 -0.10580874 -0.06328446 0.058937453 0.06563638
0.041548338 -0.07923011 0.06799502 0.0044600475 -0.040025648 -0.044563975 -0.06949009 -0.029587561
0.057050254 0.052503765 0.06970718 -0.029849408 0.08024804 0.010508994 0.03679255 0.087718226
0.06986516 0.0467794 0.06726557 -0.07279256 -0.058053058 0.11218826 0.068528175 -0.06582882
0.004866197 0.09654977 -0.0677681 0.015366745 0.019260647 -0.088068455 -0.0682286 0.09319103
-0.1014454 -0.10903935 -0.014761157 0.09839448 -0.037042614 -0.052056253 -0.005187263 -0.07938911
-0.039874863 0.0045670895 -0.098657556 -0.09839185 0.060146425 -0.02344179 -0.008909334 0.084741876
00000000: 1a21 4bbb a264 20bc e4e5 47bd cece 7fbd
00000010: daad b6bd 36e0 9ebd ec5c 98bd 4484 a2bc
00000020: eca9 9d3d c6b3 653b 45a4 b03c b3e0 023c
00000030: dfc0 e83c 7ce0 c93c 31a1 ae3c 77e8 93bd
00000040: 276a 99bd b012 8c39 85ce aa3d 11bb b8bc
00000050: 3a13 6b3d 2bcd 86bd 14bb 18bd 82fe c4bd
00000060: c7db d9bd fd0a c33d ee52 663d cce6 e4bd
00000070: f572 fabd 32ad 03bd ed17 c23c d73d 42bd
00000080: fa75 503d 0147 bfbd 7d8e 863d 22b7 ae3b
00000090: 309f a23d b8b3 a33c a60e bc3d f8fa 353d
000000a0: 9a82 a9ba 854b 0fbd 2c6a 673d c705 d13d
000000b0: 8bf9 9dbd f735 813d 3abc b73d 0996 b13c
000000c0: 9967 b5bb 7f18 a8bd 805f a13d 01d1 f5bc
000000d0: a7b5 143d d502 bf3d a94b 683d 0814 33bd
000000e0: 9c42 d1bd 8d30 853c 7db2 91bd 7ce1 8dbd
000000f0: 387b 1d3d 792b 7cbd 3eed c33d 017a ef3b
00000100: 747f e1bd d944 bb3d 5c55 eabd d80a 94bd
00000110: e04e c1bd e6d5 9a3c d9a8 2f3b 9cec 9c3d
00000120: c076 2cbd 1cb8 293c 1a9b 113c b55a 81bd
00000130: 21f2 9abd e177 8b3d f305 d7bd a979 ce3d
00000140: 3ef8 873d 9d6f d0bd 7fc7 4bbd e7ac 2fbd
00000150: 1ab4 193d 2cc7 0d3d 6e16 03bd 46b3 bdbc
00000160: 3f51 f1bd 0008 0cbd bfd2 c1bd ad4b 40bd
00000170: 8a33 053d 74eb 9f3d 8f1a 84bd 49df 803d
00000180: 0c5a 12bd faa8 bcbd 0711 793d 9a28 92bd
00000190: 2c21 653d 5842 bd3d c799 803d 2f0a 7b3d
000001a0: 7c2c d13d 1c5f 6abc 7934 d6bd 864b e6bd
000001b0: 4d28 d83c ab93 ae3c fc6b 9cbd 1174 953d
000001c0: 1dec c2bd 7c9f 063d 9705 873d 6235 c63c
000001d0: b2a5 6c3d 038b 6abd 32d9 443d 4122 823c
000001e0: c881 643c 584f babd d9df 203c 4984 643d
000001f0: b822 e4bd c5fd 50bd 0f7d 9abd d181 7b3d
00000200: ca17 223d 066c bfbc a3eb 95bc 6c93 c33d
00000210: 2c6a d63a 3f1f 09bc d5ed 573d 685e 5bbd
00000220: fcaf d6bd eb4c 46bc a253 4b3d 219a 8abd
00000230: 0d5c 853d dd2c 753c 447b 82bd 3e0d 38bd
00000240: 386c f03c d5f8 f63b d167 a43d 6237 a33d
00000250: 7382 c6bc ad2c ab3d bbcc 2f3d 0738 6cbd
00000260: 97b1 cbbd a74b 893d 3c75 973d d737 2dbd
00000270: ee44 a1bd ea62 d0bc 23d5 06bd a074 733d
00000280: 51a7 74bb 8b01 9039 888c b5bd ba53 c2bd
00000290: 9cc2 d9bd 4be5 51bc 3afc b13c d830 9ebd
000002a0: 3da4 a53d fdcd bd3d e86a 9e3b add0 d3bd
000002b0: 579a 463d 4bf7 193d be72 9ebc f441 e9bc
000002c0: 0f52 cabd d3a0 a4bc 2762 93bc 1e76 90bd
000002d0: 8b1c 1e3c 5c2e 423d 8e40 0ebd f285 133d
000002e0: 6ddd fd3c 8790 95bd 489f d4bd 8b7b b5bb
000002f0: 9744 453d c3bb 0c3b 283a 8a3d d5f5 e7bd
00000300: 4f58 6e3d e164 2a3d 9e59 9f3c 4b1b 71bd
00000310: 284d 9e3d d1f5 f7bc 40df e2bd c61b ccbd
00000320: d76f 0b3c 670f 193d d439 0e3d 71db c9bc
00000330: 41b2 d8bd 489b 81bd 6668 713d 5e6c 863d
00000340: 972e 2a3d 6543 a2bd f940 8b3d 9725 923b
00000350: eff1 23bd b788 36bd d250 8ebd 9d61 f2bc
00000360: 87ad 693d 300e 573d a3c2 8e3d bf86 f4bc
00000370: 1659 a43d ea2d 2c3c c9b3 163d 9da5 b33d
00000380: 7715 8f3d c29b 3f3d 88c2 893d 4414 95bd
00000390: 0bc9 6dbd f5c2 e53d 8058 8c3d 43d1 86bd
000003a0: 9e74 9f3b e3bb c53d 00ca 8abd cdc4 7b3c
000003b0: 81c8 9d3c 3c5d b4bd 70bb 8bbd f0da be3d
000003c0: 9bc2 cfbd 0650 dfbd c8d8 71bc 0c83 c93d
000003d0: ffb9 17bd f038 55bd eaf9 a9bb c296 a2bd
000003e0: d353 23bd 86a7 953b f90c cabd ab81 c9bd
000003f0: 195c 763d ff08 c0bc 75f8 11bc 268d ad3d

conv2.bias f4 [20]
0.07456929 0.010582239 0.020466989 -0.06398264 0.00443611 -0.13749802 0.056579668 0.046200715
-0.106573686 0.07056389 0.024889547 -0.100077614 -0.05205787 0.021523682 -0.06636713 0.019350754
-0.041349173 -0.003906753 -0.088512726 -0.002103407
00000000: c9b7 983d 2161 2d3c 63aa a73c 5509 83bd
00000010: ca5c 913b 48cc 0cbe 15c0 673d f63c 3d3d
00000020: 4e43 dabd cd83 903d 2ae5 cb3c 7ef5 ccbd
00000030: a23a 55bd 6f52 b03c 7deb 87bd 7985 9e3c
00000040: c05d 29bd 3804 80bb 2946 b5bd 50d9 09bb

b2.weight f4 [20]
0.9607041 0.9576561 0.96467274 0.9814947 0.95178014 0.94006383 0.96310645 0.947629
0.9598946 0.9510981 0.9433408 0.9391578 0.9216971 0.9632437 0.9376715 0.97005063
0.94384366 0.94389534 0.9555714 0.93022573
00000000: b4f0 753f f328 753f cbf4 763f 3d43 7b3f
00000010: dda7 733f 06a8 703f 258e 763f d097 723f
00000020: a7bb 753f 2a7b 733f c87e 713f a56c 703f
00000030: 57f4 6b3f 2497 763f 3d0b 703f 3d55 783f
00000040: bd9f 713f 20a3 713f 54a0 743f 4623 6e3f

b2.bias f4 [20]
-0.0010487409 -0.004907996 0.001694975 0.0024880944 0.002668769 0.004922711 -0.008638978 -0.009788871
-0.0016122775 0.003027002 0.0017613621 6.0747105e-05 0.0022604505 0.0036975027 0.002312606 0.0016382065
-8.360434e-05 0.0008689129 0.0055537177 -0.001168125
00000000: e875 89ba 41d3 a0bb ec29 de3a 4c0f 233b
00000010: 84e6 2e3b b14e a13b 808a 0dbc 8061 20bc
00000020: 0e53 d3ba ab60 463b 81dd e63a b5ca 7e38
00000030: 1124 143b cd51 723b 178f 173b 17b9 d63a
00000040: bd54 afb8 c2c7 633a f6fb b53b c51b 99ba

b2.running_mean f4 [20]
0.21477653 0.18295804 0.119686484 0.13259917 0.17837666 0.079011805 0.29296044 0.14292754
0.08446518 0.25865543 0.13897112 0.2750419 0.09690062 0.23285286 0.18167686 0.1542393
0.119183175 0.25666672 0.08926447 0.1783081
00000000: 61ee 5b3e 5a59 3b3e 301e f53d 14c8 073e
00000010: 5fa8 363e f1d0 a13d e9fe 953e 995b 123e
00000020: 15fc ac3d 7c6e 843e 724e 0e3e 4bd2 8c3e
00000030: d573 c63d fb70 6e3e 8009 3a3e e8f0 1d3e
00000040: 4f16 f43d d269 833e 4ad0 b63d 6696 363e

b2.running_var f4 [20]
0.08927096 0.08894467 0.08196854 0.08013358 0.11900026 0.30900928 0.13937342 0.10038575
0.059831303 0.22492236 0.12887289 0.2866527 0.24930243 0.09121969 0.36738628 0.18771337
0.19312316 0.36377987 0.23265706 0.27978158
00000000: b1d3 b63d a028 b63d 1fdf a73d 131d a43d
00000010: 69b6 f33d 7736 9e3e e8b7 0e3e 0b97 cd3d
00000020: ab11 753d 0c52 663e 41f7 033e 25c4 923e
00000030: 2349 7f3e 64d1 ba3d 0e1a bc3e ef37 403e
00000040: 14c2 453e 5b41 ba3e a73d 6e3e 883f 8f3e

fc1.weight f4 [1, 90480]
0.007407848 0.0054707993 -0.010292872 -0.012814796 -0.0035760778 0.0023842573 -0.003181244 -0.0074414657
-0.0047524 0.005384428 0.0028678472 0.004850935 0.0074738264 0.009939024 0.014689836 -0.001450013
0.00840599 0.013394603 -0.0033032333 0.011609844 0.010869928 0.01657956 0.0023925425 0.0026472092
0.010743084 0.0025139991 0.012399793 0.012706741 0.015552404 0.018036705 0.010395667 0.0025096848
-0.00010302194 0.0077115595 -0.000866548 -0.013648626 -0.015052111 -0.012870352 -0.007123347 -0.00954635
-0.0009978624 -0.003388084 0.0053163692 0.0032958507 -0.0017918731 -0.0035751432 -0.004486276 0.0005486323
0.003495194 -0.004432246 0.0018466798 -0.005321113 -0.0038093147 -0.007984742 0.0027340704 0.002248477
-0.007049528 0.0063216668 0.0048781466 -0.0054289573 -0.00901517 -0.0028639324 -0.009313046 -0.0051371125
0.0027416819 -0.0073243836 0.0022056107 -0.006650043 0.0007057805 -0.007310666 0.0014748368 -0.0036800785
-0.0075869723 0.00043491132 0.007999307 -6.537404e-05 -0.0016923691 0.0018050367 0.0016820267 0.017382866
0.0029236046 0.004712791 0.0041540065 0.0043002865 0.0071826223 0.0013606246 0.0068400833 0.011715204
0.007220457 0.008406299 -0.0010620996 0.0019560521 0.0078036347 -0.004087741 -0.0074371574 -0.0074230777
0.010532172 0.005149703 -0.0022065297 0.0045038895 0.0072040264 0.006275579 0.0068689594 -0.002012689
-0.0092887655 -0.007682187 -0.0047564586 0.0003977365 0.0012630282 -0.0027675272 0.0007217719 0.0021078207
-0.00059905293 0.013254595 0.0026048988 0.0037454362 -0.0058656163 -0.0027839227 -0.017430047 0.00020809138
-0.0005158609 -0.013926254 -0.013236925 -0.017408017 -0.0018090042 -0.005776293 -0.011345378 0.00068518234
-0.0004207533 0.004930214 0.0010957842 0.014165513 0.011740883 0.011961322 -0.005284328 0.001129623
-0.0076476 0.0020631198 0.0029502737 0.0053892545 -0.00080019207 0.00945883 0.012845522 0.012800632
0.0054749083 0.014292637 0.012328316 0.006845561 0.00045672132 0.008178053 0.007318327 -0.0043399986
-0.008179769 -0.005963639 0.014967025 0.010153187 0.005920565 0.007602602 0.009647456 0.0028098268
0.0074024866 0.00039247784 -0.008506893 -0.009976394 -0.00822506 -0.00040776396 -0.0020075862 -0.0018232097
-0.010825783 -0.0019007697 -0.005377931 0.0013497677 -0.0040504723 -0.0053344504 0.0010349645 -0.013524084
-0.014398876 -0.016044017 -0.004375837 -0.010028309 -0.0029264363 -0.014999396 0.0022684005 -0.0013923466
-0.011754559 -0.016821098 0.0004347868 0.0025810734 0.0032401895 0.016432656 0.010878145 0.018636882
-0.0008855479 0.005291055 0.00094351947 -0.0055421265 -0.004189591 0.008705215 0.0050081257 0.005690129
0.0075417105 0.013317862 0.0072301934 0.009529872 0.007448251 0.001544557 -0.004626068 0.009576092
0.01270855 0.002677832 0.00057556236 -0.0057829986 0.015664896 0.008378904 0.014803373 0.01076642
0.00449821 0.01099489 0.00848411 -0.0056811874 -0.004275043 -0.0055062626 -0.00845907 0.0014390062
-0.011754635 0.0020103198 -0.003844392 -0.00042263907 0.0023558855 -0.00585241 -0.006193994 -0.0007348366
-0.0041288966 -0.009669274 -0.01422312 -0.011640881 -0.0040391125 -0.009363612 -0.010344203 -0.003807395
0.0012065574 0.0021826832 -0.0013236917 -0.012512865 -0.013669175 -0.015094594 0.00057970796 0.01103181
0.005636425 0.0075581097 -0.004623145 0.0033864623 -0.0031853782 -0.002896767 0.0026163764 -0.0024076698
00000000: 88bd f23b 6444 b33b 6fa3 28bc 26f5 51bc
00000010: a15c 6abb 3341 1c3b 6b7c 50bb 8ad7 f3bb
00000020: 05ba 9bbb db6f b03b 7ef2 3b3b 98f4 9e3b
00000030: 00e7 f43b 4ad7 223c a3ad 703c 5d0e beba
00000040: 47b9 093c 0975 5b3c 0f7b 58bb 3737 3e3c
00000050: c817 323c dbd1 873c 34cc 1c3b cd7c 2d3b
00000060: c303 303c e8c1 243b 8028 4b3c ef2f 503c
00000070: 83cf 7e3c b6c1 933c 9652 2a3c 8679 243b
00000080: 7c0d d8b8 40b1 fc3b 0d29 63ba 7d9e 5fbc
00000090: 219d 76bc 2bde 52bc f76a e9bb 4b68 1cbc
000000a0: b5ca 82ba 9e0a 5ebb f034 ae3b 33ff 573b
000000b0: 49dd eaba f34c 6abb 9c01 93bb 17d2 0f3a
000000c0: a00f 653b 603c 91bb 4b0c f23a bb5c aebb
000000d0: b2a5 79bb 6fd2 02bc 172e 333b 2f5b 133b
000000e0: baff e6bb fc25 cf3b dcd8 9f3b 65e5 b1bb
000000f0: 5db4 13bc d0b0 3bbb bf95 18bc 3955 a8bb
00000100: caad 333b 6201 f0bb 028c 103b 9be8 d9bb
00000110: 2104 393a 508e efbb 504f c13a 792d 71bb
00000120: 239c f8bb cf04 e439 860f 033c 6c19 89b8
00000130: 7cd2 ddba fb96 ec3a 7377 dc3a 8366 8e3c
00000140: f299 3f3b c26d 9a3b 551e 883b 6be9 8c3b
00000150: 345c eb3b fc56 b23a c722 e03b 21f1 3f3c
00000160: 9599 ec3b 93ba 093c 2636 8bba 1c31 003b
00000170: a2b5 ff3b 75f2 85bb 66b3 f3bb 4a3d f3bb
00000180: 228f 2c3c d7be a83b 6d9b 10bb 5d95 933b
00000190: c10f ec3b 5fa3 cd3b 0215 e13b 51e7 03bb
000001a0: e82f 18bc dbba fbbb 11dc 9bbb 4a87 d039
000001b0: 328c a53a 675f 35bb 4b35 3d3a 5d23 0a3b
000001c0: c309 1dba cd29 593c f3b6 2a3b fe75 753b
000001d0: 5b34 c0bb 7972 36bb 75c9 8ebc 1b33 5a39
000001e0: d73a 07ba f12a 64bc b0df 58bc 429b 8ebc
000001f0: 1c1c edba 0f47 bdbb f7e1 39bc cf9d 333a
00000200: 8d98 dcb9 a28d a13b 6ba0 8f3a 7816 683c
00000210: d55c 403c 6cf9 433c 2828 adbb dc0f 943a
00000220: b898 fabb 6835 073b 6159 413b 5898 b03b
00000230: fbc3 51ba 35f9 1a3c 0676 523c beb9 513c
00000240: dc66 b33b aa2b 6a3c b5fc 493c ba50 e03b
00000250: 1974 ef39 3efd 053c 94ce ef3b 8c36 8ebb
00000260: 7004 06bc a16a c3bb 4138 753c 8e59 263c
00000270: 4d01 c23b 3f1f f93b 5d10 1e3c 1225 383b
00000280: 8f90 f23b 7cc5 cd39 7f60 0bbc 0774 23bc
00000290: 67c2 06bc 27c9 d5b9 b591 03bb c4f8 eeba
000002a0: a05e 31bc 3f23 f9ba 5b39 b0bb b0ea b03a
000002b0: d3b9 84bb 9dcc aebb a5a7 873a 1f94 5dbc
000002c0: 43e9 6bbc be6e 83bc 2e63 8fbb c74d 24bc
000002d0: 74c9 3fbb 07c0 75bc 72a9 143b 667f b6ba
000002e0: 3296 40bc 66cc 89bc 19f4 e339 3a27 293b
000002f0: 5c59 543b c79d 863c 3f3a 323c 60ac 983c
00000300: 1d24 68ba 9660 ad3b 8556 773a ba9a b5bb
00000310: d648 89bb 51a0 0e3c 341b a43b 4374 ba3b
00000320: 7420 f73b 2933 5a3c 42eb ec3b 2e23 1c3c
00000330: 7510 f43b bc72 ca3a 4596 97bb 0ae5 1c3c
00000340: 8637 503c 917e 2f3b 56e1 163a 4f7f bdbb
00000350: ab53 803c ac47 093c d989 723c a365 303c
00000360: b865 933b e923 343c f000 0b3c 4129 babb
00000370: a915 8cbb e16d b4bb e997 0abc 099d bc3a
00000380: 8396 40bc 92bf 033b 32f2 7bbb a895 ddb9
00000390: 3365 1a3b 93c5 bfbb fdf6 cabb 0da2 40ba
000003a0: b24b 87bb e06b 1ebc 1708 69bc 65b9 3ebc
000003b0: 885a 84bb d669 19bc bb7a 29bc 7d85 79bb
000003c0: 5925 9e3a 590b 0f3b b97f adba c202 4dbc
000003d0: adf4 5fbc 514f 77bc 8bf7 173a c4be 343c
000003e0: c3b1 b83b 05aa f73b c07d 97bb 69ef 5d3b
000003f0: c7c1 50bb b0d7 3dbb 8377 2b3b ffc9 1dbb
