dev_code/playground/lightning_test/lightning_cnn_mnist.pt (torch, 215879 bytes, 16 tensors)

architecture.conv1.weight f4 [10, 1, 3, 3]
00000000: add9 143e a711 bbbc 8843 ddbe 6126 043f
00000010: 1d2b 56be 64d3 47bf 5ac8 843e 8d9a e83e
00000020: 4bef 023e 60a4 7cbf 3faf 9dbe 491d aa3e
00000030: a587 a0be 42cf d23d 6c57 cb3e fe32 81bf
00000040: 723d 83be dcbd 493e 7c4b 4bbd cd82 3bbe
00000050: 1418 89bf 609e 8e3e a82d 3fbf f893 c4be
00000060: 9c9b 883e bb53 073e ad2c 723e fa51 2abe
00000070: 94f2 80be ff24 c33d 6455 b23e 341d 603e
00000080: f27b 883d 18b2 01bf c539 4bbf a801 43be
00000090: 9036 a83d 1e0e e03e a057 db3e 2285 c6be
000000a0: 2eae 9ebd 5542 663e 7fc7 38bf e95a 57bf
000000b0: 4549 45bf 606a 95be 850c 6abf d7fc aebf
000000c0: 7424 48be 45c2 90bf e9b1 ac3d 8f9b afbf
000000d0: a556 07bf 593d 143f c365 953d 2530 e4be
000000e0: e7f5 efbc 346b 433e 4ade a8be 7eb7 213e
000000f0: 5870 35be 10a0 4c3d 2661 c6bd 6f64 78bf
00000100: 3bd0 3cbf ce47 27bf 3b57 f4bd 9882 d4be
00000110: e69b 97be 186b b63e e947 443e 1b0a 003f
00000120: 90ca 083f 7cb0 9d3e ed32 b5be 6803 aabd
00000130: 9397 9fbd 0254 5dbf 4f4e 0cbf 3c1d aebf
00000140: 3c42 84bd 069a 74bf d341 af3d e475 f03e
00000150: 8027 e3bd 4b52 5d3f 0e26 59be 80d0 be3e
00000160: 7179 4dbe f1da 3abf
0.14536162 -0.022835566 -0.43215585 0.5162106 -0.20914884 -0.7805693 0.25934106 0.45430413
0.12786596 -0.98688316 -0.30797765 0.33225468 -0.3135349 0.102934375 0.39715135 -1.0093687
-0.25632817 0.19701332 -0.049632534 -0.18311615 -1.0710473 0.27855206 -0.7467904 -0.3839414
0.2668122 0.13215534 0.23649855 -0.16632834 -0.25185072 0.09528541 0.34830773 0.2188614
0.06664266 -0.50662374 -0.79385024 -0.190436 0.08213532 0.4376077 0.4284029 -0.38773447
-0.07748066 0.22486241 -0.72179407 -0.8412309 -0.77064925 -0.2918272 -0.91425353 -1.3670911
-0.19545156 -1.1309286 0.08432371 -1.3719348 -0.52866584 0.5790611 0.072948 -0.4456798
-0.02929206 0.19083863 -0.32982093 0.15792653 -0.17718637 0.049957335 -0.09686498 -0.9702825
-0.73755234 -0.6534394 -0.119307004 -0.41505885 -0.2961113 0.3562858 0.19168057 0.5001542
0.53434086 0.3079871 -0.35390416 -0.08301431 -0.07792582 -0.8645631 -0.5480699 -1.3602672
-0.06457946 -0.9554752 0.08557477 0.46964943 -0.110915184 0.86453694 -0.21205923 0.37268448
-0.20065857 -0.7299033

architecture.conv1.bias f4 [10]
00000000: 5503 d3be d610 97be 41ef 72bf 70a2 18bf
00000010: 18d7 cdbd fd02 57bd 98f1 8fbe 508c 5fbd
00000020: 2709 e5bd f501 3abf
-0.4121348 -0.29505032 -0.9489632 -0.5962286 -0.100507915 -0.052493084 -0.2811401 -0.05457717
-0.11183386 -0.72659236

architecture.conv2.weight f4 [20, 10, 3, 3]
00000000: 3a7e 093d 6d8b 66be 8ad0 833e acd1 d3bf
00000010: 884d 493e b0c8 eb3e 6142 973e ebe8 0c3d
00000020: 4746 823e 98fd aabe c2c9 52be ef98 d8bf
00000030: e8b7 38bf 2807 0bc0 c056 9fbf 806d a8bf
00000040: 9656 21bf 9c01 9fbf 1b6d c03d 2a96 6ebe
00000050: bc93 8f3e 2c9e 86bf 1290 34bf 6f5a a93e
00000060: 1c3d e13e 96e1 d53e c3d3 c63d 64fe 40bd
00000070: b980 a8bd a7d3 a83e 41ab cbbe d522 793e
00000080: a608 2f3e 14df c03e 79e3 acbd 27a8 46be
00000090: 331b 153f 48a6 d6bf ab08 523e 01a3 c2bf
000000a0: 964d f7bc 57fe 2b3f f7aa 993e 7dab 7c3e
000000b0: 9598 adbe 5afb 8a3e 246a b4be 2ebf 49bf
000000c0: f4ee 3c3e 981b 35bf e523 17bf c384 88bf
000000d0: 69d0 92bf 04e6 8bbf 7c98 dc3d 0eb0 9c3d
000000e0: 953c 39bc c691 933d 1975 d1bc 20e0 42bd
000000f0: fa77 30bc 7e34 9fbd f604 73bd ce09 153f
00000100: 7453 94be 3349 b6bf 5cbc 073f f411 09c0
00000110: f95e 43bf 8a92 f6bf cbca 293f 09cc ef3d
00000120: 45b8 78be c507 09be 10c1 b23e 88ca 6cbf
00000130: ef68 303e 5aa9 643f 2136 0b3f 8835 473e
00000140: 1ff0 84bf b022 38be 3213 ae3e ddd2 093f
00000150: ce25 8b3e 2e5e 5e3e 19a8 12bf a462 7cbe
00000160: e9b4 85bf 70ae 8cbf 7e0b 7abe a043 933f
00000170: 5482 583c 2465 713f ca79 8e3e 68aa 5cbf
00000180: fe08 8cbf 4ab5 c0bf 4c7c d9be 225c f13e
00000190: 1b53 c9be 4fb6 713f c974 81bd b61b 98bf
000001a0: e2d5 08bf de42 d1be afdc 9fbf 14a1 68bf
000001b0: 2306 08bf 0c54 453f af70 80bd 7aa0 7d3e
000001c0: 05e6 2f3f 415d 13bf cd94 193e 9bcf 44be
000001d0: 74dc 3abf b7cd 71bd 7134 203e f9ca a13e
000001e0: 4fa2 90be 1be0 e03a 0537 033e aad8 63be
000001f0: 8786 7e3c a163 423e ef41 47bf b2ff c93e
00000200: 1f4d b23d d9cf acbe c241 2ebf 2b83 2ebf
00000210: 4d74 8a3e 93cf ab3d ac2c 363d 0ab9 8b3d
00000220: 1151 63bd b31c 78be ffbb d0bf ee4d ddbf
00000230: d1ba 11bf 7749 12bf 4d14 83bf 0eef 9abf
00000240: cb96 cb3c 81ea 92bd ff87 b03d 0fb7 8bbc
00000250: 9d33 883e fa98 2f3e ad44 f23d 4f23 5a3d
00000260: 890f d43d 08e7 03bf 7f79 40bf cea7 023f
00000270: 791b 6cbf f27e 033f c1c5 233f 857b 8fbf
00000280: 667f b93e 03e9 7e3d c1cd 3abf 615e 0f3f
00000290: e529 e7be a553 37bf 6e00 0cc0 5354 823e
000002a0: 4147 d0be b332 37be 1e88 4c3f 3baa ba3e
000002b0: 2689 3d3e 0760 a63e 8c40 e0be 9d31 b7bd
000002c0: 0237 0a3f 4562 6f3d e42e dabe 567d 323e
000002d0: d14b 1a3d 431f 9c3f 603f ecbe c5a7 84bf
000002e0: 6591 18b9 36d4 b43e 3b9c 21bf 842c 35bf
000002f0: 541b 78be 067e 45bf 6c89 24bf 5d7b 9f3f
00000300: b648 0abf 51ef 5fbe 10cb 04c0 19a4 a63d
00000310: 7ede 9f3c b99a 80bf ee78 0cbf e5fc 703f
00000320: 7d9e 52bd ced4 1dbf 0881 353e b0c6 1cbe
00000330: bbf5 2d3f d5af 94bf 1542 1bbf 87d1 133e
00000340: 7a9a 00bf ca4b 24be cc93 623e e426 cebe
00000350: 4e66 02bf cab0 d43e 5ca1 c73e db9b 993d
00000360: 3bce 32bd 1e93 1bbf 5f9a 9fbe 76b1 763e
00000370: b439 a8be abac 0ec0 24d9 44bf 60b0 8dbf
00000380: 9fe7 1abf 7881 7bbf e8de 06bf 0a83 b1bd
00000390: 025a 02c0 22e7 ebbf 607a 9bbf 91fe dcbe
000003a0: d3a9 43bf fff8 bfbf fe08 323d a599 8abd
000003b0: db37 b7bd d558 32bc 9cad 853d 7b2a b2bd
000003c0: 71c7 30ba a665 863d 6c4b 2c3d 737d 533e
000003d0: a6c5 9f3e 636d 543f 7785 52bf 6632 30bf
000003e0: 67ea 943c cc97 0f3e af2b a13e 9c3d 9cbf
000003f0: c8c2 a2be 6060 d8bd f7de c23d 45d6 9cbe
0.033567645 -0.22514124 0.2574504 -1.6548362 0.19658482 0.4605155 0.2954283 0.034401815
0.25444242 -0.33396602 -0.20584777 -1.6921672 -0.7215562 -2.1723118 -1.2448349 -1.3158417
-0.63022745 -1.2422366 0.0939581 -0.2329947 0.280424 -1.051702 -0.70532334 0.33076808
0.43991935 0.4177367 0.09708359 -0.047117606 -0.08227677 0.32973978 -0.39779094 0.24329694
0.17093143 0.37670195 -0.084418245 -0.19400083 0.5824463 -1.6769495 0.20511119 -1.5205995
-0.030188363 0.67184967 0.30013248 0.24674793 -0.33905473 0.2714489 -0.3523723 -0.7880734
0.18450528 -0.7074523 -0.59039146 -1.0665516 -1.1469852 -1.092957 0.107712716 0.07650767
-0.011305948 0.072055385 -0.025568532 -0.047577024 -0.010770792 -0.07773684 -0.059330903 0.58218086
-0.2896992 -1.4241089 0.5302179 -2.1417208 -0.7631679 -1.926347 0.6632506 0.117088385
-0.24289043 -0.1338187 0.3491292 -0.9249654 0.17227529 0.8932091 0.5437947 0.19454014
-1.0385779 -0.17981982 0.3399902 0.53837377 0.2717728 0.21715614 -0.57287747 -0.24647003
-1.0445834 -1.0990734 -0.24418446 1.1505013 0.013214666 0.94294953 0.27827293 -0.8619752
-1.0940244 -1.5055325 -0.42477643 0.47140604 -0.39321217 0.94418806 -0.06321103 -1.1883457
-0.5345136 -0.40871328 -1.2489222 -0.90870786 -0.53134364 0.7708137 -0.06271493 0.24768248
0.68710357 -0.5756417 0.14998169 -0.1921982 -0.72992635 -0.059034076 0.15645005 0.31600168
-0.28248832 0.0017156632 0.12813957 -0.2225062 0.0155350035 0.18983318 -0.7783498 0.39452893
0.08706116 -0.33752325 -0.6806909 -0.68168896 0.27041855 0.08389201 0.044476196 0.06822403
-0.055497233 -0.24229698 -1.6307372 -1.7289407 -0.56925684 -0.5714335 -1.024057 -1.2104204
0.024852177 -0.07173634 0.08619689 -0.017055063 0.26601878 0.171482 0.11829505 0.05325633
0.103545256 -0.515244 -0.7518539 0.510373 -0.9222942 0.5136558 0.63973624 -1.120957
0.3623001 0.062233936 -0.72970206 0.56003386 -0.4514915 -0.71612006 -2.1875262 0.2545496
-0.40679362 -0.17890434 0.798952 0.36458 0.18509349 0.32495138 -0.43799245 -0.0894501
0.53990185 0.058443327 -0.426139 0.17430624 0.03766996 1.219704 -0.461421 -1.0363699
-0.00014550013 0.35318154 -0.63129014 -0.7077105 -0.24229175 -0.7714542 -0.6427219 1.2459522
-0.540172 -0.21868636 -2.074894 0.08136768 0.019515272 -1.0047218 -0.54872024 0.94135886
-0.051420677 -0.6165284 0.17725003 -0.15310168 0.6795308 -1.161616 -0.6064771 0.14435397
-0.5023571 -0.16044536 0.22126693 -0.40264046 -0.50937355 0.4154113 0.38990295 0.0750043
-0.043653708 -0.6077136 -0.31172463 0.24091133 -0.32856524 -2.2292888 -0.7689383 -1.106945
-0.60509676 -0.9824443 -0.5268388 -0.08667572 -2.0367436 -1.8429911 -1.2146721 -0.4316297
-0.76431006 -1.4997863 0.043465607 -0.067675866 -0.089462005 -0.010885437 0.06527254 -0.08699509
-0.0006743586 0.06562357 0.042064115 0.20653324 0.3120548 0.8297941 -0.822349 -0.688269
0.018178178 0.1402275 0.3147864 -1.2206302 -0.3178923 -0.10565257 0.095151834 -0.30632225

architecture.conv2.bias f4 [20]
00000000: 4f65 0dbf 8a03 92be 0bce debd f951 68be
00000010: 3a97 b5be 4c34 d3be 9da7 6dbe 9bbf 9fbe
00000020: 130c 9ebb 4b65 5bbe 18a0 b3be 6776 eabe
00000030: f9e7 95be 6b63 42be 3d81 5cbe cda1 bebe
00000040: 6a91 08be 71f3 a7bd d56e 13be 6da1 62bf
-0.5523271 -0.28518325 -0.10879143 -0.2268752 -0.3546694 -0.41250837 -0.2320847 -0.3120087
-0.0048232167 -0.21425359 -0.3508308 -0.4579346 -0.29278544 -0.18983237 -0.21533675 -0.3723282
-0.13336721 -0.0820073 -0.14397748 -0.88527566

architecture.fc1.weight f4 [100, 500]
00000000: 30cf 6fbd fdf8 bcbd 040f c93d 0ce1 0bbf
00000010: b555 103f 21e3 b7be 57df c3be 3305 7abe
00000020: d3e3 b13e f52d 203e 37e5 18be 76ae 94be
00000030: b6f4 2dbd 7f7e 213e b2e4 f23e 3789 8f3e
00000040: 38ff 75bd a221 153f f22b d6be cab6 353e
00000050: 8ebb 143e 353d 5a3f 0f44 143e cc2e 703d
00000060: 209f aebf 5ff0 13be 0336 4cbf 8721 75bf
00000070: e7b3 973e 9b86 0f3f aedd 723e a7f1 aabf
00000080: 95a6 bfbf 3b01 afbf cc85 43bf 91be a1be
00000090: 3aaf 38bf bc34 13c0 90c3 d6bf fd9c 04bf
000000a0: dfe1 d8bb 8576 8bbf 99e9 11c0 d60d 9abe
000000b0: 8064 0fbf b784 90be 0574 42be c3d6 20bf
000000c0: 0ef5 36bf 5314 8abe 0a7b 4abd d1e9 fe3d
000000d0: 54a6 853f 8874 073e 5133 c9be 5e42 22be
000000e0: 2ec4 1bbf cebd a2bf f3f6 533f 1c4e 823e
000000f0: 812d a7be b6b5 18bf 1b8a b2bf 5c30 b3bf
00000100: 2212 c8bf ee74 253f a79c 813e 87a5 11c0
00000110: 2258 71bf 9526 b7bf 8863 35bf 557c d73e
00000120: b23f a2bf fa27 80be 94c2 e33e a9e1 c3bf
00000130: 2585 8d3e 45f4 ad3f d7d7 af3d 3086 a13e
00000140: 568d 5bbf 313e 79be 940c a23f 9b00 8d3e
00000150: 916e afbe 82af 263f dc35 8a3e 5c35 a4be
00000160: 0fc3 7b3f 21e4 70be fd5c 48bf f61e 363f
00000170: 2036 843f daf7 12be 8b00 96be f2eb c53d
00000180: ba36 39bf bcf1 2bbe 34ad febe 0742 b0be
00000190: 856e 4b3f 8ab0 3fbf 1890 e53e 1480 22bf
000001a0: 5487 943e 7e20 e0be 8528 39c0 0878 33bf
000001b0: 471d 6fbf c396 673e 89ff bfbf 7ce9 34bf
000001c0: 012f 85bf 1775 1b3f 932f 07bf c6b2 3ebe
000001d0: 6cbe dcbe a9a8 a1bf 81ba f43e 5d96 fcbe
000001e0: bf8c 1ebd dc64 c7bf 7c34 ee3b 4b0a 71bf
000001f0: bff0 01be 6571 aa3e 4d29 c3be 1b96 9abf
00000200: 3ea3 aa3d 3668 a13f 5e0c 0f3e 7b70 f7bf
00000210: 415c ccbf 6e07 823f ec70 3dbd f272 663f
00000220: ca7b 0abf f564 0a3e 842c 6fbf 7d48 debe
00000230: 51fc 47bd 9ab9 1e3f f446 223f 93c4 8bbe
00000240: 3244 06c0 11fc b73e 21c2 ac3e cb75 88be
00000250: 8710 ddbe e387 b1bf 931d 74bd 85d0 46bf
00000260: 9e05 6dbe 4c9f d3bd 2e97 0f3f 5c5c f7be
00000270: f88e 26bf c7e5 8dbe 0707 603e 385c 3b3f
00000280: 923e 6c3e dc28 e83d 4dbb 89bf 5cbb 3d3f
00000290: cbe8 42bd 7853 2c3f bd4a dfbd 17bf b63f
000002a0: 6def 473f 5feb 97bf f02e 50bf b52f 183e
000002b0: ab1f bd3f cd5e 02bd 43f3 98be e7ab 223e
000002c0: 878d 26bf 7e93 cc3f 1409 7e3e 97aa 40bf
000002d0: eabf b7be 3493 1cbf d980 e83e 4b86 6bbf
000002e0: 0c68 2fbf a270 bcbf f9ca 8ebf 921c 80bf
000002f0: b79e 26be 7409 583f 989c 0bbe aee1 c5be
00000300: 4908 01bf 503f d9bf e4e8 94be 4387 3cbf
00000310: 951b 85bf c9c1 e03e c8f8 90bf 3f21 f73e
00000320: ff8b 8cbe 0ca0 1dbf 9471 b6be 3e4f 8bbe
00000330: 412c 2c3f 47a9 25bf c2b4 b0bf bf13 783f
00000340: 967f 523f 916a b73e 9448 4bbf d4d6 933e
00000350: 2dc5 323c 108a 9c3f 80e3 0fbe d9f5 71bf
00000360: 7ad1 2b3f c063 bc3e 7671 7e3d 610e f6be
00000370: 1014 a4bf 10f2 4dbe f8be 833f 0559 87be
00000380: 73f1 8fbf f5a2 9cbe f727 65be c85a 06bf
00000390: 89ad a53e fec0 a1be 3761 45bf 51b5 63bf
000003a0: 903f a0bf 4289 1e3e d47b 0bbe 2ae6 06bf
000003b0: c569 82bf 0fc7 dbbf bc58 89bf 64a5 01bf
000003c0: f492 0fbe 4c29 8dbf 228b aebe 37e0 0cbf
000003d0: e19d c1be c174 cc3f 6d2f 483f fe64 2c3f
000003e0: 8b79 a03e 8917 db3d 272e b53d 0683 f5bf
000003f0: 791b b5bf ef9d 963f ca2e d33e e912 bdbe
-0.0585472 -0.09227178 0.09817317 -0.5464027 0.5638078 -0.35915473 -0.38256332 -0.24416046
0.3474413 0.15642531 -0.14931189 -0.29039353 -0.042469703 0.1577091 0.47440106 0.28034374
-0.06005785 0.58254445 -0.41830403 0.1774551 0.14524671 0.85249645 0.14479087 0.05863838
-1.3642311 -0.14447163 -0.79769915 -0.95754284 0.29629442 0.56064767 0.23717377 -1.3354996
-1.4972712 -1.367225 -0.7637603 -0.31590703 -0.72142375 -2.3000937 -1.6778431 -0.51802045
-0.006618723 -1.0895544 -2.2798827 -0.3008868 -0.56012726 -0.28226253 -0.1898957 -0.628277
-0.71467674 -0.2696863 -0.049433745 0.12446941 1.0441384 0.13228047 -0.39296964 -0.1584563
-0.6084622 -1.2714174 0.8279869 0.25450218 -0.32651904 -0.5965227 -1.3948396 -1.3999133
-1.5630534 0.64631546 0.2531483 -2.275728 -0.94275105 -1.4308649 -0.70855 0.42087045
-1.2675688 -0.250305 0.4448439 -1.5303241 0.27640644 1.359017 0.0858609 0.3154769
-0.85762537 -0.2434013 1.2660089 0.27539524 -0.34264043 0.65111554 0.26994216 -0.3207196
0.9834451 -0.23524524 -0.7826689 0.7114099 1.0329018 -0.1435236 -0.2929729 0.096641436
-0.7234913 -0.16791433 -0.49741518 -0.34425375 0.79465514 -0.7487875 0.44836497 -0.6347668
0.29009497 -0.4377479 -2.893098 -0.7010503 -0.9340405 0.22616105 -1.4999858 -0.7066877
-1.040497 0.6072554 -0.5280697 -0.18622884 -0.4311403 -1.2629596 0.4779854 -0.49333468
-0.038708445 -1.5577655 0.00726944 -0.9415633 -0.12689494 0.33289638 -0.38117447 -1.2077059
0.08331917 1.2609928 0.13969561 -1.9331201 -1.5965654 1.0158517 -0.04625027 0.9001914
-0.5409514 0.13515075 -0.934273 -0.4341468 -0.048824612 0.62001956 0.63389516 -0.27298412
-2.0979123 0.359345 0.3374186 -0.2665237 -0.43176672 -1.3869594 -0.059598517 -0.77661926
-0.23146674 -0.10333118 0.56090057 -0.48312652 -0.65061903 -0.2771437 0.2187768 0.7318759
0.23070744 0.11335918 -1.0760285 0.7411401 -0.04758529 0.67314863 -0.10902927 1.4277066
0.7809971 -1.1868705 -0.8132162 0.14861949 1.4775289 -0.03182869 -0.29873094 0.15885888
-0.65059704 1.5982511 0.2480815 -0.752603 -0.35888606 -0.61162114 0.45410803 -0.9200179
-0.6851814 -1.4721873 -1.1155692 -1.0008719 -0.16271482 0.84389424 -0.13633955 -0.38648742
-0.5040327 -1.6972446 -0.2908393 -0.73643893 -1.0399042 0.43897846 -1.1325922 0.48267552
-0.2745056 -0.6157234 -0.35633528 -0.27208894 0.67255026 -0.6471142 -1.3805163 0.9690513
0.8222593 0.3582349 -0.7940762 0.28874838 0.010911268 1.2229633 -0.14051628 -0.9451576
0.6711651 0.36794853 0.062119924 -0.48057845 -1.2818623 -0.20111871 1.0292654 -0.26435104
-1.124556 -0.30593076 -0.22378527 -0.5248227 0.3235896 -0.31592554 -0.77101463 -0.8894854
-1.2519398 0.15482047 -0.13621455 -0.5269495 -1.0188528 -1.7170123 -1.0730205 -0.5064299
-0.14020902 -1.1028228 -0.34090525 -0.55029625 -0.37815765 1.597313 0.78197366 0.673416
0.3134273 0.10697848 0.088466935 -1.918061 -1.4149009 1.1766948 0.41246635 -0.3692849

architecture.fc1.bias f4 [100]
00000000: d212 813f 8b5e 3dbf e6a6 f6bd 4353 1fbf
00000010: 8c46 18be bb12 bebd 1c11 bcbd 49dd 48bd
00000020: 40d0 1fbf 13ee 413d 7829 26be 130e 09bd
00000030: 1288 08bf e3d8 b9bd 2c9a 26bd 1052 65bf
00000040: b183 46bf a1b6 25bf b1a8 913d fdb9 bbbe
00000050: 5ed2 cfbd b3fe 1f3f 2080 d2bc dbfe 6d3d
00000060: 5c38 9cbd 964c afbe 6a21 14bf 71d2 c33e
00000070: aeb2 a7be 10e4 4b3e c6ea adbe a5ea 79bd
00000080: f266 a9bd 3f36 06be 078f 26bf 1c8e 1cbf
00000090: 2ec3 9cbf 5417 45bd 12fb 2fbe ad80 843c
000000a0: e9c2 00be 7b32 0bbf 8070 babd e3ce d0be
000000b0: 4691 85be 3ef4 64bd 2fbd a3bd 8ebc ecbe
000000c0: 2f82 8cbe 8b60 25bf 49f1 5cbf 215f a6be
000000d0: cb34 fcbe ff07 2cbf a990 21bf a0ac 82bf
000000e0: 4866 8c3d 02c9 efbe eb42 8dbf 301f 61bf
000000f0: 0719 b3be 024a 1fbf 5c7e 7b3f 19b4 2bbf
00000100: c286 d23e 7859 e6be 902c d3bd 36ae 90be
00000110: becd c7be 5c3e 6ebf 86e0 99bd 8b8f 8cbd
00000120: 48bc 46bf 41e8 b0be 12e2 6dbe 36c8 d3bd
00000130: 00ae 69bf 0dfd 3fbf f57d bebd ae4f e8be
00000140: 7299 89bf e9d9 63be 3f71 36bf 00ba eabe
00000150: e810 dbbd 4707 d1bc ec86 a6be e1b3 2f3d
00000160: eb95 9bbe ce49 073e 4344 2dbf 9c98 dcbe
00000170: 5796 b4be e588 113f 3739 b6bc 39b6 4dbf
00000180: f175 63bf fc73 0cbe 2b8f adbe c484 d3be
1.0083869 -0.73972386 -0.12043552 -0.6223642 -0.14870661 -0.09280916 -0.09182951 -0.04903916
-0.6242714 0.047346186 -0.16226757 -0.033460688 -0.53332627 -0.09074571 -0.040674374 -0.8957834
-0.77544695 -0.64731795 0.071122535 -0.36665335 -0.10147546 0.62498015 -0.02569586 0.058104377
-0.07627937 -0.34238118 -0.57863486 0.38246492 -0.3275351 0.19911218 -0.3396818 -0.06101479
-0.082715884 -0.1310663 -0.6506199 -0.6115434 -1.2247064 -0.04811795 -0.1718562 0.016174639
-0.12574352 -0.543739 -0.09103489 -0.40782842 -0.26087397 -0.05589699 -0.07995068 -0.46237606
-0.27443072 -0.6460044 -0.8630567 -0.32494453 -0.49259028 -0.671997 -0.6311136 -1.0208931
0.06855446 -0.46833044 -1.1036047 -0.87938213 -0.34980032 -0.622223 0.98239684 -0.6707168
0.41118437 -0.44990134 -0.10311234 -0.28257912 -0.39024156 -0.930639 -0.075135276 -0.06863316
-0.77631044 -0.34552196 -0.2323077 -0.103409216 -0.9128113 -0.749955 -0.09301368 -0.4537329
-1.0749953 -0.22251095 -0.7126655 -0.45845032 -0.10696584 -0.025516165 -0.32524812 0.042896155
-0.30387816 0.13211748 -0.67682284 -0.43085182 -0.3527095 0.5684951 -0.022244079 -0.80356175
-0.8885184 -0.1371612 -0.3389829 -0.4131223

architecture.fc2.weight f4 [10, 100]
00000000: 40ce f23e ca27 ce3e 7dd8 6b3d 2fb2 05bf
00000010: cace 35bf 0e7f 9abd 6c03 47bf 4b30 49bd
00000020: b1b3 023d fd33 e73e 3648 163e d340 6abc
00000030: fa8e 7abf 456a a63b 0b46 02be 647c 90bf
00000040: dc6d 06be fab4 573e d6a6 b53e 2bfc cebe
00000050: 0c7f b23c aff3 78bf 1bcd df3c 5277 34be
00000060: b694 ef3c 6738 e5bd 2a41 6cbd 7d0e 0cbf
00000070: 9c0b 02bf 53de 5fbf 33a1 ea3e c795 233d
00000080: 0b95 0fbe fbbf 47be 46e9 b9bd 01ce 1fbf
00000090: c54e 7cbe 26ef f2bc ca54 60bf 4130 37be
000000a0: 264c a63d 67ce e33e 74eb 89bd 7428 d43e
000000b0: 6e42 3bbf ae2d a9bc fc49 cebd d5c5 4bbf
000000c0: 1a85 9c3e 9349 f3be 0781 413d 6666 f4be
000000d0: 6891 c3be e363 0abf c76b c9bd 497e 2cbf
000000e0: 0436 08be 5576 2fbe 8b48 21bf 77e5 77be
000000f0: a80f 22bf d36e 03bf 8193 1dbf ced5 45be
00000100: ab7e ba3e ca04 afbf 136d 83bc 1b76 00bf
00000110: de9e 53be e076 43be 65d4 acbe 1938 fabc
00000120: 1552 5e3c c51e 15be 8df9 173f c266 c33b
00000130: d703 e33c 15e2 90be d50f 89ba 5e2c 18be
00000140: 1ec6 e2be 03f3 c2bc fbda 733e 36c8 d83e
00000150: b05f c0be 0f3a 3bbd 958a d93e 0351 83be
00000160: 1d7c 22bc 797e f53e 2a49 c33c 8ea8 84be
00000170: 4ab2 abbe b24a 75be ab80 9cbe af3c 90bd
00000180: b074 e4be db5e c73d 7d99 d8be 0b2c 1ebe
00000190: 743a 193f 48a4 dabd b1ea 92bc c781 9bbe
000001a0: 72d2 513f 096a ecbc 4356 0a3e e5d7 443b
000001b0: 5b9e 35bf afd6 2b3e b451 2fbe 1898 dc3c
000001c0: 69b7 e03c c929 933c da39 ed3e 8fef bd3e
000001d0: 2003 f0bd 5e79 1b3d 728e 033f 30e9 65be
000001e0: f2cc 023d 0089 1f3f cd01 c5bd 1774 bcbe
000001f0: 7b6b 8dbc 4401 dcbc f0ad 413e dbd5 723e
00000200: f032 1fbf 552a 643f 36f6 37be ed4c 1a3d
00000210: 5cf1 933d b260 763e f687 7dbe ea5d 2ebe
00000220: 0bf4 a8be 118f c9bc 9727 c53e 046a 65be
00000230: bf76 f5bd 8033 c9be ce0b 9c3c f097 303f
00000240: f674 b0be c20f 09bc 7a08 5b3c d958 1cbf
00000250: cff3 c2bd a691 47be 5825 93be 7ae3 8d3e
00000260: 0999 adbd 5577 5abf 9882 62be 9a36 05bf
00000270: b808 6dbe 5ddd f5be b9a8 08bf 8c68 bfbe
00000280: 8dbb 94be 0f97 b5be 060b de3e 951f 18bf
00000290: 8355 e93e 92d2 e33d 8560 e8bd b4e0 a7be
000002a0: ddb2 ad3e abd1 d6bd 99b0 bcbd 8ebf 683d
000002b0: 2d5d e9bc 8818 09bd 921c 3bbf 1264 073d
000002c0: c237 adbe e179 a9bf 8a4b b83d 8e20 43be
000002d0: dcb1 1abf 81fd 7abd b893 0fbf a30f 6bbf
000002e0: 9349 98bc d796 98bc c29e 10bf 97cc d33d
000002f0: 1fac 2cbf af84 c7be 3cb9 8abe 1801 d03e
00000300: 8510 30be 93ba 743d 5b11 94be 7eac 9abd
00000310: cb72 f8be a451 f63d 1f20 90bd 5d5c b93d
00000320: 61cc 9fbf 0d7b fcbe 3a0d 11bd eed2 f9be
00000330: a994 93be f71d 7e3c 08a1 cd3c deb8 b9bd
00000340: 3c2b d9be 2189 3a3e 131b 0ebd 4802 d6bc
00000350: 0ae0 b7be 8462 19be 665c 07be acbb 5dbe
00000360: f2ad 34bf 24fc 11bd 4cc8 ea3e edb4 0e3f
00000370: 3ae0 0bbd 41f7 953e 15ef 623c 15ed 2fbd
00000380: 6634 c83d ea0c 873e 3517 aa3c cebd 193f
00000390: 9625 823e febb 2cbe 24d4 013e 8616 78bd
000003a0: a4f6 d13c 998a 03bf c833 6bbe a75c 35be
000003b0: 54e9 3a3c 9a9e 0b3d 9caf d0be e92b 0a3e
000003c0: 63a8 23bc e59a 2abd 784a 5e3d f32f 13bf
000003d0: 20ec 613e 947a 8bbd 0f57 5cbd 2905 2bbf
000003e0: f33a 3fbe 133b e6be a51d 923e 649c 84be
000003f0: 164a 913e 85e4 49be 3d7d 1abf d008 113f
0.4742298 0.40264732 0.057579506 -0.5222501 -0.7101866 -0.07543765 -0.77739596 -0.04911832
0.03190965 0.4515685 0.14675984 -0.014297682 -0.97874415 0.0050785863 -0.12722032 -1.1287961
-0.13127846 0.21065131 0.35478848 -0.40426764 0.021789096 -0.9724683 0.027319482 -0.17623642
0.029245716 -0.111923985 -0.057679333 -0.5470961 -0.50798965 -0.87448615 0.4582611 0.03993776
-0.14021699 -0.19506828 -0.090776965 -0.6242371 -0.24639423 -0.02965505 -0.8762938 -0.17889501
0.08119993 0.4449341 -0.06734362 0.41437113 -0.7314824 -0.020651665 -0.10072705 -0.7959874
0.30570298 -0.4751707 0.04724219 -0.47734374 -0.38196874 -0.54058665 -0.0983501 -0.67380196
-0.13301855 -0.17134984 -0.63001317 -0.24208628 -0.6330514 -0.5134098 -0.615532 -0.19319841
0.36424765 -1.3673337 -0.016043222 -0.50180215 -0.20666072 -0.19088316 -0.33755794 -0.030544328
0.013569375 -0.14562519 0.5936516 0.0059631774 0.027711792 -0.28297487 -0.0010456989 -0.14860675
-0.44291776 -0.023797518 0.23814003 0.4234025 -0.37573004 -0.045709666 0.42488542 -0.25647745
-0.009917286 0.47948053 0.023838598 -0.25909847 -0.3353446 -0.23954275 -0.30566916 -0.070428245
-0.44620275 0.09734889 -0.42304602 -0.15446489 0.5985482 -0.106758654 -0.017934175 -0.3037245
0.8196174 -0.028859155 0.13509469 0.003003591 -0.70944756 0.16781114 -0.17121011 0.026927993
0.027431207 0.01796426 0.463332 0.3709683 -0.11719346 0.03795754 0.5138923 -0.22452235
0.031933732 0.6231842 -0.09619484 -0.3680732 -0.017263165 -0.026856072 0.18914008 0.23714392
-0.621871 0.89127094 -0.17965016 0.03767102 0.0722377 0.24060324 -0.24758896 -0.17028013
-0.3299869 -0.024604352 0.38506767 -0.22403723 -0.1198554 -0.39297104 0.019048598 0.6898184
-0.34464234 -0.008365573 0.01336872 -0.6107307 -0.09519159 -0.19489154 -0.2873943 0.27712613
-0.08476455 -0.85338336 -0.2212013 -0.5203644 -0.23147857 -0.4802045 -0.5338245 -0.3738445
-0.2904934 -0.3546681 0.43367785 -0.5942319 0.45573053 0.111241475 -0.11346535 -0.32788622
0.33925524 -0.1048921 -0.09213371 0.056823306 -0.028486812 -0.03347066 -0.7309047 0.03305442
-0.33831602 -1.324032 0.08998783 -0.19055387 -0.6042764 -0.061276916 -0.56084776 -0.91820735
-0.01858977 -0.018626614 -0.56492245 0.10341757 -0.67450136 -0.38968417 -0.27094448 0.40625834
-0.17193802 0.059748244 -0.2891949 -0.075524315 -0.4852508 0.120272905 -0.070373766 0.0905082
-1.2484246 -0.4931263 -0.035413004 -0.4879374 -0.28824356 0.015510074 0.0251012 -0.09068464
-0.42415798 0.18216373 -0.03469379 -0.026124135 -0.35913116 -0.14978987 -0.13218841 -0.21653622
-0.7057792 -0.03564085 0.4585594 0.5574482 -0.034149386 0.29290202 0.013850947 -0.04295071
0.09775619 0.2637704 0.02076302 0.60055244 0.254193 -0.16868588 0.12678581 -0.060568355
0.025630303 -0.5138336 -0.22968972 -0.17711125 0.011408169 0.0340868 -0.4075898 0.13493313
-0.009988877 -0.041651625 0.054270238 -0.5749504 0.22062731 -0.06810489 -0.053793963 -0.6680475
-0.18674831 -0.44966945 0.28538242 -0.25900567 0.28376836 -0.1971608 -0.6034735 0.5665407

architecture.fc2.bias f4 [10]
00000000: 5746 37be 6291 293f 245e eabe 605e 263e
00000010: 8d40 a0bd d1c7 babd 6a68 79bf dcf1 ffbe
00000020: 4cae 953f d4af 32be
-0.17897926 0.6623746 -0.4577495 0.16246939 -0.07824812 -0.09120143 -0.9742495 -0.49989212
1.1693816 -0.17449886

conv1.weight f4 [10, 1, 3, 3]
00000000: add9 143e a711 bbbc 8843 ddbe 6126 043f
00000010: 1d2b 56be 64d3 47bf 5ac8 843e 8d9a e83e
00000020: 4bef 023e 60a4 7cbf 3faf 9dbe 491d aa3e
00000030: a587 a0be 42cf d23d 6c57 cb3e fe32 81bf
00000040: 723d 83be dcbd 493e 7c4b 4bbd cd82 3bbe
00000050: 1418 89bf 609e 8e3e a82d 3fbf f893 c4be
00000060: 9c9b 883e bb53 073e ad2c 723e fa51 2abe
00000070: 94f2 80be ff24 c33d 6455 b23e 341d 603e
00000080: f27b 883d 18b2 01bf c539 4bbf a801 43be
00000090: 9036 a83d 1e0e e03e a057 db3e 2285 c6be
000000a0: 2eae 9ebd 5542 663e 7fc7 38bf e95a 57bf
000000b0: 4549 45bf 606a 95be 850c 6abf d7fc aebf
000000c0: 7424 48be 45c2 90bf e9b1 ac3d 8f9b afbf
000000d0: a556 07bf 593d 143f c365 953d 2530 e4be
000000e0: e7f5 efbc 346b 433e 4ade a8be 7eb7 213e
000000f0: 5870 35be 10a0 4c3d 2661 c6bd 6f64 78bf
00000100: 3bd0 3cbf ce47 27bf 3b57 f4bd 9882 d4be
00000110: e69b 97be 186b b63e e947 443e 1b0a 003f
00000120: 90ca 083f 7cb0 9d3e ed32 b5be 6803 aabd
00000130: 9397 9fbd 0254 5dbf 4f4e 0cbf 3c1d aebf
00000140: 3c42 84bd 069a 74bf d341 af3d e475 f03e
00000150: 8027 e3bd 4b52 5d3f 0e26 59be 80d0 be3e
00000160: 7179 4dbe f1da 3abf
0.14536162 -0.022835566 -0.43215585 0.5162106 -0.20914884 -0.7805693 0.25934106 0.45430413
0.12786596 -0.98688316 -0.30797765 0.33225468 -0.3135349 0.102934375 0.39715135 -1.0093687
-0.25632817 0.19701332 -0.049632534 -0.18311615 -1.0710473 0.27855206 -0.7467904 -0.3839414
0.2668122 0.13215534 0.23649855 -0.16632834 -0.25185072 0.09528541 0.34830773 0.2188614
0.06664266 -0.50662374 -0.79385024 -0.190436 0.08213532 0.4376077 0.4284029 -0.38773447
-0.07748066 0.22486241 -0.72179407 -0.8412309 -0.77064925 -0.2918272 -0.91425353 -1.3670911
-0.19545156 -1.1309286 0.08432371 -1.3719348 -0.52866584 0.5790611 0.072948 -0.4456798
-0.02929206 0.19083863 -0.32982093 0.15792653 -0.17718637 0.049957335 -0.09686498 -0.9702825
-0.73755234 -0.6534394 -0.119307004 -0.41505885 -0.2961113 0.3562858 0.19168057 0.5001542
0.53434086 0.3079871 -0.35390416 -0.08301431 -0.07792582 -0.8645631 -0.5480699 -1.3602672
-0.06457946 -0.9554752 0.08557477 0.46964943 -0.110915184 0.86453694 -0.21205923 0.37268448
-0.20065857 -0.7299033

conv1.bias f4 [10]
00000000: 5503 d3be d610 97be 41ef 72bf 70a2 18bf
00000010: 18d7 cdbd fd02 57bd 98f1 8fbe 508c 5fbd
00000020: 2709 e5bd f501 3abf
-0.4121348 -0.29505032 -0.9489632 -0.5962286 -0.100507915 -0.052493084 -0.2811401 -0.05457717
-0.11183386 -0.72659236

conv2.weight f4 [20, 10, 3, 3]
00000000: 3a7e 093d 6d8b 66be 8ad0 833e acd1 d3bf
00000010: 884d 493e b0c8 eb3e 6142 973e ebe8 0c3d
00000020: 4746 823e 98fd aabe c2c9 52be ef98 d8bf
00000030: e8b7 38bf 2807 0bc0 c056 9fbf 806d a8bf
00000040: 9656 21bf 9c01 9fbf 1b6d c03d 2a96 6ebe
00000050: bc93 8f3e 2c9e 86bf 1290 34bf 6f5a a93e
00000060: 1c3d e13e 96e1 d53e c3d3 c63d 64fe 40bd
00000070: b980 a8bd a7d3 a83e 41ab cbbe d522 793e
00000080: a608 2f3e 14df c03e 79e3 acbd 27a8 46be
00000090: 331b 153f 48a6 d6bf ab08 523e 01a3 c2bf
000000a0: 964d f7bc 57fe 2b3f f7aa 993e 7dab 7c3e
000000b0: 9598 adbe 5afb 8a3e 246a b4be 2ebf 49bf
000000c0: f4ee 3c3e 981b 35bf e523 17bf c384 88bf
000000d0: 69d0 92bf 04e6 8bbf 7c98 dc3d 0eb0 9c3d
000000e0: 953c 39bc c691 933d 1975 d1bc 20e0 42bd
000000f0: fa77 30bc 7e34 9fbd f604 73bd ce09 153f
00000100: 7453 94be 3349 b6bf 5cbc 073f f411 09c0
00000110: f95e 43bf 8a92 f6bf cbca 293f 09cc ef3d
00000120: 45b8 78be c507 09be 10c1 b23e 88ca 6cbf
00000130: ef68 303e 5aa9 643f 2136 0b3f 8835 473e
00000140: 1ff0 84bf b022 38be 3213 ae3e ddd2 093f
00000150: ce25 8b3e 2e5e 5e3e 19a8 12bf a462 7cbe
00000160: e9b4 85bf 70ae 8cbf 7e0b 7abe a043 933f
00000170: 5482 583c 2465 713f ca79 8e3e 68aa 5cbf
00000180: fe08 8cbf 4ab5 c0bf 4c7c d9be 225c f13e
00000190: 1b53 c9be 4fb6 713f c974 81bd b61b 98bf
000001a0: e2d5 08bf de42 d1be afdc 9fbf 14a1 68bf
000001b0: 2306 08bf 0c54 453f af70 80bd 7aa0 7d3e
000001c0: 05e6 2f3f 415d 13bf cd94 193e 9bcf 44be
000001d0: 74dc 3abf b7cd 71bd 7134 203e f9ca a13e
000001e0: 4fa2 90be 1be0 e03a 0537 033e aad8 63be
000001f0: 8786 7e3c a163 423e ef41 47bf b2ff c93e
00000200: 1f4d b23d d9cf acbe c241 2ebf 2b83 2ebf
00000210: 4d74 8a3e 93cf ab3d ac2c 363d 0ab9 8b3d
00000220: 1151 63bd b31c 78be ffbb d0bf ee4d ddbf
00000230: d1ba 11bf 7749 12bf 4d14 83bf 0eef 9abf
00000240: cb96 cb3c 81ea 92bd ff87 b03d 0fb7 8bbc
00000250: 9d33 883e fa98 2f3e ad44 f23d 4f23 5a3d
00000260: 890f d43d 08e7 03bf 7f79 40bf cea7 023f
00000270: 791b 6cbf f27e 033f c1c5 233f 857b 8fbf
00000280: 667f b93e 03e9 7e3d c1cd 3abf 615e 0f3f
00000290: e529 e7be a553 37bf 6e00 0cc0 5354 823e
000002a0: 4147 d0be b332 37be 1e88 4c3f 3baa ba3e
000002b0: 2689 3d3e 0760 a63e 8c40 e0be 9d31 b7bd
000002c0: 0237 0a3f 4562 6f3d e42e dabe 567d 323e
000002d0: d14b 1a3d 431f 9c3f 603f ecbe c5a7 84bf
000002e0: 6591 18b9 36d4 b43e 3b9c 21bf 842c 35bf
000002f0: 541b 78be 067e 45bf 6c89 24bf 5d7b 9f3f
00000300: b648 0abf 51ef 5fbe 10cb 04c0 19a4 a63d
00000310: 7ede 9f3c b99a 80bf ee78 0cbf e5fc 703f
00000320: 7d9e 52bd ced4 1dbf 0881 353e b0c6 1cbe
00000330: bbf5 2d3f d5af 94bf 1542 1bbf 87d1 133e
00000340: 7a9a 00bf ca4b 24be cc93 623e e426 cebe
00000350: 4e66 02bf cab0 d43e 5ca1 c73e db9b 993d
00000360: 3bce 32bd 1e93 1bbf 5f9a 9fbe 76b1 763e
00000370: b439 a8be abac 0ec0 24d9 44bf 60b0 8dbf
00000380: 9fe7 1abf 7881 7bbf e8de 06bf 0a83 b1bd
00000390: 025a 02c0 22e7 ebbf 607a 9bbf 91fe dcbe
000003a0: d3a9 43bf fff8 bfbf fe08 323d a599 8abd
000003b0: db37 b7bd d558 32bc 9cad 853d 7b2a b2bd
000003c0: 71c7 30ba a665 863d 6c4b 2c3d 737d 533e
000003d0: a6c5 9f3e 636d 543f 7785 52bf 6632 30bf
000003e0: 67ea 943c cc97 0f3e af2b a13e 9c3d 9cbf
000003f0: c8c2 a2be 6060 d8bd f7de c23d 45d6 9cbe
0.033567645 -0.22514124 0.2574504 -1.6548362 0.19658482 0.4605155 0.2954283 0.034401815
0.25444242 -0.33396602 -0.20584777 -1.6921672 -0.7215562 -2.1723118 -1.2448349 -1.3158417
-0.63022745 -1.2422366 0.0939581 -0.2329947 0.280424 -1.051702 -0.70532334 0.33076808
0.43991935 0.4177367 0.09708359 -0.047117606 -0.08227677 0.32973978 -0.39779094 0.24329694
0.17093143 0.37670195 -0.084418245 -0.19400083 0.5824463 -1.6769495 0.20511119 -1.5205995
-0.030188363 0.67184967 0.30013248 0.24674793 -0.33905473 0.2714489 -0.3523723 -0.7880734
0.18450528 -0.7074523 -0.59039146 -1.0665516 -1.1469852 -1.092957 0.107712716 0.07650767
-0.011305948 0.072055385 -0.025568532 -0.047577024 -0.010770792 -0.07773684 -0.059330903 0.58218086
-0.2896992 -1.4241089 0.5302179 -2.1417208 -0.7631679 -1.926347 0.6632506 0.117088385
-0.24289043 -0.1338187 0.3491292 -0.9249654 0.17227529 0.8932091 0.5437947 0.19454014
-1.0385779 -0.17981982 0.3399902 0.53837377 0.2717728 0.21715614 -0.57287747 -0.24647003
-1.0445834 -1.0990734 -0.24418446 1.1505013 0.013214666 0.94294953 0.27827293 -0.8619752
-1.0940244 -1.5055325 -0.42477643 0.47140604 -0.39321217 0.94418806 -0.06321103 -1.1883457
-0.5345136 -0.40871328 -1.2489222 -0.90870786 -0.53134364 0.7708137 -0.06271493 0.24768248
0.68710357 -0.5756417 0.14998169 -0.1921982 -0.72992635 -0.059034076 0.15645005 0.31600168
-0.28248832 0.0017156632 0.12813957 -0.2225062 0.0155350035 0.18983318 -0.7783498 0.39452893
0.08706116 -0.33752325 -0.6806909 -0.68168896 0.27041855 0.08389201 0.044476196 0.06822403
-0.055497233 -0.24229698 -1.6307372 -1.7289407 -0.56925684 -0.5714335 -1.024057 -1.2104204
0.024852177 -0.07173634 0.08619689 -0.017055063 0.26601878 0.171482 0.11829505 0.05325633
0.103545256 -0.515244 -0.7518539 0.510373 -0.9222942 0.5136558 0.63973624 -1.120957
0.3623001 0.062233936 -0.72970206 0.56003386 -0.4514915 -0.71612006 -2.1875262 0.2545496
-0.40679362 -0.17890434 0.798952 0.36458 0.18509349 0.32495138 -0.43799245 -0.0894501
0.53990185 0.058443327 -0.426139 0.17430624 0.03766996 1.219704 -0.461421 -1.0363699
-0.00014550013 0.35318154 -0.63129014 -0.7077105 -0.24229175 -0.7714542 -0.6427219 1.2459522
-0.540172 -0.21868636 -2.074894 0.08136768 0.019515272 -1.0047218 -0.54872024 0.94135886
-0.051420677 -0.6165284 0.17725003 -0.15310168 0.6795308 -1.161616 -0.6064771 0.14435397
-0.5023571 -0.16044536 0.22126693 -0.40264046 -0.50937355 0.4154113 0.38990295 0.0750043
-0.043653708 -0.6077136 -0.31172463 0.24091133 -0.32856524 -2.2292888 -0.7689383 -1.106945
-0.60509676 -0.9824443 -0.5268388 -0.08667572 -2.0367436 -1.8429911 -1.2146721 -0.4316297
-0.76431006 -1.4997863 0.043465607 -0.067675866 -0.089462005 -0.010885437 0.06527254 -0.08699509
-0.0006743586 0.06562357 0.042064115 0.20653324 0.3120548 0.8297941 -0.822349 -0.688269
0.018178178 0.1402275 0.3147864 -1.2206302 -0.3178923 -0.10565257 0.095151834 -0.30632225

conv2.bias f4 [20]
00000000: 4f65 0dbf 8a03 92be 0bce debd f951 68be
00000010: 3a97 b5be 4c34 d3be 9da7 6dbe 9bbf 9fbe
00000020: 130c 9ebb 4b65 5bbe 18a0 b3be 6776 eabe
00000030: f9e7 95be 6b63 42be 3d81 5cbe cda1 bebe
00000040: 6a91 08be 71f3 a7bd d56e 13be 6da1 62bf
-0.5523271 -0.28518325 -0.10879143 -0.2268752 -0.3546694 -0.41250837 -0.2320847 -0.3120087
-0.0048232167 -0.21425359 -0.3508308 -0.4579346 -0.29278544 -0.18983237 -0.21533675 -0.3723282
-0.13336721 -0.0820073 -0.14397748 -0.88527566

fc1.weight f4 [100, 500]
00000000: 30cf 6fbd fdf8 bcbd 040f c93d 0ce1 0bbf
00000010: b555 103f 21e3 b7be 57df c3be 3305 7abe
00000020: d3e3 b13e f52d 203e 37e5 18be 76ae 94be
00000030: b6f4 2dbd 7f7e 213e b2e4 f23e 3789 8f3e
00000040: 38ff 75bd a221 153f f22b d6be cab6 353e
00000050: 8ebb 143e 353d 5a3f 0f44 143e cc2e 703d
00000060: 209f aebf 5ff0 13be 0336 4cbf 8721 75bf
00000070: e7b3 973e 9b86 0f3f aedd 723e a7f1 aabf
00000080: 95a6 bfbf 3b01 afbf cc85 43bf 91be a1be
00000090: 3aaf 38bf bc34 13c0 90c3 d6bf fd9c 04bf
000000a0: dfe1 d8bb 8576 8bbf 99e9 11c0 d60d 9abe
000000b0: 8064 0fbf b784 90be 0574 42be c3d6 20bf
000000c0: 0ef5 36bf 5314 8abe 0a7b 4abd d1e9 fe3d
000000d0: 54a6 853f 8874 073e 5133 c9be 5e42 22be
000000e0: 2ec4 1bbf cebd a2bf f3f6 533f 1c4e 823e
000000f0: 812d a7be b6b5 18bf 1b8a b2bf 5c30 b3bf
00000100: 2212 c8bf ee74 253f a79c 813e 87a5 11c0
00000110: 2258 71bf 9526 b7bf 8863 35bf 557c d73e
00000120: b23f a2bf fa27 80be 94c2 e33e a9e1 c3bf
00000130: 2585 8d3e 45f4 ad3f d7d7 af3d 3086 a13e
00000140: 568d 5bbf 313e 79be 940c a23f 9b00 8d3e
00000150: 916e afbe 82af 263f dc35 8a3e 5c35 a4be
00000160: 0fc3 7b3f 21e4 70be fd5c 48bf f61e 363f
00000170: 2036 843f daf7 12be 8b00 96be f2eb c53d
00000180: ba36 39bf bcf1 2bbe 34ad febe 0742 b0be
00000190: 856e 4b3f 8ab0 3fbf 1890 e53e 1480 22bf
000001a0: 5487 943e 7e20 e0be 8528 39c0 0878 33bf
000001b0: 471d 6fbf c396 673e 89ff bfbf 7ce9 34bf
000001c0: 012f 85bf 1775 1b3f 932f 07bf c6b2 3ebe
000001d0: 6cbe dcbe a9a8 a1bf 81ba f43e 5d96 fcbe
000001e0: bf8c 1ebd dc64 c7bf 7c34 ee3b 4b0a 71bf
000001f0: bff0 01be 6571 aa3e 4d29 c3be 1b96 9abf
00000200: 3ea3 aa3d 3668 a13f 5e0c 0f3e 7b70 f7bf
00000210: 415c ccbf 6e07 823f ec70 3dbd f272 663f
00000220: ca7b 0abf f564 0a3e 842c 6fbf 7d48 debe
00000230: 51fc 47bd 9ab9 1e3f f446 223f 93c4 8bbe
00000240: 3244 06c0 11fc b73e 21c2 ac3e cb75 88be
00000250: 8710 ddbe e387 b1bf 931d 74bd 85d0 46bf
00000260: 9e05 6dbe 4c9f d3bd 2e97 0f3f 5c5c f7be
00000270: f88e 26bf c7e5 8dbe 0707 603e 385c 3b3f
00000280: 923e 6c3e dc28 e83d 4dbb 89bf 5cbb 3d3f
00000290: cbe8 42bd 7853 2c3f bd4a dfbd 17bf b63f
000002a0: 6def 473f 5feb 97bf f02e 50bf b52f 183e
000002b0: ab1f bd3f cd5e 02bd 43f3 98be e7ab 223e
000002c0: 878d 26bf 7e93 cc3f 1409 7e3e 97aa 40bf
000002d0: eabf b7be 3493 1cbf d980 e83e 4b86 6bbf
000002e0: 0c68 2fbf a270 bcbf f9ca 8ebf 921c 80bf
000002f0: b79e 26be 7409 583f 989c 0bbe aee1 c5be
00000300: 4908 01bf 503f d9bf e4e8 94be 4387 3cbf
00000310: 951b 85bf c9c1 e03e c8f8 90bf 3f21 f73e
00000320: ff8b 8cbe 0ca0 1dbf 9471 b6be 3e4f 8bbe
00000330: 412c 2c3f 47a9 25bf c2b4 b0bf bf13 783f
00000340: 967f 523f 916a b73e 9448 4bbf d4d6 933e
00000350: 2dc5 323c 108a 9c3f 80e3 0fbe d9f5 71bf
00000360: 7ad1 2b3f c063 bc3e 7671 7e3d 610e f6be
00000370: 1014 a4bf 10f2 4dbe f8be 833f 0559 87be
00000380: 73f1 8fbf f5a2 9cbe f727 65be c85a 06bf
00000390: 89ad a53e fec0 a1be 3761 45bf 51b5 63bf
000003a0: 903f a0bf 4289 1e3e d47b 0bbe 2ae6 06bf
000003b0: c569 82bf 0fc7 dbbf bc58 89bf 64a5 01bf
000003c0: f492 0fbe 4c29 8dbf 228b aebe 37e0 0cbf
000003d0: e19d c1be c174 cc3f 6d2f 483f fe64 2c3f
000003e0: 8b79 a03e 8917 db3d 272e b53d 0683 f5bf
000003f0: 791b b5bf ef9d 963f ca2e d33e e912 bdbe
-0.0585472 -0.09227178 0.09817317 -0.5464027 0.5638078 -0.35915473 -0.38256332 -0.24416046
0.3474413 0.15642531 -0.14931189 -0.29039353 -0.042469703 0.1577091 0.47440106 0.28034374
-0.06005785 0.58254445 -0.41830403 0.1774551 0.14524671 0.85249645 0.14479087 0.05863838
-1.3642311 -0.14447163 -0.79769915 -0.95754284 0.29629442 0.56064767 0.23717377 -1.3354996
-1.4972712 -1.367225 -0.7637603 -0.31590703 -0.72142375 -2.3000937 -1.6778431 -0.51802045
-0.006618723 -1.0895544 -2.2798827 -0.3008868 -0.56012726 -0.28226253 -0.1898957 -0.628277
-0.71467674 -0.2696863 -0.049433745 0.12446941 1.0441384 0.13228047 -0.39296964 -0.1584563
-0.6084622 -1.2714174 0.8279869 0.25450218 -0.32651904 -0.5965227 -1.3948396 -1.3999133
-1.5630534 0.64631546 0.2531483 -2.275728 -0.94275105 -1.4308649 -0.70855 0.42087045
-1.2675688 -0.250305 0.4448439 -1.5303241 0.27640644 1.359017 0.0858609 0.3154769
-0.85762537 -0.2434013 1.2660089 0.27539524 -0.34264043 0.65111554 0.26994216 -0.3207196
0.9834451 -0.23524524 -0.7826689 0.7114099 1.0329018 -0.1435236 -0.2929729 0.096641436
-0.7234913 -0.16791433 -0.49741518 -0.34425375 0.79465514 -0.7487875 0.44836497 -0.6347668
0.29009497 -0.4377479 -2.893098 -0.7010503 -0.9340405 0.22616105 -1.4999858 -0.7066877
-1.040497 0.6072554 -0.5280697 -0.18622884 -0.4311403 -1.2629596 0.4779854 -0.49333468
-0.038708445 -1.5577655 0.00726944 -0.9415633 -0.12689494 0.33289638 -0.38117447 -1.2077059
0.08331917 1.2609928 0.13969561 -1.9331201 -1.5965654 1.0158517 -0.04625027 0.9001914
-0.5409514 0.13515075 -0.934273 -0.4341468 -0.048824612 0.62001956 0.63389516 -0.27298412
-2.0979123 0.359345 0.3374186 -0.2665237 -0.43176672 -1.3869594 -0.059598517 -0.77661926
-0.23146674 -0.10333118 0.56090057 -0.48312652 -0.65061903 -0.2771437 0.2187768 0.7318759
0.23070744 0.11335918 -1.0760285 0.7411401 -0.04758529 0.67314863 -0.10902927 1.4277066
0.7809971 -1.1868705 -0.8132162 0.14861949 1.4775289 -0.03182869 -0.29873094 0.15885888
-0.65059704 1.5982511 0.2480815 -0.752603 -0.35888606 -0.61162114 0.45410803 -0.9200179
-0.6851814 -1.4721873 -1.1155692 -1.0008719 -0.16271482 0.84389424 -0.13633955 -0.38648742
-0.5040327 -1.6972446 -0.2908393 -0.73643893 -1.0399042 0.43897846 -1.1325922 0.48267552
-0.2745056 -0.6157234 -0.35633528 -0.27208894 0.67255026 -0.6471142 -1.3805163 0.9690513
0.8222593 0.3582349 -0.7940762 0.28874838 0.010911268 1.2229633 -0.14051628 -0.9451576
0.6711651 0.36794853 0.062119924 -0.48057845 -1.2818623 -0.20111871 1.0292654 -0.26435104
-1.124556 -0.30593076 -0.22378527 -0.5248227 0.3235896 -0.31592554 -0.77101463 -0.8894854
-1.2519398 0.15482047 -0.13621455 -0.5269495 -1.0188528 -1.7170123 -1.0730205 -0.5064299
-0.14020902 -1.1028228 -0.34090525 -0.55029625 -0.37815765 1.597313 0.78197366 0.673416
0.3134273 0.10697848 0.088466935 -1.918061 -1.4149009 1.1766948 0.41246635 -0.3692849

fc1.bias f4 [100]
00000000: d212 813f 8b5e 3dbf e6a6 f6bd 4353 1fbf
00000010: 8c46 18be bb12 bebd 1c11 bcbd 49dd 48bd
00000020: 40d0 1fbf 13ee 413d 7829 26be 130e 09bd
00000030: 1288 08bf e3d8 b9bd 2c9a 26bd 1052 65bf
00000040: b183 46bf a1b6 25bf b1a8 913d fdb9 bbbe
00000050: 5ed2 cfbd b3fe 1f3f 2080 d2bc dbfe 6d3d
00000060: 5c38 9cbd 964c afbe 6a21 14bf 71d2 c33e
00000070: aeb2 a7be 10e4 4b3e c6ea adbe a5ea 79bd
00000080: f266 a9bd 3f36 06be 078f 26bf 1c8e 1cbf
00000090: 2ec3 9cbf 5417 45bd 12fb 2fbe ad80 843c
000000a0: e9c2 00be 7b32 0bbf 8070 babd e3ce d0be
000000b0: 4691 85be 3ef4 64bd 2fbd a3bd 8ebc ecbe
000000c0: 2f82 8cbe 8b60 25bf 49f1 5cbf 215f a6be
000000d0: cb34 fcbe ff07 2cbf a990 21bf a0ac 82bf
000000e0: 4866 8c3d 02c9 efbe eb42 8dbf 301f 61bf
000000f0: 0719 b3be 024a 1fbf 5c7e 7b3f 19b4 2bbf
00000100: c286 d23e 7859 e6be 902c d3bd 36ae 90be
00000110: becd c7be 5c3e 6ebf 86e0 99bd 8b8f 8cbd
00000120: 48bc 46bf 41e8 b0be 12e2 6dbe 36c8 d3bd
00000130: 00ae 69bf 0dfd 3fbf f57d bebd ae4f e8be
00000140: 7299 89bf e9d9 63be 3f71 36bf 00ba eabe
00000150: e810 dbbd 4707 d1bc ec86 a6be e1b3 2f3d
00000160: eb95 9bbe ce49 073e 4344 2dbf 9c98 dcbe
00000170: 5796 b4be e588 113f 3739 b6bc 39b6 4dbf
00000180: f175 63bf fc73 0cbe 2b8f adbe c484 d3be
1.0083869 -0.73972386 -0.12043552 -0.6223642 -0.14870661 -0.09280916 -0.09182951 -0.04903916
-0.6242714 0.047346186 -0.16226757 -0.033460688 -0.53332627 -0.09074571 -0.040674374 -0.8957834
-0.77544695 -0.64731795 0.071122535 -0.36665335 -0.10147546 0.62498015 -0.02569586 0.058104377
-0.07627937 -0.34238118 -0.57863486 0.38246492 -0.3275351 0.19911218 -0.3396818 -0.06101479
-0.082715884 -0.1310663 -0.6506199 -0.6115434 -1.2247064 -0.04811795 -0.1718562 0.016174639
-0.12574352 -0.543739 -0.09103489 -0.40782842 -0.26087397 -0.05589699 -0.07995068 -0.46237606
-0.27443072 -0.6460044 -0.8630567 -0.32494453 -0.49259028 -0.671997 -0.6311136 -1.0208931
0.06855446 -0.46833044 -1.1036047 -0.87938213 -0.34980032 -0.622223 0.98239684 -0.6707168
0.41118437 -0.44990134 -0.10311234 -0.28257912 -0.39024156 -0.930639 -0.075135276 -0.06863316
-0.77631044 -0.34552196 -0.2323077 -0.103409216 -0.9128113 -0.749955 -0.09301368 -0.4537329
-1.0749953 -0.22251095 -0.7126655 -0.45845032 -0.10696584 -0.025516165 -0.32524812 0.042896155
-0.30387816 0.13211748 -0.67682284 -0.43085182 -0.3527095 0.5684951 -0.022244079 -0.80356175
-0.8885184 -0.1371612 -0.3389829 -0.4131223

fc2.weight f4 [10, 100]
00000000: 40ce f23e ca27 ce3e 7dd8 6b3d 2fb2 05bf
00000010: cace 35bf 0e7f 9abd 6c03 47bf 4b30 49bd
00000020: b1b3 023d fd33 e73e 3648 163e d340 6abc
00000030: fa8e 7abf 456a a63b 0b46 02be 647c 90bf
00000040: dc6d 06be fab4 573e d6a6 b53e 2bfc cebe
00000050: 0c7f b23c aff3 78bf 1bcd df3c 5277 34be
00000060: b694 ef3c 6738 e5bd 2a41 6cbd 7d0e 0cbf
00000070: 9c0b 02bf 53de 5fbf 33a1 ea3e c795 233d
00000080: 0b95 0fbe fbbf 47be 46e9 b9bd 01ce 1fbf
00000090: c54e 7cbe 26ef f2bc ca54 60bf 4130 37be
000000a0: 264c a63d 67ce e33e 74eb 89bd 7428 d43e
000000b0: 6e42 3bbf ae2d a9bc fc49 cebd d5c5 4bbf
000000c0: 1a85 9c3e 9349 f3be 0781 413d 6666 f4be
000000d0: 6891 c3be e363 0abf c76b c9bd 497e 2cbf
000000e0: 0436 08be 5576 2fbe 8b48 21bf 77e5 77be
000000f0: a80f 22bf d36e 03bf 8193 1dbf ced5 45be
00000100: ab7e ba3e ca04 afbf 136d 83bc 1b76 00bf
00000110: de9e 53be e076 43be 65d4 acbe 1938 fabc
00000120: 1552 5e3c c51e 15be 8df9 173f c266 c33b
00000130: d703 e33c 15e2 90be d50f 89ba 5e2c 18be
00000140: 1ec6 e2be 03f3 c2bc fbda 733e 36c8 d83e
00000150: b05f c0be 0f3a 3bbd 958a d93e 0351 83be
00000160: 1d7c 22bc 797e f53e 2a49 c33c 8ea8 84be
00000170: 4ab2 abbe b24a 75be ab80 9cbe af3c 90bd
00000180: b074 e4be db5e c73d 7d99 d8be 0b2c 1ebe
00000190: 743a 193f 48a4 dabd b1ea 92bc c781 9bbe
000001a0: 72d2 513f 096a ecbc 4356 0a3e e5d7 443b
000001b0: 5b9e 35bf afd6 2b3e b451 2fbe 1898 dc3c
000001c0: 69b7 e03c c929 933c da39 ed3e 8fef bd3e
000001d0: 2003 f0bd 5e79 1b3d 728e 033f 30e9 65be
000001e0: f2cc 023d 0089 1f3f cd01 c5bd 1774 bcbe
000001f0: 7b6b 8dbc 4401 dcbc f0ad 413e dbd5 723e
00000200: f032 1fbf 552a 643f 36f6 37be ed4c 1a3d
00000210: 5cf1 933d b260 763e f687 7dbe ea5d 2ebe
00000220: 0bf4 a8be 118f c9bc 9727 c53e 046a 65be
00000230: bf76 f5bd 8033 c9be ce0b 9c3c f097 303f
00000240: f674 b0be c20f 09bc 7a08 5b3c d958 1cbf
00000250: cff3 c2bd a691 47be 5825 93be 7ae3 8d3e
00000260: 0999 adbd 5577 5abf 9882 62be 9a36 05bf
00000270: b808 6dbe 5ddd f5be b9a8 08bf 8c68 bfbe
00000280: 8dbb 94be 0f97 b5be 060b de3e 951f 18bf
00000290: 8355 e93e 92d2 e33d 8560 e8bd b4e0 a7be
000002a0: ddb2 ad3e abd1 d6bd 99b0 bcbd 8ebf 683d
000002b0: 2d5d e9bc 8818 09bd 921c 3bbf 1264 073d
000002c0: c237 adbe e179 a9bf 8a4b b83d 8e20 43be
000002d0: dcb1 1abf 81fd 7abd b893 0fbf a30f 6bbf
000002e0: 9349 98bc d796 98bc c29e 10bf 97cc d33d
000002f0: 1fac 2cbf af84 c7be 3cb9 8abe 1801 d03e
00000300: 8510 30be 93ba 743d 5b11 94be 7eac 9abd
00000310: cb72 f8be a451 f63d 1f20 90bd 5d5c b93d
00000320: 61cc 9fbf 0d7b fcbe 3a0d 11bd eed2 f9be
00000330: a994 93be f71d 7e3c 08a1 cd3c deb8 b9bd
00000340: 3c2b d9be 2189 3a3e 131b 0ebd 4802 d6bc
00000350: 0ae0 b7be 8462 19be 665c 07be acbb 5dbe
00000360: f2ad 34bf 24fc 11bd 4cc8 ea3e edb4 0e3f
00000370: 3ae0 0bbd 41f7 953e 15ef 623c 15ed 2fbd
00000380: 6634 c83d ea0c 873e 3517 aa3c cebd 193f
00000390: 9625 823e febb 2cbe 24d4 013e 8616 78bd
000003a0: a4f6 d13c 998a 03bf c833 6bbe a75c 35be
000003b0: 54e9 3a3c 9a9e 0b3d 9caf d0be e92b 0a3e
000003c0: 63a8 23bc e59a 2abd 784a 5e3d f32f 13bf
000003d0: 20ec 613e 947a 8bbd 0f57 5cbd 2905 2bbf
000003e0: f33a 3fbe 133b e6be a51d 923e 649c 84be
000003f0: 164a 913e 85e4 49be 3d7d 1abf d008 113f
0.4742298 0.40264732 0.057579506 -0.5222501 -0.7101866 -0.07543765 -0.77739596 -0.04911832
0.03190965 0.4515685 0.14675984 -0.014297682 -0.97874415 0.0050785863 -0.12722032 -1.1287961
-0.13127846 0.21065131 0.35478848 -0.40426764 0.021789096 -0.9724683 0.027319482 -0.17623642
0.029245716 -0.111923985 -0.057679333 -0.5470961 -0.50798965 -0.87448615 0.4582611 0.03993776
-0.14021699 -0.19506828 -0.090776965 -0.6242371 -0.24639423 -0.02965505 -0.8762938 -0.17889501
0.08119993 0.4449341 -0.06734362 0.41437113 -0.7314824 -0.020651665 -0.10072705 -0.7959874
0.30570298 -0.4751707 0.04724219 -0.47734374 -0.38196874 -0.54058665 -0.0983501 -0.67380196
-0.13301855 -0.17134984 -0.63001317 -0.24208628 -0.6330514 -0.5134098 -0.615532 -0.19319841
0.36424765 -1.3673337 -0.016043222 -0.50180215 -0.20666072 -0.19088316 -0.33755794 -0.030544328
0.013569375 -0.14562519 0.5936516 0.0059631774 0.027711792 -0.28297487 -0.0010456989 -0.14860675
-0.44291776 -0.023797518 0.23814003 0.4234025 -0.37573004 -0.045709666 0.42488542 -0.25647745
-0.009917286 0.47948053 0.023838598 -0.25909847 -0.3353446 -0.23954275 -0.30566916 -0.070428245
-0.44620275 0.09734889 -0.42304602 -0.15446489 0.5985482 -0.106758654 -0.017934175 -0.3037245
0.8196174 -0.028859155 0.13509469 0.003003591 -0.70944756 0.16781114 -0.17121011 0.026927993
0.027431207 0.01796426 0.463332 0.3709683 -0.11719346 0.03795754 0.5138923 -0.22452235
0.031933732 0.6231842 -0.09619484 -0.3680732 -0.017263165 -0.026856072 0.18914008 0.23714392
-0.621871 0.89127094 -0.17965016 0.03767102 0.0722377 0.24060324 -0.24758896 -0.17028013
-0.3299869 -0.024604352 0.38506767 -0.22403723 -0.1198554 -0.39297104 0.019048598 0.6898184
-0.34464234 -0.008365573 0.01336872 -0.6107307 -0.09519159 -0.19489154 -0.2873943 0.27712613
-0.08476455 -0.85338336 -0.2212013 -0.5203644 -0.23147857 -0.4802045 -0.5338245 -0.3738445
-0.2904934 -0.3546681 0.43367785 -0.5942319 0.45573053 0.111241475 -0.11346535 -0.32788622
0.33925524 -0.1048921 -0.09213371 0.056823306 -0.028486812 -0.03347066 -0.7309047 0.03305442
-0.33831602 -1.324032 0.08998783 -0.19055387 -0.6042764 -0.061276916 -0.56084776 -0.91820735
-0.01858977 -0.018626614 -0.56492245 0.10341757 -0.67450136 -0.38968417 -0.27094448 0.40625834
-0.17193802 0.059748244 -0.2891949 -0.075524315 -0.4852508 0.120272905 -0.070373766 0.0905082
-1.2484246 -0.4931263 -0.035413004 -0.4879374 -0.28824356 0.015510074 0.0251012 -0.09068464
-0.42415798 0.18216373 -0.03469379 -0.026124135 -0.35913116 -0.14978987 -0.13218841 -0.21653622
-0.7057792 -0.03564085 0.4585594 0.5574482 -0.034149386 0.29290202 0.013850947 -0.04295071
0.09775619 0.2637704 0.02076302 0.60055244 0.254193 -0.16868588 0.12678581 -0.060568355
0.025630303 -0.5138336 -0.22968972 -0.17711125 0.011408169 0.0340868 -0.4075898 0.13493313
-0.009988877 -0.041651625 0.054270238 -0.5749504 0.22062731 -0.06810489 -0.053793963 -0.6680475
-0.18674831 -0.44966945 0.28538242 -0.25900567 0.28376836 -0.1971608 -0.6034735 0.5665407

fc2.bias f4 [10]
00000000: 5746 37be 6291 293f 245e eabe 605e 263e
00000010: 8d40 a0bd d1c7 babd 6a68 79bf dcf1 ffbe
00000020: 4cae 953f d4af 32be
-0.17897926 0.6623746 -0.4577495 0.16246939 -0.07824812 -0.09120143 -0.9742495 -0.49989212
1.1693816 -0.17449886
