dev_code/playground/lightning_test/lightning_cnn_mnist.pt (torch, 214855 bytes, 8 tensors)

conv1.weight f4 [10, 1, 3, 3]
0	0x3da84b0f	0.08217441
1	0x3f08fec9	0.5351377
2	0x3f091d05	0.53559905
3	0x3df7fd53	0.12108865
4	0x3dcca52c	0.099924415
5	0xbe5ee24b	-0.21766011
6	0xbf38ea43	-0.72232455
7	0xbf217112	-0.63063157
8	0xbeb49be2	-0.3527518
9	0x3e808418	0.2510078
10	0xbd843d7d	-0.064570405
11	0xbfe32961	-1.7747003
12	0xbeecdc06	-0.46261615
13	0xbf886d54	-1.0658364
14	0xbf33cbe5	-0.70232993
15	0xbff01874	-1.8757463
16	0xbf821e95	-1.0165583
17	0xbe6b0103	-0.22949605
18	0xbf2bcc03	-0.6710817
19	0xbe273344	-0.1632815
20	0xbf3701be	-0.71487033
21	0xbe429177	-0.19000803
22	0xbf847b44	-1.0350118
23	0xbf279d78	-0.65474653
24	0xbeba9df3	-0.3644863
25	0x3d4b128f	0.049578246
26	0x3f100c5b	0.5626885
27	0xbeb10645	-0.34575096
28	0xbe3af87c	-0.18258852
29	0xbe17d43e	-0.14827058
30	0xbdd42e99	-0.1036045
31	0xbe2b0873	-0.16702442
32	0x3e2e5bdd	0.1702723
33	0x3d67de4d	0.056608487
34	0xbd2c34e5	-0.04204263
35	0xbd22b182	-0.039720066
36	0xbf637e58	-0.8886466
37	0xbf2d3ca2	-0.67670643
38	0xbd68cf99	-0.056838606
39	0x3de4af9b	0.111663066
40	0x3f3955d9	0.7239662
41	0x3e939da1	0.288312
42	0xbeb2edd3	-0.3494707
43	0xbf882b0b	-1.0638136
44	0xbf0491f1	-0.5178519
45	0x3e2d4b39	0.16923226
46	0xbe9c1441	-0.30484203
47	0xbf89e0ab	-1.0771688
48	0x3ead6c85	0.33871856
49	0x3e2286d9	0.15871753
50	0xbe0b70fe	-0.13617322
51	0xbd17c72a	-0.037055172
52	0x3ed80cd2	0.4219728
53	0x3ed89564	0.42301476
54	0x3f03e197	0.515161
55	0x3e96aba4	0.29427826
56	0xbf5d0c22	-0.8634664
57	0x3e5d643b	0.21620266
58	0x3e4740d4	0.19458324
59	0xbf2253c7	-0.63409084
60	0x3e5f3e78	0.21801174
61	0xbf0f4a53	-0.55972785
62	0xbeaef4aa	-0.3417104
63	0xbe5ebdcf	-0.21752094
64	0xbf386a62	-0.7203733
65	0x3e58b01f	0.21160935
66	0xbf6a1fd4	-0.91454816
67	0x3d3145cb	0.04327945
68	0x3f16a5aa	0.58846533
69	0x3d444baf	0.04792374
70	0x3d6be685	0.057592887
71	0xbc4dff93	-0.012573141
72	0xbebaa081	-0.3645058
73	0xbdf71dbd	-0.12066219
74	0x3f339a00	0.7015686
75	0xc00cba5b	-2.1988742
76	0xbf3ef7a8	-0.74596643
77	0x3e486ef4	0.19573575
78	0x3e0cf493	0.13765173
79	0xbf439da6	-0.7641243
80	0xbf4a0a46	-0.78921926
81	0xbe76e1d5	-0.24109586
82	0xbe18f841	-0.14938451
83	0xbe90d792	-0.28289467
84	0x3d4a5abd	0.04940294
85	0xbd86cf22	-0.06582476
86	0x3e329142	0.17438224
87	0x3e253bab	0.16136043
88	0xbe03884f	-0.12844966
89	0xbdb43b7f	-0.088004105

conv1.bias f4 [10]
0	0xbe6d685f	-0.23184346
1	0x3dd3623a	0.103214696
2	0xbe0d4b18	-0.13798177
3	0xbea3f248	-0.32020783
4	0xbe2c2a73	-0.16813068
5	0xbec6b510	-0.38810015
6	0xbeaf54ea	-0.34244472
7	0xbe479bc0	-0.19493008
8	0xbe259f28	-0.16173995
9	0xbe9477a3	-0.28997526

conv2.weight f4 [20, 10, 3, 3]
0	0xbe754564	-0.23952252
1	0xbf0bbded	-0.5458668
2	0xbf0e2f5c	-0.55541015
3	0xbef54b89	-0.4790919
4	0xbedf665f	-0.4363279
5	0xbf03af2b	-0.5143916
6	0xbe8167a8	-0.25274396
7	0xbecd1f7f	-0.40063092
8	0xbec7099a	-0.38874513
9	0xbe5c2946	-0.2150012
10	0xbe8bdde2	-0.2731772
11	0xbe674470	-0.225847
12	0xbe87503c	-0.264284
13	0xbe49ca8c	-0.19706172
14	0xbe45cafd	-0.19315715
15	0xbe8f36d4	-0.27971518
16	0xbe1368cf	-0.1439545
17	0xbe5071d9	-0.2035593
18	0xbec07cab	-0.37595114
19	0xbebb5769	-0.36590126
20	0xbe851fa5	-0.26000705
21	0xbebe3d3b	-0.3715609
22	0xbe93c547	-0.28861448
23	0xbe78e3ce	-0.2430565
24	0xbe7b7054	-0.24554569
25	0xbe52a571	-0.20570923
26	0xbebcb2f8	-0.36855292
27	0x3d08e2b1	0.033419315
28	0x3cc97bc5	0.02459515
29	0x3c7b2dd7	0.015330753
30	0xbe250e87	-0.16118823
31	0xbdacae07	-0.084316306
32	0x3d0693ca	0.032855786
33	0xbd949491	-0.07254899
34	0xbc1741fc	-0.0092320405
35	0x3c350adf	0.011049955
36	0xbecd74f8	-0.40128303
37	0xbec97c54	-0.39352667
38	0xbedf5c03	-0.43624887
39	0xbeb78fc7	-0.3585188
40	0xbed47f68	-0.41503453
41	0xbe9ac489	-0.3022807
42	0xbe4836a3	-0.19552092
43	0xbec82722	-0.39092356
44	0xbef206b7	-0.47270748
45	0xbdb59061	-0.08865429
46	0xbecc0962	-0.3985091
47	0xbecca614	-0.39970458
48	0xbe219082	-0.15777782
49	0xbf0372d8	-0.5134711
50	0xbede9fa2	-0.43481165
51	0xbd67c296	-0.056582056
52	0xbd288699	-0.041143987
53	0xbda7147f	-0.08158206
54	0xbcd25447	-0.025674952
55	0xbe89aa64	-0.2688781
56	0xbeed7bfe	-0.4638366
57	0xbe0f6b12	-0.14005688
58	0xbe56a18c	-0.20960063
59	0xbeb4aeec	-0.35289705
60	0xbe050c49	-0.12992968
61	0xbec4e31b	-0.38454518
62	0xbedc6ed3	-0.43053302
63	0xbe9886c2	-0.29790312
64	0xbeafebbd	-0.34359542
65	0xbe4962b2	-0.19666556
66	0xbe9a0510	-0.30081987
67	0xbecd4b46	-0.40096492
68	0x3cb364d7	0.02189867
69	0xbe9f69b3	-0.3113533
70	0xbedcee26	-0.43150443
71	0x3d052da3	0.032514226
72	0xbe8fadfb	-0.28062424
73	0xbeb8a90b	-0.3606647
74	0xbed98842	-0.4248677
75	0xbeac83e1	-0.33694366
76	0xbea4e6d0	-0.32207346
77	0xbe6ad37a	-0.22932234
78	0xbe7e3da8	-0.24828207
79	0xbeb3253c	-0.34989345
80	0xbe8e8026	-0.27832144
81	0x3bdfb96b	0.0068275235
82	0xbd6d4a98	-0.057932466
83	0x3d290ef8	0.04127404
84	0xbdd8896c	-0.10573086
85	0xbd3fdc55	-0.046840984
86	0xbd8eb8a8	-0.06968814
87	0xbdb594c2	-0.08866264
88	0xbdae9068	-0.08523637
89	0xbd5bdebd	-0.053679217
90	0x3cd7943f	0.026315806
91	0x3d1bb5ca	0.038015164
92	0xbdc2105f	-0.09475779
93	0xbd4abfd7	-0.04949936
94	0xbe0c8d2b	-0.13725726
95	0x3d04794c	0.03234224
96	0xbe0630b9	-0.13104524
97	0xbd4bc36f	-0.049746927
98	0xbe01b8ad	-0.12668104
99	0xbdbf4783	-0.09339812
100	0xbe236e6c	-0.15960091
101	0xbdc1791f	-0.0944693
102	0x3d062208	0.0327473
103	0xbcb5caa2	-0.02219135
104	0xbd2b4116	-0.041810118
105	0xbdc3ee5e	-0.09566949
106	0xbe183e43	-0.14867501
107	0x3bcb0cf5	0.006196613
108	0xbdb25162	-0.08706929
109	0xbdac9ed8	-0.084287345
110	0xbe1212d9	-0.14265002
111	0xbd547a44	-0.051874414
112	0xbb434e56	-0.002980133
113	0xbd168eed	-0.0367574
114	0xbdeb384d	-0.11485348
115	0xbc85dcc6	-0.016340625
116	0xbe20adb7	-0.15691267
117	0xbdab6035	-0.083679594
118	0xbe07056d	-0.13185664
119	0xbd186b4e	-0.03721171
120	0x3d172740	0.036902666
121	0x3dabc798	0.08387679
122	0x3d528b6a	0.051402487
123	0x3dcf7a64	0.10130766
124	0xbdf51b60	-0.11968112
125	0x3b876c80	0.0041328073
126	0xbda77548	-0.081766665
127	0xbc8cdd69	-0.01719542
128	0x3c7ff7bc	0.015623029
129	0x3bd8bcaa	0.0066142874
130	0x39f92bb2	0.00047525537
131	0xbd9f9dfa	-0.077938035
132	0xbc0ca267	-0.008583642
133	0x3c778204	0.015106682
134	0xbdac677c	-0.084181756
135	0x3cbd1f73	0.023086285
136	0xbd9eaa6a	-0.07747348
137	0xbe246be2	-0.16056779
138	0xbb821c73	-0.0039706766
139	0xbd390dc0	-0.04517913
140	0xbc36a655	-0.011148055
141	0xbc7ebdf9	-0.015548223
142	0xbe228691	-0.15871646
143	0xbcdffaeb	-0.027341327
144	0xbd86e902	-0.065874115
145	0xbe053618	-0.13008916
146	0xbe0f3d5b	-0.13988249
147	0xbdbb1ede	-0.09136747
148	0xbe236db6	-0.1595982
149	0x3d2d8845	0.042366285
150	0xbdd298b9	-0.10283036
151	0xbe0d3d24	-0.13792855
152	0xbca980af	-0.020691244
153	0xbdd8d789	-0.10587985
154	0xbe0c5c04	-0.13706976
155	0x3d36053d	0.04443859
156	0xb9bf9f07	-0.00036548843
157	0x3c749432	0.014927911
158	0xbd5e140f	-0.054218348
159	0x3d3d16bb	0.046164256
160	0x3cffc188	0.031220213
161	0xbd9357b2	-0.07194461
162	0xbd7fa7e6	-0.06241598
163	0xbb86387b	-0.0040960885
164	0xbd2fb97a	-0.042901494
165	0xbcff21d2	-0.031144056
166	0xbe0bfd8a	-0.13670936
167	0xbe0e3466	-0.13887176
168	0xbe1ed783	-0.15511899
169	0xbd8cea80	-0.06880665
170	0x3b87b07e	0.0041409126
171	0x3d3567bf	0.044288393
172	0xbe245a15	-0.16049989
173	0x3dba6865	0.09101943
174	0x3de8ed66	0.11373405
175	0x3de02ea1	0.10946394
176	0xbc3d9915	-0.011572142
177	0xbe2202cf	-0.15821384
178	0xbd53a8cc	-0.05167465
179	0x3dca0a97	0.09865301
180	0x3f48ebb9	0.78484684
181	0x3e27c99a	0.16385499
182	0xbf29803b	-0.6621129
183	0xbfce967e	-1.6139677
184	0xbf612aaf	-0.87955755
185	0x3d869d7a	0.06573005
186	0x3e20fcbe	0.15721413
187	0xbd263211	-0.04057509
188	0xbedbef44	-0.42955983
189	0x3ea1f495	0.31631914
190	0xbf2a40c9	-0.66505104
191	0xc001aa04	-2.026002
192	0x3f0db23f	0.55350107
193	0xbf89b5ae	-1.0758569
194	0xbd7dff51	-0.062011067
195	0x3f04adc5	0.5182765
196	0x3e834e2f	0.25645587
197	0xbe1535e5	-0.1457134
198	0xbf67e0b9	-0.90577275
199	0x3deb38fc	0.11485478
200	0xbf65a626	-0.8970665
201	0x3ec03ee7	0.3754799
202	0x3f3f2102	0.7465974
203	0xbfe29a74	-1.7703385
204	0x3e732ae0	0.23746824
205	0xbc662d9b	-0.014048959
206	0xbecbe7a1	-0.39825156
207	0xbc9f90fc	-0.019478314
208	0x3c90f1c4	0.017693408
209	0x3d4b877e	0.049689762
210	0x3d9c7bc3	0.07640793
211	0xbd069cd0	-0.03286439
212	0x3dd2163b	0.102581464
213	0xbbc27ff0	-0.0059356615
214	0x3c35a618	0.011086963
215	0xbb18d460	-0.0023319945
216	0x3e6fe6e2	0.23427919
217	0x3f0752eb	0.528609
218	0xbe3c01f1	-0.18360116
219	0xbe95f1da	-0.2928608
220	0x3ea504a3	0.322301
221	0xbd88a59b	-0.06672212
222	0x3e9194f4	0.28433955
223	0xbe5efcab	-0.21776073
224	0xbe5dfa35	-0.21677478
225	0xbfbf2dc9	-1.4935848
226	0xbe18df24	-0.14928871
227	0x3de17788	0.11009127
228	0x3cd98d70	0.0265567
229	0xbec6a1bc	-0.3879527
230	0xbc8b80e7	-0.017029239
231	0xbe8875df	-0.26652429
232	0xbf0fbb62	-0.561453
233	0xbeaf9a9c	-0.34297645
234	0xbe1f825b	-0.1557707
235	0xbf8f1df2	-1.1181014
236	0xbddbac97	-0.10726278
237	0xbfd9ddd1	-1.7020818
238	0x3f4d3439	0.8015781
239	0x3f0e8126	0.55665815
240	0xbf44d7d3	-0.7689182
241	0xbeb4b921	-0.35297492
242	0x3f29dc9d	0.66352254
243	0xbe2cf66b	-0.16890876
244	0x3f1226d3	0.5709049
245	0x3d908cbe	0.070580944
246	0x3ebc14b4	0.36734545
247	0x3f01805f	0.50586504
248	0xbf444518	-0.7666793
249	0xbd56190e	-0.052269988
250	0xbcb22c6c	-0.021749698
251	0xbfdfa1a1	-1.74712
252	0x3ed492c8	0.41518235
253	0x3e42d822	0.1902776
254	0xbfbc74cb	-1.4723142
255	0x3d8dbed3	0.069211625

conv2.bias f4 [20]
0	0xbe358d24	-0.17729622
1	0xbe0e87d7	-0.13919006
2	0x3e63c694	0.2224372
3	0xbda74b11	-0.08168615
4	0xbe1529f1	-0.1456678
5	0xbea2b0d5	-0.31775537
6	0xbe17760c	-0.14791125
7	0xbd604a96	-0.05475863
8	0xbe93419d	-0.28760996
9	0xbe1102e5	-0.1416126
10	0xbdaa7f34	-0.08325043
11	0x3e060f7f	0.13091849
12	0xbeb49a48	-0.35273957
13	0x3d011ec5	0.031523485
14	0xbee1d8ab	-0.44110617
15	0xbe07dd10	-0.13267922
16	0xbead11c8	-0.3380263
17	0xbd8e89c6	-0.06959872
18	0xbe9c60f4	-0.3054272
19	0xbdd96725	-0.106153764

fc1.weight f4 [100, 500]
0	0x3bedcb20	0.0072568804
1	0xbc833629	-0.016017037
2	0xbd1deb57	-0.038554516
3	0xbdb3c236	-0.08777277
4	0x3a46f6c0	0.0007589869
5	0xbd9cddba	-0.076594785
6	0xbc824fb0	-0.015907139
7	0xbc811346	-0.01575626
8	0xbd3524ac	-0.044224426
9	0xbdd48909	-0.103777
10	0x3d2e4a99	0.04255161
11	0xbcb9b611	-0.022669824
12	0xbca92b37	-0.02065049
13	0x3bf1a218	0.0073740594
14	0xbd6846fd	-0.056708325
15	0x3d2f3c17	0.042781916
16	0xbd1635b6	-0.036672316
17	0xbb750390	-0.0037386157
18	0x3c6cd708	0.014455564
19	0xbd94870d	-0.072523214
20	0xbc0e5cbc	-0.008689102
21	0xbdaedb51	-0.08537925
22	0xbced0cac	-0.028936706
23	0xbdc16b02	-0.09444238
24	0xbd0db6a2	-0.034598
25	0xbce4bb80	-0.027921438
26	0xbc82a932	-0.01594982
27	0xbcedd98b	-0.029034397
28	0xbc985704	-0.01859618
29	0x3c86331c	0.016381793
30	0x3c268948	0.010164566
31	0x3a8d2900	0.0010769665
32	0x3d022aad	0.03177898
33	0xbcf3e42a	-0.029771883
34	0xbaf7cc00	-0.0018905401
35	0x3c2403e8	0.010010697
36	0x3d1351f5	0.035966832
37	0xbcb9e9dc	-0.02269452
38	0xbd657986	-0.056024097
39	0xbc9d6b42	-0.019216184
40	0xbc99947e	-0.018747564
41	0xbd168d9d	-0.036756147
42	0xbda86ec9	-0.082242556
43	0xbd9075b5	-0.07053701
44	0xbcbb0279	-0.022828327
45	0xbb4d4cd0	-0.0031326301
46	0xbc55f744	-0.013059441
47	0x3ca0b03e	0.019615289
48	0x3d0f869f	0.035040494
49	0x3d275af9	0.040858243
50	0x3d2693df	0.040668365
51	0x3ba23280	0.0049498677
52	0x3b810c40	0.003938228
53	0xbbcc8e70	-0.006242566
54	0xbd0f453e	-0.034978144
55	0xbbf2dd70	-0.0074116513
56	0xbbae8498	-0.005325865
57	0x3d16a7f9	0.036781285
58	0x3cecb7c6	0.028896224
59	0xbc82e20a	-0.015976924
60	0xbd20ac9e	-0.03922712
61	0x3cd19f36	0.025588613
62	0x3cea67a6	0.028613877
63	0xbcad598b	-0.021160861
64	0x3c9b652a	0.018969137
65	0x3d2e8467	0.042606737
66	0xbcfdd132	-0.030983541
67	0xbcd0a9b0	-0.025471538
68	0x3c972e0a	0.01845457
69	0x3cad7c66	0.021177482
70	0xbd1ddc31	-0.03854007
71	0x3c9eca86	0.01938368
72	0xbc9b44dc	-0.018953733
73	0x3c951956	0.018200558
74	0xbca7a8ef	-0.020466296
75	0xbd0e0e5f	-0.034681674
76	0x3c7dacf0	0.015483126
77	0xbd852ba8	-0.065024674
78	0xbcaab575	-0.020838479
79	0xbd97851e	-0.07398437
80	0xbd08e34c	-0.033419892
81	0xbd1a2481	-0.03763247
82	0xbd5b8811	-0.05359656
83	0xbd1d4f01	-0.038405422
84	0xbd1f2ed0	-0.038863003
85	0xbd848cbd	-0.06472156
86	0xbd807d1e	-0.06273864
87	0xbdbb13de	-0.09134649
88	0xbd880b87	-0.06642824
89	0xbcbf812b	-0.023377022
90	0x3cb981ce	0.022644904
91	0xbd1e4c5d	-0.038647044
92	0x3ba0f880	0.004912436
93	0xbcef8731	-0.029239269
94	0x3d345665	0.044027705
95	0xbdc8971e	-0.09794448
96	0xbd890e42	-0.066921726
97	0x3d21cf43	0.0395043
98	0xbdd32fad	-0.10311828
99	0xbca7315a	-0.020409275
100	0x3d0a16f7	0.033713307
101	0x3d159d6f	0.036527093
102	0xbcaa654e	-0.020800259
103	0xbcc976ef	-0.024592845
104	0x3ca91cb6	0.020643573
105	0x3cbe8d3a	0.023260701
106	0x3ce1eae6	0.027577829
107	0x3a84cb00	0.00101313
108	0x3c046e30	0.008082911
109	0xbc24a60c	-0.010049354
110	0xbd17286a	-0.036903776
111	0xbd07d1ed	-0.033159185
112	0x3cb86666	0.022509765
113	0x3b7bff30	0.0038451664
114	0x3bdfbb60	0.0068277568
115	0x3c598da4	0.013278399
116	0xbc9c3405	-0.019067774
117	0x3cd6b06a	0.026207168
118	0xbd0d6577	-0.034520593
119	0x3c626ac8	0.013819404
120	0x3c9dfc86	0.019285452
121	0x38ea6600	0.000111769885
122	0xbcee686a	-0.029102523
123	0x3c1161ec	0.008873444
124	0x3c4c0ed4	0.012454707
125	0xbcc62232	-0.024186227
126	0xbd8cf04d	-0.06881771
127	0xbd01da9f	-0.031702634
128	0xbd345731	-0.044028465
129	0xbd614d9b	-0.05500565
130	0xbdd51d30	-0.10405958
131	0xbdd350ba	-0.10318132
132	0xbd00427f	-0.031313416
133	0xbd3eb63d	-0.046560515
134	0xbcc9e1fd	-0.024643892
135	0xbd712df6	-0.058881722
136	0xbd8bb10a	-0.06820877
137	0xbd51b1e0	-0.051195025
138	0xbd0e9703	-0.034811985
139	0xbd901efb	-0.07037159
140	0xbd617f0b	-0.0550528
141	0xbcb742e1	-0.022370758
142	0xbce95416	-0.028482478
143	0xbd3aeb07	-0.045634296
144	0xbd9f0558	-0.07764691
145	0xbd1b19be	-0.037866347
146	0xbd9b72ed	-0.0759028
147	0xbd95f16e	-0.0732144
148	0xbd83c36d	-0.06433759
149	0xbcacad16	-0.021078628
150	0x39ea6900	0.0004471019
151	0xbdaaac37	-0.083336286
152	0xbda2ce4f	-0.079495065
153	0xbca14f92	-0.019691262
154	0xbd9bff6c	-0.07617077
155	0x3ca25d3e	0.019819852
156	0xbd341bdc	-0.04397188
157	0xbcaef373	-0.02135632
158	0x3d1068e1	0.03525627
159	0xbd2969fc	-0.04136084
160	0xbd99230a	-0.07477386
161	0xbd108a19	-0.03528795
162	0xbd913517	-0.07090204
163	0xbd9e9187	-0.07742601
164	0x3cfaf452	0.03063408
165	0x3c4d6b74	0.012537826
166	0x3d1818bd	0.037132967
167	0xbd1f1d97	-0.03884658
168	0xbd229910	-0.039696753
169	0xbc2a5e6c	-0.0103984885
170	0x3d02a9ad	0.031900097
171	0xbd7ac8b4	-0.06122656
172	0x3d31e7b3	0.043433856
173	0x3b5a87d0	0.003334511
174	0x3bab1f08	0.005222205
175	0xbdaec64f	-0.08533918
176	0xbca9e151	-0.020737322
177	0xbdacb07e	-0.08432101
178	0xbd3e9885	-0.046532173
179	0xbd80ad49	-0.062830515
180	0xbd0600ab	-0.03271548
181	0xbdd4e2ee	-0.10394846
182	0xbd08da82	-0.03341151
183	0xbdd5ea01	-0.10445023
184	0xbd879893	-0.06620898
185	0xbd938e0f	-0.0720483
186	0xbc9ab723	-0.018886155
187	0xbd3d9245	-0.04628207
188	0xbd8f7099	-0.07003898
189	0xbdce9ba0	-0.10088277
190	0x3c5d100c	0.013492595
191	0xbcab9332	-0.020944212
192	0xbd24152e	-0.04005926
193	0x3b86af10	0.0041102245
194	0xbd9bfca4	-0.07616547
195	0xbd8d5e33	-0.06902733
196	0xbca27bab	-0.01983436
197	0x3d0bc5dd	0.034124244
198	0xbdc84ed5	-0.09780661
199	0xbd8f01fd	-0.06982801
200	0xbd4143b0	-0.047183692
201	0xbd8026a8	-0.06257373
202	0xbd600fe5	-0.05470266
203	0xbcfd915b	-0.0309531
204	0xbdba94af	-0.091103904
205	0xbdaea1eb	-0.08526977
206	0xbd9e7c3b	-0.07738539
207	0xbd62eeeb	-0.05540363
208	0xbd13c614	-0.036077574
209	0x3d355bb9	0.044276927
210	0xbdb5918b	-0.08865651
211	0xbcb56bf7	-0.022146208
212	0xbd0c4063	-0.03424109
213	0xbced618a	-0.028977174
214	0xbd1dfb06	-0.038569473
215	0xbdcb7924	-0.09935215
216	0xbd948b60	-0.07253146
217	0xbd89c0d4	-0.06726232
218	0x3b2d8b90	0.002648089
219	0x3d312ac1	0.043253664
220	0xbd093f74	-0.03350778
221	0xbc8b5747	-0.01700939
222	0xbd42cb22	-0.047557004
223	0x3ccd860a	0.025088329
224	0xbc87824e	-0.016541626
225	0xbc7553aa	-0.01497356
226	0x3ca6b5f2	0.02035043
227	0xbd1e1a61	-0.038599376
228	0x3bf706e8	0.007538665
229	0xbc0901c8	-0.008362241
230	0xbbdbcf10	-0.0067080334
231	0x3d03cc81	0.032177452
232	0x3d1f99fd	0.038965214
233	0xbd3690fd	-0.044571865
234	0xbd0ef0cd	-0.034897614
235	0xbbd95f98	-0.00663371
236	0xbcce6790	-0.025195867
237	0xbcf72cbc	-0.030172698
238	0xbc104b50	-0.008807018
239	0x3c8cd4d2	0.017191324
240	0x3d2abba5	0.041682858
241	0xbb3c9140	-0.00287731
242	0x3c26395c	0.0101455115
243	0x3cde825e	0.027161773
244	0xbd1a09ef	-0.03760713
245	0x3bc8eb08	0.0061315335
246	0xbd2a174d	-0.041526128
247	0xbcd49f3b	-0.025954833
248	0xbd2862b9	-0.041109774
249	0xbbd8a2c0	-0.006611198
250	0xbc9bd497	-0.01902227
251	0xbcb0d75b	-0.021587064
252	0xbdc220dd	-0.094789244
253	0xbd0e2b15	-0.034709055
254	0xbd96999b	-0.07353517
255	0xbd2c8666	-0.04212036

fc1.bias f4 [100]
0	0xbd474c12	-0.04865653
1	0xbd1c1a16	-0.038110815
2	0xbd631503	-0.05543996
3	0xbe9941ab	-0.29932913
4	0xbd1166b5	-0.03549834
5	0x3e352fe2	0.17694047
6	0x3e802b81	0.2503319
7	0xbf056c69	-0.52118546
8	0xbed5723b	-0.41688713
9	0xbe59f9b8	-0.21286666
10	0xbdbed674	-0.093182474
11	0xbe7cdba3	-0.2469316
12	0xbe10c044	-0.14135844
13	0xbdb7befb	-0.089719735
14	0xbf44d730	-0.7689085
15	0xbdbead53	-0.09310403
16	0xbea2e342	-0.3181401
17	0xbf0a2d57	-0.53975433
18	0xbf047a1b	-0.5174882
19	0x3dd8108e	0.105500326
20	0xbef92f31	-0.48668817
21	0xbf22364f	-0.6336412
22	0xba6aafd6	-0.0008952593
23	0xbf3796f0	-0.7171469
24	0xbeae9b9e	-0.34103101
25	0xbebf1b9b	-0.3732575
26	0xbba21b4f	-0.004947103
27	0x3f18306e	0.594489
28	0xbd17e372	-0.037082143
29	0xbf385e88	-0.72019243
30	0xbf097b78	-0.53704023
31	0xbf2e545b	-0.68097466
32	0xbe903193	-0.28162822
33	0xbec732d4	-0.38905966
34	0xbeb5c965	-0.35505214
35	0xbdc2e872	-0.09516992
36	0xbcb1ef67	-0.021720601
37	0xbf52c66c	-0.8233402
38	0xbf03df26	-0.5151237
39	0xbf278254	-0.6543324
40	0xbf18705e	-0.5954646
41	0xbd3d4792	-0.046210833
42	0xbd6d96a2	-0.058004983
43	0xbdac6ce9	-0.084192105
44	0x3f46f10b	0.7771155
45	0xbe19a1e1	-0.15003158
46	0xbe610d2a	-0.21977678
47	0xbf06fef3	-0.5273277
48	0x3a7f8b54	0.00097482395
49	0xbf208a05	-0.627106
50	0xbd8e9e40	-0.069637775
51	0xbe7ff569	-0.2499596
52	0xbeb37bfd	-0.35055533
53	0xbdbeab32	-0.09309997
54	0xbf19fb58	-0.60149145
55	0xbf190717	-0.59776443
56	0xbdbc901d	-0.09207175
57	0xbe47de9e	-0.19518515
58	0xbf1eaa48	-0.6197858
59	0xbf034c75	-0.5128854
60	0xbcbc5233	-0.022988414
61	0x3b8de8c3	0.004330726
62	0xbf5c72ae	-0.8611249
63	0xbd674f3b	-0.056472044
64	0x3ee1ad6d	0.44077626
65	0xbd9bd3b2	-0.07608737
66	0x3e72a7df	0.2369685
67	0xbf10797f	-0.5643539
68	0xbec531f0	-0.38514662
69	0xbebe3f5b	-0.3715771
70	0xbdc0277f	-0.09382533
71	0xbe85ea2d	-0.26155224
72	0xbede3649	-0.4340079
73	0xbe793a83	-0.24338727
74	0x3f0318fc	0.5121
75	0xbd8e6abb	-0.06953951
76	0x3e7142ba	0.2356061
77	0xbdba3f0d	-0.09094057
78	0xbecb96bf	-0.39763448
79	0xbdd74043	-0.10510304
80	0xbdd27fda	-0.10278292
81	0xbdcaf389	-0.09909732
82	0xbca8575b	-0.020549467
83	0xbda57a92	-0.08080019
84	0xbd9e7cec	-0.07738671
85	0xbf3e7255	-0.74393207
86	0x3dbded51	0.0927378
87	0xbd9cb1ff	-0.076511376
88	0xbd4b82d1	-0.049685303
89	0xbf367fcd	-0.7128876
90	0x3e773c52	0.24144104
91	0xbebfac5c	-0.37436187
92	0x3d49eb02	0.049296387
93	0xbe9ab779	-0.30218104
94	0xbda03766	-0.078230664
95	0xbd9997e8	-0.07499677
96	0xbf2eb6b6	-0.68247545
97	0xbd82dc7c	-0.0638971
98	0xbf22c06c	-0.6357486
99	0xbeaef1df	-0.34168908

fc2.weight f4 [10, 100]
0	0xbd5bee30	-0.05369395
1	0xbdbe5802	-0.0929413
2	0xba878aa1	-0.0010340997
3	0xbf1d9163	-0.6154997
4	0x3e5a1156	0.21295676
5	0xbe9e440a	-0.30911285
6	0x3eaa20c7	0.33228132
7	0xbde61a80	-0.11235523
8	0x3f2aff6b	0.66795987
9	0xbee18b9c	-0.44051826
10	0xbbb36154	-0.005474249
11	0x3f1466d6	0.57969415
12	0x3b4ab1d0	0.0030928738
13	0xbcd52b12	-0.026021514
14	0xbdd4eb90	-0.103964925
15	0x3d91bdee	0.07116304
16	0x3e1af170	0.15131164
17	0xbe86dde7	-0.26341173
18	0xbe66b7d2	-0.2253106
19	0xbe5d0900	-0.21585464
20	0xbf2b5ba6	-0.6693672
21	0x3e404402	0.18775943
22	0xbddff3d3	-0.10935178
23	0xbef9b3d6	-0.48770016
24	0xbed4c0fe	-0.4155349
25	0xbe74e585	-0.2391568
26	0xbe0783bd	-0.13233848
27	0xbf8ef12d	-1.1167351
28	0xbc9b5c28	-0.018964842
29	0xbf0125bc	-0.50448203
30	0x3ea71664	0.3263427
31	0xbd3945af	-0.04523247
32	0xbf69c01a	-0.9130875
33	0xbe3ac710	-0.18239999
34	0x3d8d48f6	0.06898682
35	0x3baacc55	0.0052123466
36	0xbc676e24	-0.014125381
37	0xbf34492f	-0.7042417
38	0x3dcb6d5a	0.099329665
39	0x3f17d66f	0.59311575
40	0xbf01e09d	-0.5073336
41	0x3cea1606	0.028574955
42	0xbd74a382	-0.059726246
43	0xbfa81528	-1.3131456
44	0xbe13d4dd	-0.1443667
45	0xbd88ac59	-0.06673498
46	0xbf940d51	-1.1566564
47	0xbf0bf511	-0.54670817
48	0xbe0c2ced	-0.13689013
49	0x3c8b43a7	0.017000033
50	0x3da251b8	0.07925743
51	0xbefa1764	-0.4884597
52	0x3f2c3b58	0.6727805
53	0x3bed7ada	0.007247311
54	0x3e1796f4	0.14803678
55	0x3ef71438	0.48257613
56	0xbd5509b0	-0.05201119
57	0xbf701974	-0.9378884
58	0x3e317b94	0.17332298
59	0xbeb49c70	-0.35275602
60	0xbcd4a78f	-0.025958804
61	0xbf071069	-0.52759415
62	0xbf8d1d3c	-1.1024547
63	0xbcdc8bb0	-0.026922077
64	0xbe8ccb53	-0.27498874
65	0x3caebe22	0.021330897
66	0xbe4cde0f	-0.20006584
67	0x3eb8d100	0.36096954
68	0xbfabf988	-1.3435526
69	0xbee92e6c	-0.4554323
70	0x3c692f8e	0.014232529
71	0xbda2ae52	-0.07943405
72	0xbf36c4d3	-0.7139408
73	0xbedca9d0	-0.43098307
74	0x3e2f7d19	0.17137565
75	0xbd4785c2	-0.048711546
76	0xbf4774ea	-0.7791277
77	0x3bb115d2	0.0054042125
78	0xbf0c9c5b	-0.5492608
79	0x3dbfc148	0.09363037
80	0xbe07a084	-0.13244826
81	0xbd89006a	-0.06689532
82	0x3d223712	0.0396033
83	0x3c4e9688	0.012609132
84	0xbdf1aad6	-0.118001625
85	0xbf76f9f4	-0.9647515
86	0xbefff9d8	-0.49995303
87	0xbcc882d8	-0.024476454
88	0x3eee3d47	0.46531126
89	0xbf823640	-1.0172806
90	0xbf6e8966	-0.93178403
91	0x3e4433f0	0.19160438
92	0x3e355101	0.17706682
93	0xbf0701db	-0.52737206
94	0x3f40b804	0.75280786
95	0x3cb658a6	0.022259068
96	0xbe99afec	-0.3001703
97	0x3b5f1d6d	0.0034044639
98	0xbf04f989	-0.5194326
99	0xbf695106	-0.91139257
100	0xbda986c9	-0.08277661
101	0x3d1b7478	0.03795287
102	0x3b8dc097	0.004325937
103	0xbf604b7b	-0.87615174
104	0xbe1ef4d7	-0.15523086
105	0x3d93d077	0.07217496
106	0xbea26b0e	-0.317223
107	0xbf11e328	-0.5698724
108	0xbe43d2c1	-0.19123365
109	0x3f54dc4b	0.8314864
110	0xbcf21bc8	-0.029554263
111	0xbf248753	-0.6426899
112	0xbb22b1ff	-0.0024825332
113	0xbd071338	-0.032977313
114	0xbe0e5769	-0.13900532
115	0xbd00b07d	-0.031418312
116	0x3d860450	0.06543791
117	0xbec68cf4	-0.38779414
118	0xbf8435e4	-1.0328946
119	0x3ed5d18d	0.41761437
120	0xbec0cc55	-0.37655893
121	0xbe2d8cdf	-0.1694827
122	0x3d89fe59	0.06737966
123	0x3da150c5	0.07876734
124	0xbea069ef	-0.3133082
125	0x3e72e3df	0.23719738
126	0x3e3ae90f	0.18252967
127	0x3f3c9494	0.7366421
128	0x3aa11f1c	0.0012292597
129	0xbf4eff6b	-0.80858487
130	0xbeb7b477	-0.3587987
131	0x3e241153	0.16022234
132	0xbe4832dc	-0.19550651
133	0xbe610821	-0.21975757
134	0xbe05520d	-0.13019581
135	0xbdfef4b5	-0.12449018
136	0x3d2547ab	0.04035155
137	0xbe24e6b6	-0.16103634
138	0xbf16bd23	-0.5888235
139	0xbec1aa7e	-0.37825388
140	0xbf464dff	-0.7746276
141	0x3d808b78	0.062766016
142	0xbe043d44	-0.12913996
143	0x3f1c9bc4	0.6117518
144	0x3f802ea8	1.0014238
145	0xbebbcdd9	-0.36680487
146	0xbe58aee4	-0.21160465
147	0xbf37f086	-0.71851385
148	0x3cfbef2c	0.030753694
149	0xbec9867a	-0.3936041
150	0x3ce29c80	0.027662516
151	0xbe1774c4	-0.14790636
152	0xbfc0f540	-1.5074844
153	0x3c644e3a	0.013934666
154	0xbf8b61f9	-1.0889274
155	0xbf4743d3	-0.77837867
156	0xbd84453f	-0.0645852
157	0xbd6c3cc4	-0.057675138
158	0x3d98419f	0.07434391
159	0xbdf309b6	-0.118670866
160	0xbe0613d6	-0.13093504
161	0x3e1da831	0.15396191
162	0x3eb430b1	0.351934
163	0x3e1529ca	0.14566723
164	0x3f038b2b	0.5138423
165	0x3dae8331	0.085211165
166	0xbdf72474	-0.120675
167	0xbede2e0c	-0.43394506
168	0xbe58e4ec	-0.21181077
169	0x3e4f4120	0.20239687
170	0xbbf96b06	-0.007611635
171	0xbd101360	-0.035174727
172	0xbf44677a	-0.7672039
173	0xbe36a234	-0.17835313
174	0x3ebd8dbb	0.37022194
175	0xbde1eb57	-0.11031216
176	0x3dd79e65	0.10528258
177	0x3cb396d7	0.021922512
178	0xbe27edf4	-0.16399366
179	0x3cbe47ee	0.023227658
180	0x3cf182ce	0.029481318
181	0x3db3d0ed	0.08780084
182	0xbd2bd38b	-0.04194979
183	0xbe10fd6c	-0.14159173
184	0x3b2d65ed	0.0026458458
185	0x3d4de333	0.050265502
186	0x3de37dcd	0.11107979
187	0xbc2b01fd	-0.010437486
188	0xbd22f16f	-0.03978103
189	0x3e54cd5c	0.20781463
190	0x3f1ef721	0.6209584
191	0xbddf03e1	-0.10889412
192	0xbf1b101e	-0.6057147
193	0x3f27f9f2	0.6561576
194	0x3e8365fe	0.2566375
195	0xbc823e2f	-0.015898792
196	0xbe0503c1	-0.12989713
197	0x3d087d1c	0.03332244
198	0x3f1ce72b	0.61290234
199	0x3d047b4f	0.03234416
200	0xbdf661b8	-0.12030357
201	0xbcda919c	-0.02668076
202	0x3d10d266	0.0353569
203	0xbf112520	-0.56697273
204	0x3f3adef8	0.72996473
205	0xbeb1c93f	-0.3472385
206	0x3d8a9188	0.06766039
207	0xbed1174b	-0.40838084
208	0xbf6d40e3	-0.92677134
209	0x3eb031c9	0.34412983
210	0x3e150e87	0.14556323
211	0xbf1712cd	-0.5901306
212	0x3e10e62f	0.14150308
213	0xbd0eb184	-0.03483726
214	0xbf11fd33	-0.57026976
215	0xbd90e551	-0.07074989
216	0xbe08e56c	-0.13368767
217	0x3ea87dc1	0.32908443
218	0x3e8693be	0.26284593
219	0xbe67b79b	-0.22628634
220	0xbef2762c	-0.47355783
221	0xbe04a291	-0.12952639
222	0xbd6a72ce	-0.057238393
223	0x3eaf2484	0.34207547
224	0xbeeaeba5	-0.45882908
225	0x3e01c2fe	0.1267204
226	0x3e5e40c2	0.2170439
227	0xbf0311c6	-0.51198995
228	0xbcd836be	-0.02639329
229	0xbe84088d	-0.25787774
230	0x3e8f8bc8	0.28036332
231	0x3f17dac1	0.59318167
232	0xbea2d039	-0.31799486
233	0xbf941e7d	-1.1571804
234	0xbe5acfab	-0.21368282
235	0x3c1939cc	0.009352159
236	0x3cd4c3f7	0.02597235
237	0xbe83f70a	-0.25774413
238	0x3f3115c9	0.69173867
239	0x3f3641ae	0.7119397
240	0xbf27cce2	-0.65547
241	0x3f038eba	0.5138966
242	0xbd0ac0d2	-0.033875294
243	0x3e4b38d0	0.19845891
244	0xbf13fd21	-0.5780812
245	0x3d55fd2b	0.052243393
246	0xbf03d469	-0.5149599
247	0xbf14c7d4	-0.58117414
248	0xbce3ec59	-0.02782266
249	0xbf05f742	-0.5233041
250	0xbba8cb49	-0.0051511866
251	0xbf4441cd	-0.76662904
252	0xbf04522d	-0.5168789
253	0x3a9ca91d	0.0011952255
254	0xbf29138f	-0.6604547
255	0x3e6b3ac4	0.22971636

fc2.bias f4 [10]
0	0xbe173b35	-0.1476868
1	0x3e33b5d5	0.17549832
2	0xbf194d55	-0.59883624
3	0x3e586aae	0.21134445
4	0xbe4d650e	-0.2005808
5	0xbbbdf609	-0.005797152
6	0xbf52dc0e	-0.82367027
7	0xbea5c09f	-0.3237352
8	0x3fb36695	1.401568
9	0xbe142ec7	-0.14470969
