dev_code/playground/lightning_test/lightning_cnn_mnist.pt (torch, 215879 bytes, 16 tensors)

architecture.conv1.weight f4 [10, 1, 3, 3]
00000000: 6c2d 1f3f a564 42bf 909e 87bf 9104 a1bf
00000010: a9a1 32bf 73ae de3d 2419 a7bf 4203 dc3e
00000020: b711 d13e b93e f1be ae31 f53d 21d3 273e
00000030: cf01 05bf d244 2fbe c4ac 3cbe cc27 02be
00000040: fcd2 483e 2a62 4f3d 07a2 593e f0a3 883e
00000050: 07b8 a03e d2d1 96be b894 dcbe 5861 693e
00000060: 961d 4dbf db04 913e 20d9 273f dd05 21bf
00000070: d97d 2fbe afb8 8e3e 3f76 d6be 8623 933e
00000080: 7f08 f83d d038 273e c7ad 2f3e 4d43 84bf
00000090: ec87 a43e ac77 f63e 363d 9fbf 702a 19bf
000000a0: d56a 5d3f 707f 9ebe 16c4 a0be b990 b43e
000000b0: 935a 88bc caa3 aabf 7c66 9e3d 162a 3b3f
000000c0: 5d5c f1bf 4e80 2fbf 6add 893c 96ad 48be
000000d0: 5c8f 5cbf 3301 10bf 2ccb 90be b615 6dbd
000000e0: bd7e 0a3e 984a 2bbe 6d24 043e 0495 fabd
000000f0: 6d28 97bd 5a2e 7fbd 5f54 72bd 5191 143f
00000100: 6251 943e 6963 c23e 852a 03be 4508 ac3c
00000110: aaf4 77bd be14 35bf b957 48bf a7e8 3cbf
00000120: 6953 2b3e 3b25 0bbf f6ab 4ebf 0872 ac3e
00000130: 09cb 86be da54 2bbe 2659 d43e f26d ae3e
00000140: c25b 313f f173 ffbe 1bc6 6f3e a372 83be
00000150: 232d 0fba d8a2 bf3c f8bf 5cbd 228e 96bc
00000160: 9a13 f5bd ec84 05bd
0.62178683 -0.7593482 -1.0595264 -1.2579519 -0.69777924 0.10873117 -1.3054547 0.42971236
0.40833828 -0.47118166 0.11972366 0.16389133 -0.51955885 -0.17116097 -0.1842528 -0.12710494
0.19611734 0.050630726 0.21253215 0.26687574 0.31390402 -0.29456955 -0.43082213 0.2279104
-0.8012327 0.28324017 0.6556568 -0.6289957 -0.17137851 0.27875277 -0.4188709 0.2873804
0.121109955 0.16330266 0.17156135 -1.0333039 0.3213495 0.48138177 -1.2440555 -0.5983038
0.8649114 -0.30956602 -0.31399602 0.35266665 -0.016644752 -1.3331234 0.07734391 0.73111093
-1.8856312 -0.6855515 0.016829211 -0.19597468 -0.8615625 -0.5625183 -0.28280008 -0.057882033
0.1352491 -0.16727674 0.1290452 -0.12235454 -0.073807575 -0.062300064 -0.059162494 0.58034235
0.2896834 0.3796647 -0.12809189 0.021000037 -0.060536064 -0.70734775 -0.78258854 -0.737925
0.16731037 -0.54353684 -0.8073114 0.3368075 -0.2632678 -0.16731587 0.41474265 0.34068257
0.69280636 -0.49893144 0.23415415 -0.25673398 -0.0005461743 0.02339308 -0.053894013 -0.018378321
-0.11966629 -0.032597467

architecture.conv1.bias f4 [10]
00000000: 47d2 4abd 5cb1 cabe 3c63 10bf 7e56 5abf
00000010: 77d6 34bf 4550 2ebe 6a7a a6be 4375 45bd
00000020: d606 03bf 22f9 85be
-0.049516942 -0.3958844 -0.5640142 -0.85288227 -0.7063975 -0.17022808 -0.3251527 -0.048207533
-0.51182306 -0.26166636

architecture.conv2.weight f4 [20, 10, 3, 3]
00000000: 94fb 15be c774 0fbe 6a4b 7ebd f024 febd
00000010: 4cd1 0cbe 7bb6 92bc 4679 9fbd 28d9 76bb
00000020: 00c2 40bc 0a37 4abd fb9a abbd e592 91bd
00000030: 9cc6 0dbe 5122 74bd cd60 4b3c d757 06be
00000040: cdba 98bd 9e1a adbc 0b7f dabb 9e31 fb3c
00000050: e77c 40be 6540 3cbd c2e8 e9bd 5a77 14bd
00000060: bec2 12be 449b 3b3c 396e c1bd 1dd3 1f3c
00000070: d16e f3bd 3c3a 2bbd 5e9e d2bc 1678 83bc
00000080: acea 95bd 5a90 e0bd a467 afbd bac9 1dbd
00000090: b51e d9bd 0d66 d1bd 25b0 07bd c6fa 2cbe
000000a0: f657 6abc 7e44 d5bd e550 26be 0075 abbd
000000b0: 5e1d e5bd 7573 2cbe a97a 14be 679c ecbd
000000c0: 679d a7bc 6265 2ebd 31bd d03a cd67 47bd
000000d0: d0fc bdbd d40c c1bd a3d5 a0bd afb9 a33d
000000e0: efab 30bd fbef c6bc 7901 cbbd a93a b3bd
000000f0: 8f65 373d ace8 da3c ab44 003d 38ca e1bd
00000100: 8a67 ccbd 01e4 5ebe 85f5 54be 428c b8bd
00000110: b743 c5bd b074 44be d3fc 20be 0306 1bbe
00000120: adea 25be 876c dabd 6b82 25be 6c98 4dbd
00000130: 0831 a7bd f495 9abd cc06 68bd cada 8f3d
00000140: 94e0 38bd d80f 9bbd 77c6 3b3d 5293 00be
00000150: dbdf 06bd 7802 07be 5726 0abe 8656 38be
00000160: 8172 03be 15ce 60bd 2c52 5ebe accf 0a3f
00000170: 0d9f 203f c683 b2be 1392 9bbe d0b8 04bf
00000180: 1438 6ebe cb66 5d3e 1fc9 0ebd 8b98 12bd
00000190: 4255 6a3e e2e9 1c3d d220 f13b 39f5 13be
000001a0: 36a5 2fbf f7cf 20bf 856a cdbe 5a5c 76be
000001b0: 9f2b 883e a189 5e3f ce52 3e3e 27ae 4bbc
000001c0: fcae 35bf cd09 edbe 93b5 2cbe d099 41be
000001d0: 4e0c 0dbf a3ec 91be 9908 85be 601c 493e
000001e0: 61fa 843e 1528 523e 3e29 063e 6231 04bf
000001f0: f7e0 753d 65b8 ecbe 873b 7e3e 88f0 ea3e
00000200: f432 7c3e 3a14 62be b34b cfbe 5eab b7be
00000210: 8a1e 3bbe b572 d8bd 56b2 ed3d 4b70 463e
00000220: aa43 1ebe 6f7c 01bf 7b14 5abe 55fe 7ebf
00000230: ba7e a4bf 9cbf 643d d26b 123f 3ccf 5abf
00000240: 6b90 b4bc e092 ecbc b27c aabd 3f98 1cbe
00000250: a20e 8c3b 7ff7 78bd 9e29 06be f2f0 96bd
00000260: ce13 88bd 541b 963d 0a55 d8be 738b a6bf
00000270: 7edf ecbe 588b bebe 71de 52be 6963 813f
00000280: 1831 2e3f 9aa1 6abe 255d 783e d734 343f
00000290: a719 05bf 459f fe3e 1fd9 d0bf 2024 46bf
000002a0: 0d8b 83bf 358f 95bf 9a5d a8be ed98 84bd
000002b0: a9d2 dd3d 7dcf 153e e235 013d 4c5e d53d
000002c0: 9aa8 18bd dea0 88be eb64 463d 00e9 c43d
000002d0: 2f8d 903d c321 d03c 5068 b3bd 345d d8bd
000002e0: ea62 8e3f 3833 febb a525 f83e 7b93 da3d
000002f0: 0db8 a23e be51 c53d f693 cabd f96f d53d
00000300: b8c9 6bbe 067a ab3d 3135 843e 366f 5ebe
00000310: 56dc 84be baac 1ebf 3384 47bf 4de5 a9bf
00000320: 5cf3 07bf 9568 bdbf 2749 b0bd 3c8d 0fbe
00000330: 168f b1be 032f 57bf 4991 2fbd fe33 f93e
00000340: ed8f a3be 1be0 45bf 7dec 17be f746 163e
00000350: a4b9 5dbe eb04 a1bd 0fd8 ce3e ad6b ab3d
00000360: a4ea 26bd 2879 5fbf 9f41 26bf 2991 fd3d
00000370: ca1c 723f 5a21 13bf 4102 47be aa0f 41be
00000380: ada1 28bf c949 40bf 1328 b2bf 887c 4b3e
00000390: 1ec5 04bf e5c1 52be 213f 0b3f 258d 3dbf
000003a0: 09ba d2bf ac12 91bf f7ae 043b 9413 ce3d
000003b0: e8ae c5bb 5b2c 21be 0545 213d cb45 81bd
000003c0: a7e8 31bd afcd 053c 8a6d 61bc 0b87 833e
000003d0: 615a 34bf 71c5 14c0 e966 35bf 0f4b e9be
000003e0: dbea 5dbf 8e90 873f 5631 383e e83c 80be
000003f0: 8e0d e0be 9957 53bf b971 67be b860 913e
-0.1464675 -0.14009391 -0.06208364 -0.12409389 -0.13751715 -0.01790928 -0.07786803 -0.0037666056
-0.011765003 -0.049368896 -0.083791696 -0.07108096 -0.13845295 -0.05960304 0.012413216 -0.13119446
-0.074575044 -0.021130856 -0.0066679767 0.030663308 -0.18797646 -0.04595985 -0.11421348 -0.036246635
-0.14332101 0.011450592 -0.094448514 0.009754923 -0.11886371 -0.041803584 -0.025710281 -0.016048472
-0.07320151 -0.10965033 -0.0856469 -0.03852246 -0.1060156 -0.10224543 -0.03312697 -0.16892537
-0.014303198 -0.104134545 -0.16241796 -0.08371925 -0.11187242 -0.16840918 -0.14499916 -0.11553269
-0.020460797 -0.042577155 0.0015925524 -0.048682977 -0.09276736 -0.09426275 -0.07853248 0.07994401
-0.04313272 -0.024284353 -0.0991239 -0.08751423 0.04477459 0.026722275 0.031315487 -0.11024898
-0.09980686 -0.21766664 -0.20796783 -0.09011127 -0.09632056 -0.19185138 -0.15721445 -0.15139012
-0.16202803 -0.10665231 -0.16163032 -0.05019419 -0.08163649 -0.075481325 -0.056647107 0.070241526
-0.04513605 -0.07571381 0.045843568 -0.12556198 -0.03292833 -0.13184536 -0.13491188 -0.18001756
-0.12836649 -0.054884035 -0.21711034 0.5422313 0.6274269 -0.3486616 -0.30384883 -0.518445
-0.2326358 0.21621244 -0.034859773 -0.035790008 0.22884086 0.038308986 0.007358649 -0.14449014
-0.68611467 -0.6281733 -0.4012033 -0.24058667 0.2659578 0.86928755 0.18586275 -0.012431658
-0.7097013 -0.4629654 -0.1686614 -0.18906331 -0.550969 -0.28500852 -0.25983122 0.1963973
0.25972274 0.20523103 0.1310167 -0.5163785 0.060028996 -0.46234432 0.24827395 0.45886636
0.24628812 -0.22078028 -0.4048744 -0.3587293 -0.18273368 -0.10568754 0.116062805 0.19378774
-0.154555 -0.50580496 -0.21296875 -0.9960683 -1.2851174 0.055846795 0.5719577 -0.85472465
-0.02204152 -0.02887863 -0.08324565 -0.15292452 0.0042742053 -0.060782906 -0.13101813 -0.073701754
-0.066444024 0.07329431 -0.4225238 -1.3011307 -0.4626426 -0.37215686 -0.20592667 1.0108463
0.6804366 -0.22913209 0.24254282 0.7039313 -0.5199227 0.49730888 -1.631626 -0.7739887
-1.027681 -1.1684328 -0.32883912 -0.06474481 0.10831196 0.14629932 0.031545527 0.10418376
-0.037270166 -0.26685232 0.048436087 0.09614754 0.07058179 0.025406724 -0.087601304 -0.10564652
1.1123936 -0.0077575706 0.4846622 0.10672661 0.31781045 0.09634732 -0.098915026 0.10421748
-0.23026168 0.083728835 0.25821832 -0.21722111 -0.25949353 -0.6198231 -0.77936095 -1.3273102
-0.5310571 -1.4797541 -0.08607703 -0.1401872 -0.34679478 -0.8405611 -0.042863164 0.4867248
-0.31945744 -0.7729508 -0.14836307 0.14675508 -0.21652848 -0.07862266 0.40399215 0.08370147
-0.040751114 -0.87294245 -0.6494388 0.12381203 0.9457518 -0.57472765 -0.19434454 -0.18853632
-0.658717 -0.7511259 -1.391848 0.19871724 -0.51863277 -0.20581777 0.543932 -0.74043494
-1.6463023 -1.1333823 0.0020245889 0.10062328 -0.0060328133 -0.15739577 0.039372463 -0.0631214
-0.043434765 0.008166715 -0.013759026 0.25688967 -0.7045041 -2.3245509 -0.70860153 -0.45565078
-0.86686486 1.059099 0.1798757 -0.25046468 -0.4376034 -0.8255554 -0.22601976 0.28394103

architecture.conv2.bias f4 [20]
00000000: c342 50bd cc63 46be 000c 06bf 98ae 19be
00000010: 8919 94be 14ba 09bf a450 4cbd 15eb bfbe
00000020: 18b6 78be 19c2 b6be f872 7ebe 2fcf 66be
00000030: 501f 99bc 25cd d2be a6d2 cfbd 12e0 ccbd
00000040: 5f89 01bf 4b47 27be 2c19 abbd 4374 07be
-0.05084492 -0.19374007 -0.5236206 -0.15008008 -0.28925732 -0.5379956 -0.049881592 -0.3748404
-0.24288213 -0.3569496 -0.24848545 -0.22539972 -0.018691689 -0.41172138 -0.101476 -0.100036755
-0.50600237 -0.1633579 -0.083544105 -0.13227944

architecture.fc1.weight f4 [100, 500]
00000000: 1e2f 25bd ab65 cfbd c665 163d 2d68 883d
00000010: f8ec af3d 5a2c bdbd 89b9 dbbc f5bb 913d
00000020: 01c0 8ebd bb60 c6bd 9952 cebc ade5 003d
00000030: 8a3d 8ebd b917 5ebd 06de 7cbd 1cb8 88bd
00000040: 7cd9 8b3d e7f0 a0bd fb24 6cbd 6e9f 7bbd
00000050: 1e9e c5bc 6a4d dcbd ada1 b93d 2459 613d
00000060: d578 9dbd e3ad 3f3f bcff 4ebf 7116 a33f
00000070: 1020 8a3f bd6c 2f3e 7f79 c43d 2b4c 88be
00000080: 270d c93e ccff a7bf 5283 04bf 1153 253f
00000090: 6a2b b83e e41b 343f a8f3 73bf 27a2 1ebf
000000a0: 8bef 93be 7994 fc3c a39e 0f3e 7277 a0bf
000000b0: 1a8d ebbe e023 1b3f 3fac 6d3e 5672 01bf
000000c0: 0638 c73e f060 243f 6d27 81bf 76c8 b3bf
000000d0: 9a9c 313e 5b76 2c3e 504b 5cbf 3460 fc3e
000000e0: ce28 493f cbef 7b3f 8af6 b8be c726 03bf
000000f0: 7b99 cdbe 425a 2ebe f00d cfbe 9fac d4bf
00000100: 251d 17c0 0018 2e3e abfa 9bbf 41bf 8ebf
00000110: f380 333f 8d53 773e 7015 963e 0b3e 4e3f
00000120: 1026 163f b1ad 7f3f 5b89 163f bed5 85bf
00000130: 07b4 90be 21ca 693f 3cc1 a3be 8850 19bf
00000140: 727e 533f f582 2bbd d0c0 67bd 9dca 66be
00000150: 1451 9e3f 10d4 43bf 60e5 ed3c b162 ec3e
00000160: 82fa dfbe efc2 d5bd 453e 0fbf a979 81bd
00000170: d8a7 033f ca23 0b3f 19cb 55bf dd2d 64bf
00000180: a855 863f 3fbd 46bf 92b6 33bf 51c7 c5bf
00000190: d46d 91bc 15c9 8ebd 6d7a 27bd bd5d bebd
000001a0: ea33 f2bc ec81 69bd 1cc6 3c3e 8046 bf3e
000001b0: c7f8 a73d 3120 9bbd bb6c 143d 98a7 a7be
000001c0: 5c71 b43d c595 c73d e732 28bd ae3f da3c
000001d0: 6cc5 a0bd 8d6f 07bd bd30 443d 12d0 1c3d
000001e0: 048b b93e 1599 aabd c46d ab3e e1cc 783e
000001f0: 66b6 273e 44bc 893e 73eb 9a3d 0a03 463e
00000200: dd9e 80be 0a23 bfbf 5327 48bf 20ad 343e
00000210: 3965 0abe d188 58bf 0114 29bf c12a 06bf
00000220: 4648 2bbe 842a 4dbf 14b9 01c0 192b b4bf
00000230: 95f3 e1be 60be d4bf dadc 2abf 8d42 00c0
00000240: dfea fbbf 63fd d23e 9b24 babe 6829 12bf
00000250: ea51 bf3f 118e 8b3f 092e 4f3f db77 7f3d
00000260: 57af 013f ec31 123e 7040 4ebf 2ca1 7dbf
00000270: 61d0 e6bf fa7e 623e d1f7 67be 25b9 01c0
00000280: ceb2 a4bf 05e8 053e 7438 0ebe 2dfc 4bbf
00000290: e22b 59bf df8f 82be 5433 7c3e e2da a73e
000002a0: 119f bdbf 2fce 4dbf 2558 86bf e532 81bf
000002b0: 2d86 363f 585c 0ac0 59a3 8ebe f95a 0ebd
000002c0: 5433 963d 7f9a 9f3d a43d e83c d371 ea3d
000002d0: b5aa 173e 2ccc 0a3d 699c d0bd bf93 93be
000002e0: da3f 53be eb66 8bbd 25ba 2dbd 8002 04be
000002f0: 10b5 83be 80a8 c7be 3a10 cbbd 1714 27be
00000300: 1997 e9bd 28b0 96be d988 a5be 74fc f03d
00000310: 7287 c43e a5ff dabd 87c5 9abe b5ca 873d
00000320: 0b43 63bf d14c 873f 6f18 213f 02b2 15bd
00000330: c13d bbbf f592 33bf 80e2 333e 16bd 4dbf
00000340: 85ee 2bbf 9c26 8fbf fe61 f4bd 7449 1d3f
00000350: 1f5f 21c0 2ed8 e9bf b44f 08be 9165 89bd
00000360: cf55 10bf eb1d c9bf aefe 503e e500 843f
00000370: bc87 02bd d103 1abe 8538 a83e 88ad 75bc
00000380: 58d8 cfbe 4363 de3e 53d0 c73e f115 dd3e
00000390: 1e6e 903d c2af a93e 9511 bc3e 7d29 ba3e
000003a0: 01a7 9e3e 051b 9a3e 562d b03e 46b8 0c3f
000003b0: c3c1 d23e cd97 963e 65e9 903e e21c 923e
000003c0: 6078 d03e e39b d73e 11bf c7bc fdd9 823e
000003d0: 8f95 e43e a539 b03e 8d14 e43e fd7b 023c
000003e0: 72e7 863e 7d7d e03e 2009 bc3f 6158 17be
000003f0: d372 8f3f ac69 693f 8670 1ebe 08ae 17bf
-0.040328138 -0.101268135 0.036718152 0.06660495 0.0859012 -0.09236975 -0.026821868 0.07115928
-0.069702156 -0.096864186 -0.02518587 0.031469036 -0.069453314 -0.054221842 -0.061735176 -0.06675741
0.06828591 -0.078584485 -0.057652455 -0.06143134 -0.024123248 -0.10756953 0.0906404 0.05501665
-0.076890625 0.74874705 -0.8085897 1.2741224 1.0791035 0.17131324 0.09593486 -0.26620612
0.39267847 -1.3124938 -0.5176288 0.64579874 0.35970622 0.7035506 -0.95293665 -0.61966175
-0.28893694 0.030832516 0.14025359 -1.2536452 -0.4600609 0.60601616 0.23210238 -0.5056509
0.3890993 0.64210415 -1.0090157 -1.4045551 0.17344895 0.16842024 -0.8605242 0.49292147
0.7857789 0.9841277 -0.36125594 -0.51231045 -0.4015616 -0.17026618 -0.4044032 -1.661518
-2.3611538 0.17001343 -1.2185873 -1.1152116 0.70118636 0.24152966 0.2931323 0.8056342
0.5865183 0.9987441 0.5880334 -1.0455854 -0.2826235 0.9132405 -0.31983364 -0.59888506
0.82614815 -0.041872937 -0.056580365 -0.22538228 1.2368493 -0.76495457 0.029040039 0.46169046
-0.4374581 -0.10437571 -0.5595439 -0.06322033 0.51427984 0.54351485 -0.8351303 -0.8913248
1.049489 -0.77632517 -0.70200455 -1.5451452 -0.017752565 -0.06971947 -0.04088824 -0.09295223
-0.02956577 -0.05700867 0.18434948 0.37358475 0.082017474 -0.075744994 0.036236506 -0.3274505
0.08810684 0.09745363 -0.04106417 0.026641693 -0.07850155 -0.033065367 0.047898043 0.03828437
0.36238873 -0.08329979 0.33482182 0.24296905 0.16378173 0.26901448 0.075644396 0.19337097
-0.25121203 -1.4932568 -0.78185004 0.17644167 -0.13515176 -0.84583765 -0.6604615 -0.5240899
-0.16726789 -0.80143 -2.0269213 -1.4075652 -0.4413115 -1.6620598 -0.6674324 -2.004062
-1.9681052 0.41208944 -0.36356053 -0.5709443 1.4946873 1.090273 0.8092962 0.062370162
0.5065817 0.14276856 -0.80567074 -0.99074054 -1.8032342 0.2211875 -0.22653128 -2.0269253
-1.2867067 0.1307679 -0.13888723 -0.79681665 -0.84832585 -0.2550039 0.24628955 0.32784182
-1.4814168 -0.80392736 -1.049565 -1.0093657 0.71298486 -2.1618862 -0.27859 -0.034754727
0.07334009 0.0779314 0.028349705 0.114474915 0.14811213 0.03388612 -0.10186083 -0.2882366
-0.20629826 -0.068067394 -0.04241385 -0.12891579 -0.25724077 -0.38995743 -0.09915204 -0.16316257
-0.11405773 -0.29431272 -0.3233097 0.117669016 0.38384587 -0.106932916 -0.30228826 0.0663046
-0.88774174 1.0570318 0.6292791 -0.036546715 -1.4628221 -0.70146114 0.17566872 -0.8036665
-0.67160827 -1.1183658 -0.11932753 0.61440206 -2.5214307 -1.8269098 -0.13311654 -0.067088254
-0.56380934 -1.5712255 0.20409653 1.0312773 -0.031867728 -0.15040518 0.3285562 -0.014994986
-0.40594745 0.43435106 0.39026126 0.43180802 0.07052253 0.33141905 0.36732164 0.36359778
0.3098679 0.3009874 0.3440959 0.5496868 0.41163453 0.2941269 0.28303066 0.2853766
0.4071684 0.4211112 -0.0243831 0.25556937 0.44645354 0.3441898 0.4454693 0.007964131
0.26348454 0.4384574 1.4690285 -0.14779808 1.1206917 0.9117687 -0.15472612 -0.59249926

architecture.fc1.bias f4 [100]
00000000: c2f4 1c3f e6b5 d8bd ce98 89bd 3698 fabe
00000010: 4444 b1be d67f 2dbd 2613 8dbd b459 debe
00000020: 4b44 70bf ffec 96bc 2bd1 b83d cc73 ffbe
00000030: 090c 663f 5d85 03bf 4b23 b5bd c1f0 6bbe
00000040: 90a1 b4bc ccf8 babd 9f1b 2cbf 1cc1 2f3f
00000050: 7e42 eebe 73c6 67be eb06 5d3d f279 2bbf
00000060: d237 95bd f98b 55be 28b4 42bf 3096 d6bd
00000070: 17e9 cd3e 5414 13bf 8265 39bf ab42 2ebf
00000080: 73a8 643f 7948 b7bd 88d5 5cbf 9dd0 86bd
00000090: d607 cebd 87a9 0ebf 8440 68bd 9d62 acbe
000000a0: 2849 e8be 100a e7bd 481c 9b3d 91c2 99be
000000b0: 1582 a7be 33e1 e4be 9bb7 2abd 1f8a 9fbe
000000c0: b43b 19bd 222d 88bf 2506 54bd 9ce1 173e
000000d0: eea5 253d 8105 b7bd 5519 a9be 78dc 73be
000000e0: dc05 14bd c487 cfbe a3d5 53bf ed64 c5bd
000000f0: 3e55 4abd 2b01 2abf 791f d3be 2828 1bbd
00000100: 843c ec3e 2b13 b5bd 15d4 aebd 9107 c23d
00000110: 3463 18bb ad45 32bd e029 94bc 2ec2 53be
00000120: 81f5 c03d 6959 9cbd 5bf4 eabe 0501 18bd
00000130: 4fa3 3dbf 995e c6be 6611 2dbf e51b 8abb
00000140: 7eb4 22bf 6c65 0dbf fb91 1abd db85 fbbe
00000150: e0ce adbe 680a db3e b17a 62bc 35fd 87bd
00000160: d43d aabd f351 0dbd cbc7 aebe 21e2 673e
00000170: 3806 7abf 2391 95be ca12 a1be 9b41 e7be
00000180: 7c18 d43e 9105 e6be fd5a 3fbe ee05 e7be
0.6131097 -0.105815694 -0.06718598 -0.48944253 -0.34622395 -0.042358242 -0.06888418 -0.43427813
-0.93854207 -0.018423555 0.090242706 -0.49893034 0.89862114 -0.5137537 -0.08844622 -0.23041059
-0.022049695 -0.091294855 -0.67229646 0.68654037 -0.46535105 -0.22634296 0.053961676 -0.6698295
-0.072860375 -0.20854177 -0.76056147 -0.10477865 0.40216896 -0.57452893 -0.72420514 -0.6807048
0.89319533 -0.0894937 -0.8626332 -0.065827586 -0.10060088 -0.5572743 -0.056702152 -0.33668986
-0.45368314 -0.11281216 0.075737536 -0.30031255 -0.32716432 -0.44703063 -0.041679006 -0.31160066
-0.037410453 -1.0638773 -0.051763672 0.14832157 0.040441446 -0.08936597 -0.3302714 -0.23814571
-0.0361384 -0.40533268 -0.8274786 -0.09638391 -0.0493977 -0.6640803 -0.4123495 -0.037880093
0.4613992 -0.088415466 -0.08536545 0.094740994 -0.002325249 -0.04352348 -0.018086374 -0.20679542
0.09421826 -0.07634241 -0.45889553 -0.037110347 -0.74077314 -0.38744047 -0.6760467 -0.004214751
-0.6355666 -0.5523288 -0.037736874 -0.4912556 -0.33946896 0.42781377 -0.013823197 -0.06640092
-0.08312574 -0.03450198 -0.34136805 0.22644855 -0.9766574 -0.29212293 -0.31459647 -0.4516724
0.4142493 -0.44926122 -0.18687053 -0.45121711

architecture.fc2.weight f4 [10, 100]
00000000: 82e7 96bf 7e93 933c 1f32 20bd c86c bebe
00000010: 1412 73be 32cc 2fbb ec93 ffbe 3c43 35bf
00000020: 1fdc fc3e 8761 d6bc cf9c 513f f4d9 653c
00000030: 9006 343e 3c10 27bf 2471 343d 9fe0 c13e
00000040: 8e7b 813c 377e 4bbd 7fb6 08bf 5a0a ffbe
00000050: 8c49 62bd 1201 f9bc f4fc 323e e309 073d
00000060: bbd8 4d3c 40d4 d93d fb83 c8be fbbb b8bc
00000070: 4a0f 95bf 1f88 13bf 72e9 a03d 3f84 823e
00000080: a57a 35be b44c 743c 4fd4 02bf 6658 e4bb
00000090: 1709 d5bb e14e b1bd 5839 693c 3892 2fbe
000000a0: a0c5 823e 895a 8fbf 5dcb 28bf 9c50 b3be
000000b0: 2854 843e a6a7 38be d0b1 dcbc 779d 34bf
000000c0: 0f01 89bd 54c4 a2be e4d7 b43d c70d ce3c
000000d0: 7e50 16bd 818b 383d 86cf 733e e14f 3abf
000000e0: 9049 97bd 0901 10bf 5603 18be 6b84 a93d
000000f0: e34e cc3b 6caf 443e 9f1d 33bf f23b 27bf
00000100: a4a9 14be 62d7 eabc a460 e3bc a56d ba3e
00000110: 84c4 30bf 9c28 843d 9f4f 123b 1260 803d
00000120: deb2 423f 3eb6 92bd 2237 973e 3c9d 0bbe
00000130: 667f ddbe ac5e 173e 1bd0 4cbf 4617 163f
00000140: fc59 223e 5e1c b53e 272f 813d 2106 cfbe
00000150: 7097 f3be 13b2 c2be fa37 fabe ecc6 96bd
00000160: f9e2 5d3d 4da5 b43c 9735 44bf 20bb 16bc
00000170: d3fc 4abe 3c0f b13e 38ee 3ebf 9218 88be
00000180: b7ba 81bf b6d0 70bf 350b 503e 5840 6e3e
00000190: a3b6 e63e 22f4 fd3c 95d8 b93b 4c2b 55bf
000001a0: bec4 503d 91b5 18be 3139 7ebe e85b 54bf
000001b0: 68cd fabe 0de8 0ebe d9fe b83e 2a38 1abf
000001c0: 7e28 523f 3973 c6be 0e70 90bd 8a3b 07bf
000001d0: 1c69 00be 75a4 95bc 4179 753f d9d2 803e
000001e0: c06f 9fbe ffd3 ca3c 416f dc3d 67f6 dbbe
000001f0: 944b 89bd 7d4a b6be b8c3 4cbe b53d b8bd
00000200: 53e8 473f 1837 80be 829f 53bf 04c2 273e
00000210: f42c 7d3e 873f d8ba 4b60 56bf e693 f4bd
00000220: cd54 b2bc ce1f f0be 000c c53d 3909 623e
00000230: 9a72 16bf 7ace 07be 01dd 8a3e f6a7 59bf
00000240: 717c 2f3e f850 a2bf ce63 a0bc dc37 41bf
00000250: f642 06bd 5b65 0dbf 0f59 513d d8e2 56be
00000260: ec7a 59be 5e6a cf3c 1cd5 1cbf ae44 653e
00000270: 6cc5 2d3d f1c5 34be d43b 57bf 6784 b0bd
00000280: e782 47bd 4ad9 883e d858 ac3d 1d69 c8bd
00000290: b262 ef3e 8d49 533d 59c3 d53c 627a 49be
000002a0: 2a9e 7d3e 07b4 28bc 7307 213d e8a0 af3e
000002b0: 4468 123e 0687 66bc d20b dbbe 8bd1 ee3c
000002c0: e53f 10bf 9321 fabe 4ee7 01be 4e13 6d3d
000002d0: 75b7 293d d093 11bf e8d9 5dbd 6fb8 3f3e
000002e0: aaf4 c4be a9b8 69be 23fa 683e 43da c3bd
000002f0: 888a f83c 59c3 b93c 03c6 783d 27f5 14bd
00000300: 3eb2 53bf 41c1 b13d 32b8 a9bc cb1c 103e
00000310: 5b88 673f dd8b 21bf ee02 25bd 7d9c 49be
00000320: f37a 943e 6764 c23d 73d0 023d 95be 1bbf
00000330: 11f5 1e3e c378 06be 28f9 f7bd 09bd 94be
00000340: 7cf6 9fbf e5b7 833d 67b6 77bf 698a 20bf
00000350: 5ab3 4bbf bfa4 2fbf 339e bc3c b2f9 873e
00000360: 86d1 6b3c c104 75bc 68d5 cabe 17e3 f93e
00000370: da4b e23e 8aec 2c3d 8d81 8a3e c0b3 f03e
00000380: 54c0 e7bd ff9e 97be bdf5 eebe 19a8 453d
00000390: 87ae c6be 17e8 26bd b6b5 7ebf 421c 8b3d
000003a0: 0319 553e 7575 ba3d 5044 473f 838d 9f3c
000003b0: 773a c63d f879 87be 1cb1 1f3d 345e 8f3e
000003c0: 00ec 57be ef3c 92be 635f 42bf 0e3c 10bf
000003d0: 4a70 073f 4168 e33d 092b 72bb 724e 06bf
000003e0: d369 c0bd 55c6 0c3e 5d35 853c 0587 cb3e
000003f0: 1dcd a73e 5d10 9d3d 4ebe 393f 05b9 a6bd
-1.17894 0.018014666 -0.0391103 -0.37192369 -0.23737365 -0.002682459 -0.49917543 -0.70805717
0.4938669 -0.026169552 0.81879896 0.014029015 0.17580628 -0.65259147 0.04405321 0.37866685
0.015805986 -0.049680915 -0.53403467 -0.49812585 -0.05524592 -0.030396018 0.17479306 0.032968413
0.01256388 0.106361866 -0.39163193 -0.022550574 -1.1645291 -0.5762958 0.07857026 0.2549152
-0.17722566 0.014910866 -0.5110521 -0.0069685457 -0.0065013277 -0.08657623 0.014234863 -0.17145622
0.255414 -1.1199504 -0.6593531 -0.35022438 0.25845456 -0.18032703 -0.026940256 -0.7055277
-0.06689655 -0.3179041 0.0883024 0.025153054 -0.036697857 0.045054916 0.23809633 -0.72778136
-0.07387078 -0.5625158 -0.14845023 0.0827721 0.00623499 0.19207543 -0.69967073 -0.65325844
-0.14517838 -0.028667156 -0.027756043 0.36411777 -0.6904986 0.06453058 0.002232529 0.06268324
0.7605418 -0.07163666 0.2953425 -0.13634199 -0.4326126 0.14782208 -0.80005044 0.5862926
0.15854639 0.35373205 0.06307822 -0.40434363 -0.47576475 -0.38026485 -0.48870832 -0.0736216
0.054171536 0.022051478 -0.7664427 -0.0091998875 -0.19823007 0.34581935 -0.7458224 -0.26581246
-1.0135106 -0.9406847 0.20316775 0.23266733 0.45061216 0.0310002 0.0056715705 -0.8326919
0.050968878 -0.14913012 -0.24826504 -0.8295274 -0.48984838 -0.13955708 0.36131933 -0.6024195
0.82093036 -0.38759783 -0.07052623 -0.52825224 -0.12540096 -0.018266896 0.95888144 0.25160864
-0.31139946 0.02475929 0.107634075 -0.42961428 -0.067038685 -0.35603705 -0.19996536 -0.08996145
0.78088874 -0.25042033 -0.82665265 0.16382605 0.2472418 -0.0016498425 -0.8374068 -0.11942272
-0.021768952 -0.46899265 0.096214294 0.2207383 -0.5876862 -0.13262358 0.27121738 -0.85021913
0.17137314 -1.268096 -0.01957884 -0.7547586 -0.032778703 -0.5523278 0.051110324 -0.20984972
-0.21238297 0.025319275 -0.6126268 0.2238948 0.042424604 -0.17653634 -0.84075665 -0.08619004
-0.048708823 0.26728278 0.08415383 -0.09785674 0.46754986 0.051583815 0.026094126 -0.19675592
0.24767366 -0.010296828 0.039313745 0.3430245 0.14297587 -0.014070278 -0.42782456 0.029152652
-0.56347495 -0.4885374 -0.12685892 0.05787974 0.041434724 -0.5686617 -0.05416289 0.187227
-0.38467914 -0.22824349 0.2275167 -0.095631145 0.030339494 0.022676157 0.060735714 -0.036366608
-0.8269385 0.086794384 -0.020717714 0.14073484 0.90442437 -0.6310404 -0.040285997 -0.19688602
0.29000053 0.094918065 0.031937074 -0.6083768 0.15523173 -0.13132004 -0.1210807 -0.29050472
-1.2497096 0.064315595 -0.967627 -0.627112 -0.79570544 -0.6861076 0.023024654 0.2655769
0.014393216 -0.014954747 -0.3961594 0.48806068 0.44198495 0.04221777 0.27051964 0.47012138
-0.113159806 -0.29613492 -0.46671858 0.048256014 -0.3880503 -0.040748682 -0.9949602 0.06792499
0.20810322 0.091044344 0.7783861 0.019476658 0.0967912 -0.26460242 0.038987264 0.2800156
-0.2108612 -0.28562114 -0.759268 -0.56341636 0.52905715 0.11103869 -0.003695192 -0.5246345
-0.09395184 0.13747533 0.016260797 0.3975145 0.32773677 0.07669137 0.72556007 -0.081407584

architecture.fc2.bias f4 [10]
00000000: f370 65be 7788 aa3e 6005 c8be 13e2 ef3d
00000010: 7ccc b7be b8ef a5be bdab 00bf 1052 3e3e
00000020: f054 473f 379f 9e3d
-0.22406368 0.3330724 -0.390666 0.11713042 -0.35898197 -0.32409453 -0.5026205 0.18585992
0.7786398 0.077452116

conv1.weight f4 [10, 1, 3, 3]
00000000: 6c2d 1f3f a564 42bf 909e 87bf 9104 a1bf
00000010: a9a1 32bf 73ae de3d 2419 a7bf 4203 dc3e
00000020: b711 d13e b93e f1be ae31 f53d 21d3 273e
00000030: cf01 05bf d244 2fbe c4ac 3cbe cc27 02be
00000040: fcd2 483e 2a62 4f3d 07a2 593e f0a3 883e
00000050: 07b8 a03e d2d1 96be b894 dcbe 5861 693e
00000060: 961d 4dbf db04 913e 20d9 273f dd05 21bf
00000070: d97d 2fbe afb8 8e3e 3f76 d6be 8623 933e
00000080: 7f08 f83d d038 273e c7ad 2f3e 4d43 84bf
00000090: ec87 a43e ac77 f63e 363d 9fbf 702a 19bf
000000a0: d56a 5d3f 707f 9ebe 16c4 a0be b990 b43e
000000b0: 935a 88bc caa3 aabf 7c66 9e3d 162a 3b3f
000000c0: 5d5c f1bf 4e80 2fbf 6add 893c 96ad 48be
000000d0: 5c8f 5cbf 3301 10bf 2ccb 90be b615 6dbd
000000e0: bd7e 0a3e 984a 2bbe 6d24 043e 0495 fabd
000000f0: 6d28 97bd 5a2e 7fbd 5f54 72bd 5191 143f
00000100: 6251 943e 6963 c23e 852a 03be 4508 ac3c
00000110: aaf4 77bd be14 35bf b957 48bf a7e8 3cbf
00000120: 6953 2b3e 3b25 0bbf f6ab 4ebf 0872 ac3e
00000130: 09cb 86be da54 2bbe 2659 d43e f26d ae3e
00000140: c25b 313f f173 ffbe 1bc6 6f3e a372 83be
00000150: 232d 0fba d8a2 bf3c f8bf 5cbd 228e 96bc
00000160: 9a13 f5bd ec84 05bd
0.62178683 -0.7593482 -1.0595264 -1.2579519 -0.69777924 0.10873117 -1.3054547 0.42971236
0.40833828 -0.47118166 0.11972366 0.16389133 -0.51955885 -0.17116097 -0.1842528 -0.12710494
0.19611734 0.050630726 0.21253215 0.26687574 0.31390402 -0.29456955 -0.43082213 0.2279104
-0.8012327 0.28324017 0.6556568 -0.6289957 -0.17137851 0.27875277 -0.4188709 0.2873804
0.121109955 0.16330266 0.17156135 -1.0333039 0.3213495 0.48138177 -1.2440555 -0.5983038
0.8649114 -0.30956602 -0.31399602 0.35266665 -0.016644752 -1.3331234 0.07734391 0.73111093
-1.8856312 -0.6855515 0.016829211 -0.19597468 -0.8615625 -0.5625183 -0.28280008 -0.057882033
0.1352491 -0.16727674 0.1290452 -0.12235454 -0.073807575 -0.062300064 -0.059162494 0.58034235
0.2896834 0.3796647 -0.12809189 0.021000037 -0.060536064 -0.70734775 -0.78258854 -0.737925
0.16731037 -0.54353684 -0.8073114 0.3368075 -0.2632678 -0.16731587 0.41474265 0.34068257
0.69280636 -0.49893144 0.23415415 -0.25673398 -0.0005461743 0.02339308 -0.053894013 -0.018378321
-0.11966629 -0.032597467

conv1.bias f4 [10]
00000000: 47d2 4abd 5cb1 cabe 3c63 10bf 7e56 5abf
00000010: 77d6 34bf 4550 2ebe 6a7a a6be 4375 45bd
00000020: d606 03bf 22f9 85be
-0.049516942 -0.3958844 -0.5640142 -0.85288227 -0.7063975 -0.17022808 -0.3251527 -0.048207533
-0.51182306 -0.26166636

conv2.weight f4 [20, 10, 3, 3]
00000000: 94fb 15be c774 0fbe 6a4b 7ebd f024 febd
00000010: 4cd1 0cbe 7bb6 92bc 4679 9fbd 28d9 76bb
00000020: 00c2 40bc 0a37 4abd fb9a abbd e592 91bd
00000030: 9cc6 0dbe 5122 74bd cd60 4b3c d757 06be
00000040: cdba 98bd 9e1a adbc 0b7f dabb 9e31 fb3c
00000050: e77c 40be 6540 3cbd c2e8 e9bd 5a77 14bd
00000060: bec2 12be 449b 3b3c 396e c1bd 1dd3 1f3c
00000070: d16e f3bd 3c3a 2bbd 5e9e d2bc 1678 83bc
00000080: acea 95bd 5a90 e0bd a467 afbd bac9 1dbd
00000090: b51e d9bd 0d66 d1bd 25b0 07bd c6fa 2cbe
000000a0: f657 6abc 7e44 d5bd e550 26be 0075 abbd
000000b0: 5e1d e5bd 7573 2cbe a97a 14be 679c ecbd
000000c0: 679d a7bc 6265 2ebd 31bd d03a cd67 47bd
000000d0: d0fc bdbd d40c c1bd a3d5 a0bd afb9 a33d
000000e0: efab 30bd fbef c6bc 7901 cbbd a93a b3bd
000000f0: 8f65 373d ace8 da3c ab44 003d 38ca e1bd
00000100: 8a67 ccbd 01e4 5ebe 85f5 54be 428c b8bd
00000110: b743 c5bd b074 44be d3fc 20be 0306 1bbe
00000120: adea 25be 876c dabd 6b82 25be 6c98 4dbd
00000130: 0831 a7bd f495 9abd cc06 68bd cada 8f3d
00000140: 94e0 38bd d80f 9bbd 77c6 3b3d 5293 00be
00000150: dbdf 06bd 7802 07be 5726 0abe 8656 38be
00000160: 8172 03be 15ce 60bd 2c52 5ebe accf 0a3f
00000170: 0d9f 203f c683 b2be 1392 9bbe d0b8 04bf
00000180: 1438 6ebe cb66 5d3e 1fc9 0ebd 8b98 12bd
00000190: 4255 6a3e e2e9 1c3d d220 f13b 39f5 13be
000001a0: 36a5 2fbf f7cf 20bf 856a cdbe 5a5c 76be
000001b0: 9f2b 883e a189 5e3f ce52 3e3e 27ae 4bbc
000001c0: fcae 35bf cd09 edbe 93b5 2cbe d099 41be
000001d0: 4e0c 0dbf a3ec 91be 9908 85be 601c 493e
000001e0: 61fa 843e 1528 523e 3e29 063e 6231 04bf
000001f0: f7e0 753d 65b8 ecbe 873b 7e3e 88f0 ea3e
00000200: f432 7c3e 3a14 62be b34b cfbe 5eab b7be
00000210: 8a1e 3bbe b572 d8bd 56b2 ed3d 4b70 463e
00000220: aa43 1ebe 6f7c 01bf 7b14 5abe 55fe 7ebf
00000230: ba7e a4bf 9cbf 643d d26b 123f 3ccf 5abf
00000240: 6b90 b4bc e092 ecbc b27c aabd 3f98 1cbe
00000250: a20e 8c3b 7ff7 78bd 9e29 06be f2f0 96bd
00000260: ce13 88bd 541b 963d 0a55 d8be 738b a6bf
00000270: 7edf ecbe 588b bebe 71de 52be 6963 813f
00000280: 1831 2e3f 9aa1 6abe 255d 783e d734 343f
00000290: a719 05bf 459f fe3e 1fd9 d0bf 2024 46bf
000002a0: 0d8b 83bf 358f 95bf 9a5d a8be ed98 84bd
000002b0: a9d2 dd3d 7dcf 153e e235 013d 4c5e d53d
000002c0: 9aa8 18bd dea0 88be eb64 463d 00e9 c43d
000002d0: 2f8d 903d c321 d03c 5068 b3bd 345d d8bd
000002e0: ea62 8e3f 3833 febb a525 f83e 7b93 da3d
000002f0: 0db8 a23e be51 c53d f693 cabd f96f d53d
00000300: b8c9 6bbe 067a ab3d 3135 843e 366f 5ebe
00000310: 56dc 84be baac 1ebf 3384 47bf 4de5 a9bf
00000320: 5cf3 07bf 9568 bdbf 2749 b0bd 3c8d 0fbe
00000330: 168f b1be 032f 57bf 4991 2fbd fe33 f93e
00000340: ed8f a3be 1be0 45bf 7dec 17be f746 163e
00000350: a4b9 5dbe eb04 a1bd 0fd8 ce3e ad6b ab3d
00000360: a4ea 26bd 2879 5fbf 9f41 26bf 2991 fd3d
00000370: ca1c 723f 5a21 13bf 4102 47be aa0f 41be
00000380: ada1 28bf c949 40bf 1328 b2bf 887c 4b3e
00000390: 1ec5 04bf e5c1 52be 213f 0b3f 258d 3dbf
000003a0: 09ba d2bf ac12 91bf f7ae 043b 9413 ce3d
000003b0: e8ae c5bb 5b2c 21be 0545 213d cb45 81bd
000003c0: a7e8 31bd afcd 053c 8a6d 61bc 0b87 833e
000003d0: 615a 34bf 71c5 14c0 e966 35bf 0f4b e9be
000003e0: dbea 5dbf 8e90 873f 5631 383e e83c 80be
000003f0: 8e0d e0be 9957 53bf b971 67be b860 913e
-0.1464675 -0.14009391 -0.06208364 -0.12409389 -0.13751715 -0.01790928 -0.07786803 -0.0037666056
-0.011765003 -0.049368896 -0.083791696 -0.07108096 -0.13845295 -0.05960304 0.012413216 -0.13119446
-0.074575044 -0.021130856 -0.0066679767 0.030663308 -0.18797646 -0.04595985 -0.11421348 -0.036246635
-0.14332101 0.011450592 -0.094448514 0.009754923 -0.11886371 -0.041803584 -0.025710281 -0.016048472
-0.07320151 -0.10965033 -0.0856469 -0.03852246 -0.1060156 -0.10224543 -0.03312697 -0.16892537
-0.014303198 -0.104134545 -0.16241796 -0.08371925 -0.11187242 -0.16840918 -0.14499916 -0.11553269
-0.020460797 -0.042577155 0.0015925524 -0.048682977 -0.09276736 -0.09426275 -0.07853248 0.07994401
-0.04313272 -0.024284353 -0.0991239 -0.08751423 0.04477459 0.026722275 0.031315487 -0.11024898
-0.09980686 -0.21766664 -0.20796783 -0.09011127 -0.09632056 -0.19185138 -0.15721445 -0.15139012
-0.16202803 -0.10665231 -0.16163032 -0.05019419 -0.08163649 -0.075481325 -0.056647107 0.070241526
-0.04513605 -0.07571381 0.045843568 -0.12556198 -0.03292833 -0.13184536 -0.13491188 -0.18001756
-0.12836649 -0.054884035 -0.21711034 0.5422313 0.6274269 -0.3486616 -0.30384883 -0.518445
-0.2326358 0.21621244 -0.034859773 -0.035790008 0.22884086 0.038308986 0.007358649 -0.14449014
-0.68611467 -0.6281733 -0.4012033 -0.24058667 0.2659578 0.86928755 0.18586275 -0.012431658
-0.7097013 -0.4629654 -0.1686614 -0.18906331 -0.550969 -0.28500852 -0.25983122 0.1963973
0.25972274 0.20523103 0.1310167 -0.5163785 0.060028996 -0.46234432 0.24827395 0.45886636
0.24628812 -0.22078028 -0.4048744 -0.3587293 -0.18273368 -0.10568754 0.116062805 0.19378774
-0.154555 -0.50580496 -0.21296875 -0.9960683 -1.2851174 0.055846795 0.5719577 -0.85472465
-0.02204152 -0.02887863 -0.08324565 -0.15292452 0.0042742053 -0.060782906 -0.13101813 -0.073701754
-0.066444024 0.07329431 -0.4225238 -1.3011307 -0.4626426 -0.37215686 -0.20592667 1.0108463
0.6804366 -0.22913209 0.24254282 0.7039313 -0.5199227 0.49730888 -1.631626 -0.7739887
-1.027681 -1.1684328 -0.32883912 -0.06474481 0.10831196 0.14629932 0.031545527 0.10418376
-0.037270166 -0.26685232 0.048436087 0.09614754 0.07058179 0.025406724 -0.087601304 -0.10564652
1.1123936 -0.0077575706 0.4846622 0.10672661 0.31781045 0.09634732 -0.098915026 0.10421748
-0.23026168 0.083728835 0.25821832 -0.21722111 -0.25949353 -0.6198231 -0.77936095 -1.3273102
-0.5310571 -1.4797541 -0.08607703 -0.1401872 -0.34679478 -0.8405611 -0.042863164 0.4867248
-0.31945744 -0.7729508 -0.14836307 0.14675508 -0.21652848 -0.07862266 0.40399215 0.08370147
-0.040751114 -0.87294245 -0.6494388 0.12381203 0.9457518 -0.57472765 -0.19434454 -0.18853632
-0.658717 -0.7511259 -1.391848 0.19871724 -0.51863277 -0.20581777 0.543932 -0.74043494
-1.6463023 -1.1333823 0.0020245889 0.10062328 -0.0060328133 -0.15739577 0.039372463 -0.0631214
-0.043434765 0.008166715 -0.013759026 0.25688967 -0.7045041 -2.3245509 -0.70860153 -0.45565078
-0.86686486 1.059099 0.1798757 -0.25046468 -0.4376034 -0.8255554 -0.22601976 0.28394103

conv2.bias f4 [20]
00000000: c342 50bd cc63 46be 000c 06bf 98ae 19be
00000010: 8919 94be 14ba 09bf a450 4cbd 15eb bfbe
00000020: 18b6 78be 19c2 b6be f872 7ebe 2fcf 66be
00000030: 501f 99bc 25cd d2be a6d2 cfbd 12e0 ccbd
00000040: 5f89 01bf 4b47 27be 2c19 abbd 4374 07be
-0.05084492 -0.19374007 -0.5236206 -0.15008008 -0.28925732 -0.5379956 -0.049881592 -0.3748404
-0.24288213 -0.3569496 -0.24848545 -0.22539972 -0.018691689 -0.41172138 -0.101476 -0.100036755
-0.50600237 -0.1633579 -0.083544105 -0.13227944

fc1.weight f4 [100, 500]
00000000: 1e2f 25bd ab65 cfbd c665 163d 2d68 883d
00000010: f8ec af3d 5a2c bdbd 89b9 dbbc f5bb 913d
00000020: 01c0 8ebd bb60 c6bd 9952 cebc ade5 003d
00000030: 8a3d 8ebd b917 5ebd 06de 7cbd 1cb8 88bd
00000040: 7cd9 8b3d e7f0 a0bd fb24 6cbd 6e9f 7bbd
00000050: 1e9e c5bc 6a4d dcbd ada1 b93d 2459 613d
00000060: d578 9dbd e3ad 3f3f bcff 4ebf 7116 a33f
00000070: 1020 8a3f bd6c 2f3e 7f79 c43d 2b4c 88be
00000080: 270d c93e ccff a7bf 5283 04bf 1153 253f
00000090: 6a2b b83e e41b 343f a8f3 73bf 27a2 1ebf
000000a0: 8bef 93be 7994 fc3c a39e 0f3e 7277 a0bf
000000b0: 1a8d ebbe e023 1b3f 3fac 6d3e 5672 01bf
000000c0: 0638 c73e f060 243f 6d27 81bf 76c8 b3bf
000000d0: 9a9c 313e 5b76 2c3e 504b 5cbf 3460 fc3e
000000e0: ce28 493f cbef 7b3f 8af6 b8be c726 03bf
000000f0: 7b99 cdbe 425a 2ebe f00d cfbe 9fac d4bf
00000100: 251d 17c0 0018 2e3e abfa 9bbf 41bf 8ebf
00000110: f380 333f 8d53 773e 7015 963e 0b3e 4e3f
00000120: 1026 163f b1ad 7f3f 5b89 163f bed5 85bf
00000130: 07b4 90be 21ca 693f 3cc1 a3be 8850 19bf
00000140: 727e 533f f582 2bbd d0c0 67bd 9dca 66be
00000150: 1451 9e3f 10d4 43bf 60e5 ed3c b162 ec3e
00000160: 82fa dfbe efc2 d5bd 453e 0fbf a979 81bd
00000170: d8a7 033f ca23 0b3f 19cb 55bf dd2d 64bf
00000180: a855 863f 3fbd 46bf 92b6 33bf 51c7 c5bf
00000190: d46d 91bc 15c9 8ebd 6d7a 27bd bd5d bebd
000001a0: ea33 f2bc ec81 69bd 1cc6 3c3e 8046 bf3e
000001b0: c7f8 a73d 3120 9bbd bb6c 143d 98a7 a7be
000001c0: 5c71 b43d c595 c73d e732 28bd ae3f da3c
000001d0: 6cc5 a0bd 8d6f 07bd bd30 443d 12d0 1c3d
000001e0: 048b b93e 1599 aabd c46d ab3e e1cc 783e
000001f0: 66b6 273e 44bc 893e 73eb 9a3d 0a03 463e
00000200: dd9e 80be 0a23 bfbf 5327 48bf 20ad 343e
00000210: 3965 0abe d188 58bf 0114 29bf c12a 06bf
00000220: 4648 2bbe 842a 4dbf 14b9 01c0 192b b4bf
00000230: 95f3 e1be 60be d4bf dadc 2abf 8d42 00c0
00000240: dfea fbbf 63fd d23e 9b24 babe 6829 12bf
00000250: ea51 bf3f 118e 8b3f 092e 4f3f db77 7f3d
00000260: 57af 013f ec31 123e 7040 4ebf 2ca1 7dbf
00000270: 61d0 e6bf fa7e 623e d1f7 67be 25b9 01c0
00000280: ceb2 a4bf 05e8 053e 7438 0ebe 2dfc 4bbf
00000290: e22b 59bf df8f 82be 5433 7c3e e2da a73e
000002a0: 119f bdbf 2fce 4dbf 2558 86bf e532 81bf
000002b0: 2d86 363f 585c 0ac0 59a3 8ebe f95a 0ebd
000002c0: 5433 963d 7f9a 9f3d a43d e83c d371 ea3d
000002d0: b5aa 173e 2ccc 0a3d 699c d0bd bf93 93be
000002e0: da3f 53be eb66 8bbd 25ba 2dbd 8002 04be
000002f0: 10b5 83be 80a8 c7be 3a10 cbbd 1714 27be
00000300: 1997 e9bd 28b0 96be d988 a5be 74fc f03d
00000310: 7287 c43e a5ff dabd 87c5 9abe b5ca 873d
00000320: 0b43 63bf d14c 873f 6f18 213f 02b2 15bd
00000330: c13d bbbf f592 33bf 80e2 333e 16bd 4dbf
00000340: 85ee 2bbf 9c26 8fbf fe61 f4bd 7449 1d3f
00000350: 1f5f 21c0 2ed8 e9bf b44f 08be 9165 89bd
00000360: cf55 10bf eb1d c9bf aefe 503e e500 843f
00000370: bc87 02bd d103 1abe 8538 a83e 88ad 75bc
00000380: 58d8 cfbe 4363 de3e 53d0 c73e f115 dd3e
00000390: 1e6e 903d c2af a93e 9511 bc3e 7d29 ba3e
000003a0: 01a7 9e3e 051b 9a3e 562d b03e 46b8 0c3f
000003b0: c3c1 d23e cd97 963e 65e9 903e e21c 923e
000003c0: 6078 d03e e39b d73e 11bf c7bc fdd9 823e
000003d0: 8f95 e43e a539 b03e 8d14 e43e fd7b 023c
000003e0: 72e7 863e 7d7d e03e 2009 bc3f 6158 17be
000003f0: d372 8f3f ac69 693f 8670 1ebe 08ae 17bf
-0.040328138 -0.101268135 0.036718152 0.06660495 0.0859012 -0.09236975 -0.026821868 0.07115928
-0.069702156 -0.096864186 -0.02518587 0.031469036 -0.069453314 -0.054221842 -0.061735176 -0.06675741
0.06828591 -0.078584485 -0.057652455 -0.06143134 -0.024123248 -0.10756953 0.0906404 0.05501665
-0.076890625 0.74874705 -0.8085897 1.2741224 1.0791035 0.17131324 0.09593486 -0.26620612
0.39267847 -1.3124938 -0.5176288 0.64579874 0.35970622 0.7035506 -0.95293665 -0.61966175
-0.28893694 0.030832516 0.14025359 -1.2536452 -0.4600609 0.60601616 0.23210238 -0.5056509
0.3890993 0.64210415 -1.0090157 -1.4045551 0.17344895 0.16842024 -0.8605242 0.49292147
0.7857789 0.9841277 -0.36125594 -0.51231045 -0.4015616 -0.17026618 -0.4044032 -1.661518
-2.3611538 0.17001343 -1.2185873 -1.1152116 0.70118636 0.24152966 0.2931323 0.8056342
0.5865183 0.9987441 0.5880334 -1.0455854 -0.2826235 0.9132405 -0.31983364 -0.59888506
0.82614815 -0.041872937 -0.056580365 -0.22538228 1.2368493 -0.76495457 0.029040039 0.46169046
-0.4374581 -0.10437571 -0.5595439 -0.06322033 0.51427984 0.54351485 -0.8351303 -0.8913248
1.049489 -0.77632517 -0.70200455 -1.5451452 -0.017752565 -0.06971947 -0.04088824 -0.09295223
-0.02956577 -0.05700867 0.18434948 0.37358475 0.082017474 -0.075744994 0.036236506 -0.3274505
0.08810684 0.09745363 -0.04106417 0.026641693 -0.07850155 -0.033065367 0.047898043 0.03828437
0.36238873 -0.08329979 0.33482182 0.24296905 0.16378173 0.26901448 0.075644396 0.19337097
-0.25121203 -1.4932568 -0.78185004 0.17644167 -0.13515176 -0.84583765 -0.6604615 -0.5240899
-0.16726789 -0.80143 -2.0269213 -1.4075652 -0.4413115 -1.6620598 -0.6674324 -2.004062
-1.9681052 0.41208944 -0.36356053 -0.5709443 1.4946873 1.090273 0.8092962 0.062370162
0.5065817 0.14276856 -0.80567074 -0.99074054 -1.8032342 0.2211875 -0.22653128 -2.0269253
-1.2867067 0.1307679 -0.13888723 -0.79681665 -0.84832585 -0.2550039 0.24628955 0.32784182
-1.4814168 -0.80392736 -1.049565 -1.0093657 0.71298486 -2.1618862 -0.27859 -0.034754727
0.07334009 0.0779314 0.028349705 0.114474915 0.14811213 0.03388612 -0.10186083 -0.2882366
-0.20629826 -0.068067394 -0.04241385 -0.12891579 -0.25724077 -0.38995743 -0.09915204 -0.16316257
-0.11405773 -0.29431272 -0.3233097 0.117669016 0.38384587 -0.106932916 -0.30228826 0.0663046
-0.88774174 1.0570318 0.6292791 -0.036546715 -1.4628221 -0.70146114 0.17566872 -0.8036665
-0.67160827 -1.1183658 -0.11932753 0.61440206 -2.5214307 -1.8269098 -0.13311654 -0.067088254
-0.56380934 -1.5712255 0.20409653 1.0312773 -0.031867728 -0.15040518 0.3285562 -0.014994986
-0.40594745 0.43435106 0.39026126 0.43180802 0.07052253 0.33141905 0.36732164 0.36359778
0.3098679 0.3009874 0.3440959 0.5496868 0.41163453 0.2941269 0.28303066 0.2853766
0.4071684 0.4211112 -0.0243831 0.25556937 0.44645354 0.3441898 0.4454693 0.007964131
0.26348454 0.4384574 1.4690285 -0.14779808 1.1206917 0.9117687 -0.15472612 -0.59249926

fc1.bias f4 [100]
00000000: c2f4 1c3f e6b5 d8bd ce98 89bd 3698 fabe
00000010: 4444 b1be d67f 2dbd 2613 8dbd b459 debe
00000020: 4b44 70bf ffec 96bc 2bd1 b83d cc73 ffbe
00000030: 090c 663f 5d85 03bf 4b23 b5bd c1f0 6bbe
00000040: 90a1 b4bc ccf8 babd 9f1b 2cbf 1cc1 2f3f
00000050: 7e42 eebe 73c6 67be eb06 5d3d f279 2bbf
00000060: d237 95bd f98b 55be 28b4 42bf 3096 d6bd
00000070: 17e9 cd3e 5414 13bf 8265 39bf ab42 2ebf
00000080: 73a8 643f 7948 b7bd 88d5 5cbf 9dd0 86bd
00000090: d607 cebd 87a9 0ebf 8440 68bd 9d62 acbe
000000a0: 2849 e8be 100a e7bd 481c 9b3d 91c2 99be
000000b0: 1582 a7be 33e1 e4be 9bb7 2abd 1f8a 9fbe
000000c0: b43b 19bd 222d 88bf 2506 54bd 9ce1 173e
000000d0: eea5 253d 8105 b7bd 5519 a9be 78dc 73be
000000e0: dc05 14bd c487 cfbe a3d5 53bf ed64 c5bd
000000f0: 3e55 4abd 2b01 2abf 791f d3be 2828 1bbd
00000100: 843c ec3e 2b13 b5bd 15d4 aebd 9107 c23d
00000110: 3463 18bb ad45 32bd e029 94bc 2ec2 53be
00000120: 81f5 c03d 6959 9cbd 5bf4 eabe 0501 18bd
00000130: 4fa3 3dbf 995e c6be 6611 2dbf e51b 8abb
00000140: 7eb4 22bf 6c65 0dbf fb91 1abd db85 fbbe
00000150: e0ce adbe 680a db3e b17a 62bc 35fd 87bd
00000160: d43d aabd f351 0dbd cbc7 aebe 21e2 673e
00000170: 3806 7abf 2391 95be ca12 a1be 9b41 e7be
00000180: 7c18 d43e 9105 e6be fd5a 3fbe ee05 e7be
0.6131097 -0.105815694 -0.06718598 -0.48944253 -0.34622395 -0.042358242 -0.06888418 -0.43427813
-0.93854207 -0.018423555 0.090242706 -0.49893034 0.89862114 -0.5137537 -0.08844622 -0.23041059
-0.022049695 -0.091294855 -0.67229646 0.68654037 -0.46535105 -0.22634296 0.053961676 -0.6698295
-0.072860375 -0.20854177 -0.76056147 -0.10477865 0.40216896 -0.57452893 -0.72420514 -0.6807048
0.89319533 -0.0894937 -0.8626332 -0.065827586 -0.10060088 -0.5572743 -0.056702152 -0.33668986
-0.45368314 -0.11281216 0.075737536 -0.30031255 -0.32716432 -0.44703063 -0.041679006 -0.31160066
-0.037410453 -1.0638773 -0.051763672 0.14832157 0.040441446 -0.08936597 -0.3302714 -0.23814571
-0.0361384 -0.40533268 -0.8274786 -0.09638391 -0.0493977 -0.6640803 -0.4123495 -0.037880093
0.4613992 -0.088415466 -0.08536545 0.094740994 -0.002325249 -0.04352348 -0.018086374 -0.20679542
0.09421826 -0.07634241 -0.45889553 -0.037110347 -0.74077314 -0.38744047 -0.6760467 -0.004214751
-0.6355666 -0.5523288 -0.037736874 -0.4912556 -0.33946896 0.42781377 -0.013823197 -0.06640092
-0.08312574 -0.03450198 -0.34136805 0.22644855 -0.9766574 -0.29212293 -0.31459647 -0.4516724
0.4142493 -0.44926122 -0.18687053 -0.45121711

fc2.weight f4 [10, 100]
00000000: 82e7 96bf 7e93 933c 1f32 20bd c86c bebe
00000010: 1412 73be 32cc 2fbb ec93 ffbe 3c43 35bf
00000020: 1fdc fc3e 8761 d6bc cf9c 513f f4d9 653c
00000030: 9006 343e 3c10 27bf 2471 343d 9fe0 c13e
00000040: 8e7b 813c 377e 4bbd 7fb6 08bf 5a0a ffbe
00000050: 8c49 62bd 1201 f9bc f4fc 323e e309 073d
00000060: bbd8 4d3c 40d4 d93d fb83 c8be fbbb b8bc
00000070: 4a0f 95bf 1f88 13bf 72e9 a03d 3f84 823e
00000080: a57a 35be b44c 743c 4fd4 02bf 6658 e4bb
00000090: 1709 d5bb e14e b1bd 5839 693c 3892 2fbe
000000a0: a0c5 823e 895a 8fbf 5dcb 28bf 9c50 b3be
000000b0: 2854 843e a6a7 38be d0b1 dcbc 779d 34bf
000000c0: 0f01 89bd 54c4 a2be e4d7 b43d c70d ce3c
000000d0: 7e50 16bd 818b 383d 86cf 733e e14f 3abf
000000e0: 9049 97bd 0901 10bf 5603 18be 6b84 a93d
000000f0: e34e cc3b 6caf 443e 9f1d 33bf f23b 27bf
00000100: a4a9 14be 62d7 eabc a460 e3bc a56d ba3e
00000110: 84c4 30bf 9c28 843d 9f4f 123b 1260 803d
00000120: deb2 423f 3eb6 92bd 2237 973e 3c9d 0bbe
00000130: 667f ddbe ac5e 173e 1bd0 4cbf 4617 163f
00000140: fc59 223e 5e1c b53e 272f 813d 2106 cfbe
00000150: 7097 f3be 13b2 c2be fa37 fabe ecc6 96bd
00000160: f9e2 5d3d 4da5 b43c 9735 44bf 20bb 16bc
00000170: d3fc 4abe 3c0f b13e 38ee 3ebf 9218 88be
00000180: b7ba 81bf b6d0 70bf 350b 503e 5840 6e3e
00000190: a3b6 e63e 22f4 fd3c 95d8 b93b 4c2b 55bf
000001a0: bec4 503d 91b5 18be 3139 7ebe e85b 54bf
000001b0: 68cd fabe 0de8 0ebe d9fe b83e 2a38 1abf
000001c0: 7e28 523f 3973 c6be 0e70 90bd 8a3b 07bf
000001d0: 1c69 00be 75a4 95bc 4179 753f d9d2 803e
000001e0: c06f 9fbe ffd3 ca3c 416f dc3d 67f6 dbbe
000001f0: 944b 89bd 7d4a b6be b8c3 4cbe b53d b8bd
00000200: 53e8 473f 1837 80be 829f 53bf 04c2 273e
00000210: f42c 7d3e 873f d8ba 4b60 56bf e693 f4bd
00000220: cd54 b2bc ce1f f0be 000c c53d 3909 623e
00000230: 9a72 16bf 7ace 07be 01dd 8a3e f6a7 59bf
00000240: 717c 2f3e f850 a2bf ce63 a0bc dc37 41bf
00000250: f642 06bd 5b65 0dbf 0f59 513d d8e2 56be
00000260: ec7a 59be 5e6a cf3c 1cd5 1cbf ae44 653e
00000270: 6cc5 2d3d f1c5 34be d43b 57bf 6784 b0bd
00000280: e782 47bd 4ad9 883e d858 ac3d 1d69 c8bd
00000290: b262 ef3e 8d49 533d 59c3 d53c 627a 49be
000002a0: 2a9e 7d3e 07b4 28bc 7307 213d e8a0 af3e
000002b0: 4468 123e 0687 66bc d20b dbbe 8bd1 ee3c
000002c0: e53f 10bf 9321 fabe 4ee7 01be 4e13 6d3d
000002d0: 75b7 293d d093 11bf e8d9 5dbd 6fb8 3f3e
000002e0: aaf4 c4be a9b8 69be 23fa 683e 43da c3bd
000002f0: 888a f83c 59c3 b93c 03c6 783d 27f5 14bd
00000300: 3eb2 53bf 41c1 b13d 32b8 a9bc cb1c 103e
00000310: 5b88 673f dd8b 21bf ee02 25bd 7d9c 49be
00000320: f37a 943e 6764 c23d 73d0 023d 95be 1bbf
00000330: 11f5 1e3e c378 06be 28f9 f7bd 09bd 94be
00000340: 7cf6 9fbf e5b7 833d 67b6 77bf 698a 20bf
00000350: 5ab3 4bbf bfa4 2fbf 339e bc3c b2f9 873e
00000360: 86d1 6b3c c104 75bc 68d5 cabe 17e3 f93e
00000370: da4b e23e 8aec 2c3d 8d81 8a3e c0b3 f03e
00000380: 54c0 e7bd ff9e 97be bdf5 eebe 19a8 453d
00000390: 87ae c6be 17e8 26bd b6b5 7ebf 421c 8b3d
000003a0: 0319 553e 7575 ba3d 5044 473f 838d 9f3c
000003b0: 773a c63d f879 87be 1cb1 1f3d 345e 8f3e
000003c0: 00ec 57be ef3c 92be 635f 42bf 0e3c 10bf
000003d0: 4a70 073f 4168 e33d 092b 72bb 724e 06bf
000003e0: d369 c0bd 55c6 0c3e 5d35 853c 0587 cb3e
000003f0: 1dcd a73e 5d10 9d3d 4ebe 393f 05b9 a6bd
-1.17894 0.018014666 -0.0391103 -0.37192369 -0.23737365 -0.002682459 -0.49917543 -0.70805717
0.4938669 -0.026169552 0.81879896 0.014029015 0.17580628 -0.65259147 0.04405321 0.37866685
0.015805986 -0.049680915 -0.53403467 -0.49812585 -0.05524592 -0.030396018 0.17479306 0.032968413
0.01256388 0.106361866 -0.39163193 -0.022550574 -1.1645291 -0.5762958 0.07857026 0.2549152
-0.17722566 0.014910866 -0.5110521 -0.0069685457 -0.0065013277 -0.08657623 0.014234863 -0.17145622
0.255414 -1.1199504 -0.6593531 -0.35022438 0.25845456 -0.18032703 -0.026940256 -0.7055277
-0.06689655 -0.3179041 0.0883024 0.025153054 -0.036697857 0.045054916 0.23809633 -0.72778136
-0.07387078 -0.5625158 -0.14845023 0.0827721 0.00623499 0.19207543 -0.69967073 -0.65325844
-0.14517838 -0.028667156 -0.027756043 0.36411777 -0.6904986 0.06453058 0.002232529 0.06268324
0.7605418 -0.07163666 0.2953425 -0.13634199 -0.4326126 0.14782208 -0.80005044 0.5862926
0.15854639 0.35373205 0.06307822 -0.40434363 -0.47576475 -0.38026485 -0.48870832 -0.0736216
0.054171536 0.022051478 -0.7664427 -0.0091998875 -0.19823007 0.34581935 -0.7458224 -0.26581246
-1.0135106 -0.9406847 0.20316775 0.23266733 0.45061216 0.0310002 0.0056715705 -0.8326919
0.050968878 -0.14913012 -0.24826504 -0.8295274 -0.48984838 -0.13955708 0.36131933 -0.6024195
0.82093036 -0.38759783 -0.07052623 -0.52825224 -0.12540096 -0.018266896 0.95888144 0.25160864
-0.31139946 0.02475929 0.107634075 -0.42961428 -0.067038685 -0.35603705 -0.19996536 -0.08996145
0.78088874 -0.25042033 -0.82665265 0.16382605 0.2472418 -0.0016498425 -0.8374068 -0.11942272
-0.021768952 -0.46899265 0.096214294 0.2207383 -0.5876862 -0.13262358 0.27121738 -0.85021913
0.17137314 -1.268096 -0.01957884 -0.7547586 -0.032778703 -0.5523278 0.051110324 -0.20984972
-0.21238297 0.025319275 -0.6126268 0.2238948 0.042424604 -0.17653634 -0.84075665 -0.08619004
-0.048708823 0.26728278 0.08415383 -0.09785674 0.46754986 0.051583815 0.026094126 -0.19675592
0.24767366 -0.010296828 0.039313745 0.3430245 0.14297587 -0.014070278 -0.42782456 0.029152652
-0.56347495 -0.4885374 -0.12685892 0.05787974 0.041434724 -0.5686617 -0.05416289 0.187227
-0.38467914 -0.22824349 0.2275167 -0.095631145 0.030339494 0.022676157 0.060735714 -0.036366608
-0.8269385 0.086794384 -0.020717714 0.14073484 0.90442437 -0.6310404 -0.040285997 -0.19688602
0.29000053 0.094918065 0.031937074 -0.6083768 0.15523173 -0.13132004 -0.1210807 -0.29050472
-1.2497096 0.064315595 -0.967627 -0.627112 -0.79570544 -0.6861076 0.023024654 0.2655769
0.014393216 -0.014954747 -0.3961594 0.48806068 0.44198495 0.04221777 0.27051964 0.47012138
-0.113159806 -0.29613492 -0.46671858 0.048256014 -0.3880503 -0.040748682 -0.9949602 0.06792499
0.20810322 0.091044344 0.7783861 0.019476658 0.0967912 -0.26460242 0.038987264 0.2800156
-0.2108612 -0.28562114 -0.759268 -0.56341636 0.52905715 0.11103869 -0.003695192 -0.5246345
-0.09395184 0.13747533 0.016260797 0.3975145 0.32773677 0.07669137 0.72556007 -0.081407584

fc2.bias f4 [10]
00000000: f370 65be 7788 aa3e 6005 c8be 13e2 ef3d
00000010: 7ccc b7be b8ef a5be bdab 00bf 1052 3e3e
00000020: f054 473f 379f 9e3d
-0.22406368 0.3330724 -0.390666 0.11713042 -0.35898197 -0.32409453 -0.5026205 0.18585992
0.7786398 0.077452116
